{"format": "graph-model", "generatedBy": "1.14.0", "convertedBy": "TensorFlow.js Converter v1.2.6", "modelTopology": {"node": [{"name": "logits/biases", "op": "Const", "attr": {"value": {"tensor": {"dtype": "DT_FLOAT", "tensorShape": {"dim": [{"size": "12000"}]}}}, "dtype": {"type": "DT_FLOAT"}}}, {"name": "logits/weights", "op": "Const", "attr": {"value": {"tensor": {"dtype": "DT_FLOAT", "tensorShape": {"dim": [{"size": "512"}, {"size": "12000"}]}}}, "dtype": {"type": "DT_FLOAT"}}}, {"name": "Reshape_1/shape", "op": "Const", "attr": {"value": {"tensor": {"dtype": "DT_INT32", "tensorShape": {"dim": [{"size": "2"}]}}}, "dtype": {"type": "DT_INT32"}}}, {"name": "lstm/BasicLSTMCell/Linear/Matrix", "op": "Const", "attr": {"value": {"tensor": {"dtype": "DT_FLOAT", "tensorShape": {"dim": [{"size": "1024"}, {"size": "2048"}]}}}, "dtype": {"type": "DT_FLOAT"}}}, {"name": "lstm/state_feed", "op": "Placeholder", "attr": {"shape": {"shape": {"dim": [{"size": "-1"}, {"size": "1024"}]}}, "dtype": {"type": "DT_FLOAT"}}}, {"name": "lstm/initial_state/concat_dim", "op": "Const", "attr": {"value": {"tensor": {"dtype": "DT_INT32", "tensorShape": {}}}, "dtype": {"type": "DT_INT32"}}}, {"name": "input_feed", "op": "Placeholder", "attr": {"dtype": {"type": "DT_INT64"}, "shape": {"shape": {"dim": [{"size": "-1"}]}}}}, {"name": "seq_embedding/map", "op": "Const", "attr": {"value": {"tensor": {"dtype": "DT_FLOAT", "tensorShape": {"dim": [{"size": "12000"}, {"size": "512"}]}}}, "dtype": {"type": "DT_FLOAT"}}}, {"name": "lstm/BasicLSTMCell/Linear/Bias", "op": "Const", "attr": {"value": {"tensor": {"dtype": "DT_FLOAT", "tensorShape": {"dim": [{"size": "2048"}]}}}, "dtype": {"type": "DT_FLOAT"}}}, {"name": "lstm/BasicLSTMCell/add_1/y", "op": "Const", "attr": {"value": {"tensor": {"dtype": "DT_FLOAT", "tensorShape": {}}}, "dtype": {"type": "DT_FLOAT"}}}, {"name": "lstm/zeros", "op": "Const", "attr": {"value": {"tensor": {"dtype": "DT_FLOAT", "tensorShape": {"dim": [{"size": "1"}, {"size": "512"}]}}}, "dtype": {"type": "DT_FLOAT"}}}, {"name": "image_embedding/weights", "op": "Const", "attr": {"dtype": {"type": "DT_FLOAT"}, "value": {"tensor": {"dtype": "DT_FLOAT", "tensorShape": {"dim": [{"size": "2048"}, {"size": "512"}]}}}}}, {"name": "InceptionV3/logits/flatten/Reshape/shape", "op": "Const", "attr": {"value": {"tensor": {"dtype": "DT_INT32", "tensorShape": {"dim": [{"size": "2"}]}}}, "dtype": {"type": "DT_INT32"}}}, {"name": "InceptionV3/InceptionV3/Mixed_7c/Branch_3/Conv2d_0b_1x1/BatchNorm/batchnorm/sub", "op": "Const", "attr": {"value": {"tensor": {"dtype": "DT_FLOAT", "tensorShape": {"dim": [{"size": "192"}]}}}, "dtype": {"type": "DT_FLOAT"}}}, {"name": "InceptionV3/InceptionV3/Mixed_7c/Branch_3/Conv2d_0b_1x1/convolution/merged_input", "op": "Const", "attr": {"value": {"tensor": {"dtype": "DT_FLOAT", "tensorShape": {"dim": [{"size": "1"}, {"size": "1"}, {"size": "2048"}, {"size": "192"}]}}}, "dtype": {"type": "DT_FLOAT"}}}, {"name": "InceptionV3/InceptionV3/Mixed_7b/Branch_3/Conv2d_0b_1x1/BatchNorm/batchnorm/sub", "op": "Const", "attr": {"value": {"tensor": {"dtype": "DT_FLOAT", "tensorShape": {"dim": [{"size": "192"}]}}}, "dtype": {"type": "DT_FLOAT"}}}, {"name": "InceptionV3/InceptionV3/Mixed_7b/Branch_3/Conv2d_0b_1x1/convolution/merged_input", "op": "Const", "attr": {"value": {"tensor": {"dtype": "DT_FLOAT", "tensorShape": {"dim": [{"size": "1"}, {"size": "1"}, {"size": "1280"}, {"size": "192"}]}}}, "dtype": {"type": "DT_FLOAT"}}}, {"name": "InceptionV3/InceptionV3/Mixed_6e/Branch_3/Conv2d_0b_1x1/BatchNorm/batchnorm/sub", "op": "Const", "attr": {"value": {"tensor": {"dtype": "DT_FLOAT", "tensorShape": {"dim": [{"size": "192"}]}}}, "dtype": {"type": "DT_FLOAT"}}}, {"name": "InceptionV3/InceptionV3/Mixed_6e/Branch_3/Conv2d_0b_1x1/convolution/merged_input", "op": "Const", "attr": {"dtype": {"type": "DT_FLOAT"}, "value": {"tensor": {"dtype": "DT_FLOAT", "tensorShape": {"dim": [{"size": "1"}, {"size": "1"}, {"size": "768"}, {"size": "192"}]}}}}}, {"name": "InceptionV3/InceptionV3/Mixed_6d/Branch_3/Conv2d_0b_1x1/BatchNorm/batchnorm/sub", "op": "Const", "attr": {"value": {"tensor": {"dtype": "DT_FLOAT", "tensorShape": {"dim": [{"size": "192"}]}}}, "dtype": {"type": "DT_FLOAT"}}}, {"name": "InceptionV3/InceptionV3/Mixed_6d/Branch_3/Conv2d_0b_1x1/convolution/merged_input", "op": "Const", "attr": {"dtype": {"type": "DT_FLOAT"}, "value": {"tensor": {"dtype": "DT_FLOAT", "tensorShape": {"dim": [{"size": "1"}, {"size": "1"}, {"size": "768"}, {"size": "192"}]}}}}}, {"name": "InceptionV3/InceptionV3/Mixed_6c/Branch_3/Conv2d_0b_1x1/BatchNorm/batchnorm/sub", "op": "Const", "attr": {"value": {"tensor": {"dtype": "DT_FLOAT", "tensorShape": {"dim": [{"size": "192"}]}}}, "dtype": {"type": "DT_FLOAT"}}}, {"name": "InceptionV3/InceptionV3/Mixed_6c/Branch_3/Conv2d_0b_1x1/convolution/merged_input", "op": "Const", "attr": {"value": {"tensor": {"dtype": "DT_FLOAT", "tensorShape": {"dim": [{"size": "1"}, {"size": "1"}, {"size": "768"}, {"size": "192"}]}}}, "dtype": {"type": "DT_FLOAT"}}}, {"name": "InceptionV3/InceptionV3/Mixed_6b/Branch_3/Conv2d_0b_1x1/BatchNorm/batchnorm/sub", "op": "Const", "attr": {"value": {"tensor": {"dtype": "DT_FLOAT", "tensorShape": {"dim": [{"size": "192"}]}}}, "dtype": {"type": "DT_FLOAT"}}}, {"name": "InceptionV3/InceptionV3/Mixed_6b/Branch_3/Conv2d_0b_1x1/convolution/merged_input", "op": "Const", "attr": {"value": {"tensor": {"dtype": "DT_FLOAT", "tensorShape": {"dim": [{"size": "1"}, {"size": "1"}, {"size": "768"}, {"size": "192"}]}}}, "dtype": {"type": "DT_FLOAT"}}}, {"name": "InceptionV3/InceptionV3/Mixed_5d/Branch_3/Conv2d_0b_1x1/BatchNorm/batchnorm/sub", "op": "Const", "attr": {"value": {"tensor": {"dtype": "DT_FLOAT", "tensorShape": {"dim": [{"size": "64"}]}}}, "dtype": {"type": "DT_FLOAT"}}}, {"name": "InceptionV3/InceptionV3/Mixed_5d/Branch_3/Conv2d_0b_1x1/convolution/merged_input", "op": "Const", "attr": {"value": {"tensor": {"dtype": "DT_FLOAT", "tensorShape": {"dim": [{"size": "1"}, {"size": "1"}, {"size": "288"}, {"size": "64"}]}}}, "dtype": {"type": "DT_FLOAT"}}}, {"name": "InceptionV3/InceptionV3/Mixed_5c/Branch_3/Conv2d_0b_1x1/BatchNorm/batchnorm/sub", "op": "Const", "attr": {"value": {"tensor": {"dtype": "DT_FLOAT", "tensorShape": {"dim": [{"size": "64"}]}}}, "dtype": {"type": "DT_FLOAT"}}}, {"name": "InceptionV3/InceptionV3/Mixed_5c/Branch_3/Conv2d_0b_1x1/convolution/merged_input", "op": "Const", "attr": {"value": {"tensor": {"dtype": "DT_FLOAT", "tensorShape": {"dim": [{"size": "1"}, {"size": "1"}, {"size": "256"}, {"size": "64"}]}}}, "dtype": {"type": "DT_FLOAT"}}}, {"name": "InceptionV3/InceptionV3/Mixed_5b/Branch_3/Conv2d_0b_1x1/BatchNorm/batchnorm/sub", "op": "Const", "attr": {"dtype": {"type": "DT_FLOAT"}, "value": {"tensor": {"dtype": "DT_FLOAT", "tensorShape": {"dim": [{"size": "32"}]}}}}}, {"name": "InceptionV3/InceptionV3/Mixed_5b/Branch_3/Conv2d_0b_1x1/convolution/merged_input", "op": "Const", "attr": {"dtype": {"type": "DT_FLOAT"}, "value": {"tensor": {"dtype": "DT_FLOAT", "tensorShape": {"dim": [{"size": "1"}, {"size": "1"}, {"size": "192"}, {"size": "32"}]}}}}}, {"name": "InceptionV3/InceptionV3/Conv2d_4a_3x3/BatchNorm/batchnorm/sub", "op": "Const", "attr": {"value": {"tensor": {"dtype": "DT_FLOAT", "tensorShape": {"dim": [{"size": "192"}]}}}, "dtype": {"type": "DT_FLOAT"}}}, {"name": "InceptionV3/InceptionV3/Conv2d_4a_3x3/convolution/merged_input", "op": "Const", "attr": {"value": {"tensor": {"dtype": "DT_FLOAT", "tensorShape": {"dim": [{"size": "3"}, {"size": "3"}, {"size": "80"}, {"size": "192"}]}}}, "dtype": {"type": "DT_FLOAT"}}}, {"name": "InceptionV3/InceptionV3/Conv2d_3b_1x1/BatchNorm/batchnorm/sub", "op": "Const", "attr": {"value": {"tensor": {"dtype": "DT_FLOAT", "tensorShape": {"dim": [{"size": "80"}]}}}, "dtype": {"type": "DT_FLOAT"}}}, {"name": "InceptionV3/InceptionV3/Conv2d_3b_1x1/convolution/merged_input", "op": "Const", "attr": {"value": {"tensor": {"dtype": "DT_FLOAT", "tensorShape": {"dim": [{"size": "1"}, {"size": "1"}, {"size": "64"}, {"size": "80"}]}}}, "dtype": {"type": "DT_FLOAT"}}}, {"name": "InceptionV3/InceptionV3/Conv2d_2b_3x3/BatchNorm/batchnorm/sub", "op": "Const", "attr": {"value": {"tensor": {"dtype": "DT_FLOAT", "tensorShape": {"dim": [{"size": "64"}]}}}, "dtype": {"type": "DT_FLOAT"}}}, {"name": "InceptionV3/InceptionV3/Conv2d_2b_3x3/convolution/merged_input", "op": "Const", "attr": {"value": {"tensor": {"dtype": "DT_FLOAT", "tensorShape": {"dim": [{"size": "3"}, {"size": "3"}, {"size": "32"}, {"size": "64"}]}}}, "dtype": {"type": "DT_FLOAT"}}}, {"name": "InceptionV3/InceptionV3/Conv2d_2a_3x3/BatchNorm/batchnorm/sub", "op": "Const", "attr": {"value": {"tensor": {"dtype": "DT_FLOAT", "tensorShape": {"dim": [{"size": "32"}]}}}, "dtype": {"type": "DT_FLOAT"}}}, {"name": "InceptionV3/InceptionV3/Conv2d_2a_3x3/convolution/merged_input", "op": "Const", "attr": {"value": {"tensor": {"dtype": "DT_FLOAT", "tensorShape": {"dim": [{"size": "3"}, {"size": "3"}, {"size": "32"}, {"size": "32"}]}}}, "dtype": {"type": "DT_FLOAT"}}}, {"name": "InceptionV3/InceptionV3/Conv2d_1a_3x3/BatchNorm/batchnorm/sub", "op": "Const", "attr": {"dtype": {"type": "DT_FLOAT"}, "value": {"tensor": {"dtype": "DT_FLOAT", "tensorShape": {"dim": [{"size": "32"}]}}}}}, {"name": "InceptionV3/InceptionV3/Conv2d_1a_3x3/convolution/merged_input", "op": "Const", "attr": {"dtype": {"type": "DT_FLOAT"}, "value": {"tensor": {"dtype": "DT_FLOAT", "tensorShape": {"dim": [{"size": "3"}, {"size": "3"}, {"size": "3"}, {"size": "32"}]}}}}}, {"name": "ExpandDims_4", "op": "Placeholder", "attr": {"shape": {"shape": {"dim": [{"size": "1"}, {"size": "299"}, {"size": "299"}, {"size": "3"}]}}, "dtype": {"type": "DT_FLOAT"}}}, {"name": "InceptionV3/InceptionV3/Mixed_5b/Branch_2/Conv2d_0c_3x3/BatchNorm/batchnorm/sub", "op": "Const", "attr": {"dtype": {"type": "DT_FLOAT"}, "value": {"tensor": {"dtype": "DT_FLOAT", "tensorShape": {"dim": [{"size": "96"}]}}}}}, {"name": "InceptionV3/InceptionV3/Mixed_5b/Branch_2/Conv2d_0c_3x3/convolution/merged_input", "op": "Const", "attr": {"value": {"tensor": {"dtype": "DT_FLOAT", "tensorShape": {"dim": [{"size": "3"}, {"size": "3"}, {"size": "96"}, {"size": "96"}]}}}, "dtype": {"type": "DT_FLOAT"}}}, {"name": "InceptionV3/InceptionV3/Mixed_5b/Branch_2/Conv2d_0b_3x3/BatchNorm/batchnorm/sub", "op": "Const", "attr": {"value": {"tensor": {"dtype": "DT_FLOAT", "tensorShape": {"dim": [{"size": "96"}]}}}, "dtype": {"type": "DT_FLOAT"}}}, {"name": "InceptionV3/InceptionV3/Mixed_5b/Branch_2/Conv2d_0b_3x3/convolution/merged_input", "op": "Const", "attr": {"dtype": {"type": "DT_FLOAT"}, "value": {"tensor": {"dtype": "DT_FLOAT", "tensorShape": {"dim": [{"size": "3"}, {"size": "3"}, {"size": "64"}, {"size": "96"}]}}}}}, {"name": "InceptionV3/InceptionV3/Mixed_5b/Branch_2/Conv2d_0a_1x1/BatchNorm/batchnorm/sub", "op": "Const", "attr": {"value": {"tensor": {"dtype": "DT_FLOAT", "tensorShape": {"dim": [{"size": "64"}]}}}, "dtype": {"type": "DT_FLOAT"}}}, {"name": "InceptionV3/InceptionV3/Mixed_5b/Branch_2/Conv2d_0a_1x1/convolution/merged_input", "op": "Const", "attr": {"value": {"tensor": {"dtype": "DT_FLOAT", "tensorShape": {"dim": [{"size": "1"}, {"size": "1"}, {"size": "192"}, {"size": "64"}]}}}, "dtype": {"type": "DT_FLOAT"}}}, {"name": "InceptionV3/InceptionV3/Mixed_5b/Branch_1/Conv2d_0b_5x5/BatchNorm/batchnorm/sub", "op": "Const", "attr": {"dtype": {"type": "DT_FLOAT"}, "value": {"tensor": {"dtype": "DT_FLOAT", "tensorShape": {"dim": [{"size": "64"}]}}}}}, {"name": "InceptionV3/InceptionV3/Mixed_5b/Branch_1/Conv2d_0b_5x5/convolution/merged_input", "op": "Const", "attr": {"value": {"tensor": {"dtype": "DT_FLOAT", "tensorShape": {"dim": [{"size": "5"}, {"size": "5"}, {"size": "48"}, {"size": "64"}]}}}, "dtype": {"type": "DT_FLOAT"}}}, {"name": "InceptionV3/InceptionV3/Mixed_5b/Branch_1/Conv2d_0a_1x1/BatchNorm/batchnorm/sub", "op": "Const", "attr": {"value": {"tensor": {"dtype": "DT_FLOAT", "tensorShape": {"dim": [{"size": "48"}]}}}, "dtype": {"type": "DT_FLOAT"}}}, {"name": "InceptionV3/InceptionV3/Mixed_5b/Branch_1/Conv2d_0a_1x1/convolution/merged_input", "op": "Const", "attr": {"value": {"tensor": {"dtype": "DT_FLOAT", "tensorShape": {"dim": [{"size": "1"}, {"size": "1"}, {"size": "192"}, {"size": "48"}]}}}, "dtype": {"type": "DT_FLOAT"}}}, {"name": "InceptionV3/InceptionV3/Mixed_5b/Branch_0/Conv2d_0a_1x1/BatchNorm/batchnorm/sub", "op": "Const", "attr": {"value": {"tensor": {"dtype": "DT_FLOAT", "tensorShape": {"dim": [{"size": "64"}]}}}, "dtype": {"type": "DT_FLOAT"}}}, {"name": "InceptionV3/InceptionV3/Mixed_5b/Branch_0/Conv2d_0a_1x1/convolution/merged_input", "op": "Const", "attr": {"value": {"tensor": {"dtype": "DT_FLOAT", "tensorShape": {"dim": [{"size": "1"}, {"size": "1"}, {"size": "192"}, {"size": "64"}]}}}, "dtype": {"type": "DT_FLOAT"}}}, {"name": "InceptionV3/InceptionV3/Mixed_7c/concat/concat_dim", "op": "Const", "attr": {"value": {"tensor": {"dtype": "DT_INT32", "tensorShape": {}}}, "dtype": {"type": "DT_INT32"}}}, {"name": "InceptionV3/InceptionV3/Mixed_5c/Branch_2/Conv2d_0c_3x3/BatchNorm/batchnorm/sub", "op": "Const", "attr": {"dtype": {"type": "DT_FLOAT"}, "value": {"tensor": {"dtype": "DT_FLOAT", "tensorShape": {"dim": [{"size": "96"}]}}}}}, {"name": "InceptionV3/InceptionV3/Mixed_5c/Branch_2/Conv2d_0c_3x3/convolution/merged_input", "op": "Const", "attr": {"dtype": {"type": "DT_FLOAT"}, "value": {"tensor": {"dtype": "DT_FLOAT", "tensorShape": {"dim": [{"size": "3"}, {"size": "3"}, {"size": "96"}, {"size": "96"}]}}}}}, {"name": "InceptionV3/InceptionV3/Mixed_5c/Branch_2/Conv2d_0b_3x3/BatchNorm/batchnorm/sub", "op": "Const", "attr": {"value": {"tensor": {"dtype": "DT_FLOAT", "tensorShape": {"dim": [{"size": "96"}]}}}, "dtype": {"type": "DT_FLOAT"}}}, {"name": "InceptionV3/InceptionV3/Mixed_5c/Branch_2/Conv2d_0b_3x3/convolution/merged_input", "op": "Const", "attr": {"value": {"tensor": {"dtype": "DT_FLOAT", "tensorShape": {"dim": [{"size": "3"}, {"size": "3"}, {"size": "64"}, {"size": "96"}]}}}, "dtype": {"type": "DT_FLOAT"}}}, {"name": "InceptionV3/InceptionV3/Mixed_5c/Branch_2/Conv2d_0a_1x1/BatchNorm/batchnorm/sub", "op": "Const", "attr": {"value": {"tensor": {"dtype": "DT_FLOAT", "tensorShape": {"dim": [{"size": "64"}]}}}, "dtype": {"type": "DT_FLOAT"}}}, {"name": "InceptionV3/InceptionV3/Mixed_5c/Branch_2/Conv2d_0a_1x1/convolution/merged_input", "op": "Const", "attr": {"dtype": {"type": "DT_FLOAT"}, "value": {"tensor": {"dtype": "DT_FLOAT", "tensorShape": {"dim": [{"size": "1"}, {"size": "1"}, {"size": "256"}, {"size": "64"}]}}}}}, {"name": "InceptionV3/InceptionV3/Mixed_5c/Branch_1/Conv_1_0c_5x5/BatchNorm/batchnorm/sub", "op": "Const", "attr": {"value": {"tensor": {"dtype": "DT_FLOAT", "tensorShape": {"dim": [{"size": "64"}]}}}, "dtype": {"type": "DT_FLOAT"}}}, {"name": "InceptionV3/InceptionV3/Mixed_5c/Branch_1/Conv_1_0c_5x5/convolution/merged_input", "op": "Const", "attr": {"value": {"tensor": {"dtype": "DT_FLOAT", "tensorShape": {"dim": [{"size": "5"}, {"size": "5"}, {"size": "48"}, {"size": "64"}]}}}, "dtype": {"type": "DT_FLOAT"}}}, {"name": "InceptionV3/InceptionV3/Mixed_5c/Branch_1/Conv2d_0b_1x1/BatchNorm/batchnorm/sub", "op": "Const", "attr": {"dtype": {"type": "DT_FLOAT"}, "value": {"tensor": {"dtype": "DT_FLOAT", "tensorShape": {"dim": [{"size": "48"}]}}}}}, {"name": "InceptionV3/InceptionV3/Mixed_5c/Branch_1/Conv2d_0b_1x1/convolution/merged_input", "op": "Const", "attr": {"value": {"tensor": {"dtype": "DT_FLOAT", "tensorShape": {"dim": [{"size": "1"}, {"size": "1"}, {"size": "256"}, {"size": "48"}]}}}, "dtype": {"type": "DT_FLOAT"}}}, {"name": "InceptionV3/InceptionV3/Mixed_5c/Branch_0/Conv2d_0a_1x1/BatchNorm/batchnorm/sub", "op": "Const", "attr": {"value": {"tensor": {"dtype": "DT_FLOAT", "tensorShape": {"dim": [{"size": "64"}]}}}, "dtype": {"type": "DT_FLOAT"}}}, {"name": "InceptionV3/InceptionV3/Mixed_5c/Branch_0/Conv2d_0a_1x1/convolution/merged_input", "op": "Const", "attr": {"value": {"tensor": {"dtype": "DT_FLOAT", "tensorShape": {"dim": [{"size": "1"}, {"size": "1"}, {"size": "256"}, {"size": "64"}]}}}, "dtype": {"type": "DT_FLOAT"}}}, {"name": "InceptionV3/InceptionV3/Mixed_5d/Branch_2/Conv2d_0c_3x3/BatchNorm/batchnorm/sub", "op": "Const", "attr": {"value": {"tensor": {"dtype": "DT_FLOAT", "tensorShape": {"dim": [{"size": "96"}]}}}, "dtype": {"type": "DT_FLOAT"}}}, {"name": "InceptionV3/InceptionV3/Mixed_5d/Branch_2/Conv2d_0c_3x3/convolution/merged_input", "op": "Const", "attr": {"value": {"tensor": {"dtype": "DT_FLOAT", "tensorShape": {"dim": [{"size": "3"}, {"size": "3"}, {"size": "96"}, {"size": "96"}]}}}, "dtype": {"type": "DT_FLOAT"}}}, {"name": "InceptionV3/InceptionV3/Mixed_5d/Branch_2/Conv2d_0b_3x3/BatchNorm/batchnorm/sub", "op": "Const", "attr": {"dtype": {"type": "DT_FLOAT"}, "value": {"tensor": {"dtype": "DT_FLOAT", "tensorShape": {"dim": [{"size": "96"}]}}}}}, {"name": "InceptionV3/InceptionV3/Mixed_5d/Branch_2/Conv2d_0b_3x3/convolution/merged_input", "op": "Const", "attr": {"value": {"tensor": {"dtype": "DT_FLOAT", "tensorShape": {"dim": [{"size": "3"}, {"size": "3"}, {"size": "64"}, {"size": "96"}]}}}, "dtype": {"type": "DT_FLOAT"}}}, {"name": "InceptionV3/InceptionV3/Mixed_5d/Branch_2/Conv2d_0a_1x1/BatchNorm/batchnorm/sub", "op": "Const", "attr": {"value": {"tensor": {"dtype": "DT_FLOAT", "tensorShape": {"dim": [{"size": "64"}]}}}, "dtype": {"type": "DT_FLOAT"}}}, {"name": "InceptionV3/InceptionV3/Mixed_5d/Branch_2/Conv2d_0a_1x1/convolution/merged_input", "op": "Const", "attr": {"value": {"tensor": {"dtype": "DT_FLOAT", "tensorShape": {"dim": [{"size": "1"}, {"size": "1"}, {"size": "288"}, {"size": "64"}]}}}, "dtype": {"type": "DT_FLOAT"}}}, {"name": "InceptionV3/InceptionV3/Mixed_5d/Branch_1/Conv2d_0b_5x5/BatchNorm/batchnorm/sub", "op": "Const", "attr": {"value": {"tensor": {"dtype": "DT_FLOAT", "tensorShape": {"dim": [{"size": "64"}]}}}, "dtype": {"type": "DT_FLOAT"}}}, {"name": "InceptionV3/InceptionV3/Mixed_5d/Branch_1/Conv2d_0b_5x5/convolution/merged_input", "op": "Const", "attr": {"value": {"tensor": {"dtype": "DT_FLOAT", "tensorShape": {"dim": [{"size": "5"}, {"size": "5"}, {"size": "48"}, {"size": "64"}]}}}, "dtype": {"type": "DT_FLOAT"}}}, {"name": "InceptionV3/InceptionV3/Mixed_5d/Branch_1/Conv2d_0a_1x1/BatchNorm/batchnorm/sub", "op": "Const", "attr": {"value": {"tensor": {"dtype": "DT_FLOAT", "tensorShape": {"dim": [{"size": "48"}]}}}, "dtype": {"type": "DT_FLOAT"}}}, {"name": "InceptionV3/InceptionV3/Mixed_5d/Branch_1/Conv2d_0a_1x1/convolution/merged_input", "op": "Const", "attr": {"value": {"tensor": {"dtype": "DT_FLOAT", "tensorShape": {"dim": [{"size": "1"}, {"size": "1"}, {"size": "288"}, {"size": "48"}]}}}, "dtype": {"type": "DT_FLOAT"}}}, {"name": "InceptionV3/InceptionV3/Mixed_5d/Branch_0/Conv2d_0a_1x1/BatchNorm/batchnorm/sub", "op": "Const", "attr": {"value": {"tensor": {"dtype": "DT_FLOAT", "tensorShape": {"dim": [{"size": "64"}]}}}, "dtype": {"type": "DT_FLOAT"}}}, {"name": "InceptionV3/InceptionV3/Mixed_5d/Branch_0/Conv2d_0a_1x1/convolution/merged_input", "op": "Const", "attr": {"value": {"tensor": {"dtype": "DT_FLOAT", "tensorShape": {"dim": [{"size": "1"}, {"size": "1"}, {"size": "288"}, {"size": "64"}]}}}, "dtype": {"type": "DT_FLOAT"}}}, {"name": "InceptionV3/InceptionV3/Mixed_6a/Branch_1/Conv2d_1a_1x1/BatchNorm/batchnorm/sub", "op": "Const", "attr": {"value": {"tensor": {"dtype": "DT_FLOAT", "tensorShape": {"dim": [{"size": "96"}]}}}, "dtype": {"type": "DT_FLOAT"}}}, {"name": "InceptionV3/InceptionV3/Mixed_6a/Branch_1/Conv2d_1a_1x1/convolution/merged_input", "op": "Const", "attr": {"value": {"tensor": {"dtype": "DT_FLOAT", "tensorShape": {"dim": [{"size": "3"}, {"size": "3"}, {"size": "96"}, {"size": "96"}]}}}, "dtype": {"type": "DT_FLOAT"}}}, {"name": "InceptionV3/InceptionV3/Mixed_6a/Branch_1/Conv2d_0b_3x3/BatchNorm/batchnorm/sub", "op": "Const", "attr": {"dtype": {"type": "DT_FLOAT"}, "value": {"tensor": {"dtype": "DT_FLOAT", "tensorShape": {"dim": [{"size": "96"}]}}}}}, {"name": "InceptionV3/InceptionV3/Mixed_6a/Branch_1/Conv2d_0b_3x3/convolution/merged_input", "op": "Const", "attr": {"value": {"tensor": {"dtype": "DT_FLOAT", "tensorShape": {"dim": [{"size": "3"}, {"size": "3"}, {"size": "64"}, {"size": "96"}]}}}, "dtype": {"type": "DT_FLOAT"}}}, {"name": "InceptionV3/InceptionV3/Mixed_6a/Branch_1/Conv2d_0a_1x1/BatchNorm/batchnorm/sub", "op": "Const", "attr": {"dtype": {"type": "DT_FLOAT"}, "value": {"tensor": {"dtype": "DT_FLOAT", "tensorShape": {"dim": [{"size": "64"}]}}}}}, {"name": "InceptionV3/InceptionV3/Mixed_6a/Branch_1/Conv2d_0a_1x1/convolution/merged_input", "op": "Const", "attr": {"value": {"tensor": {"dtype": "DT_FLOAT", "tensorShape": {"dim": [{"size": "1"}, {"size": "1"}, {"size": "288"}, {"size": "64"}]}}}, "dtype": {"type": "DT_FLOAT"}}}, {"name": "InceptionV3/InceptionV3/Mixed_6a/Branch_0/Conv2d_1a_1x1/BatchNorm/batchnorm/sub", "op": "Const", "attr": {"value": {"tensor": {"dtype": "DT_FLOAT", "tensorShape": {"dim": [{"size": "384"}]}}}, "dtype": {"type": "DT_FLOAT"}}}, {"name": "InceptionV3/InceptionV3/Mixed_6a/Branch_0/Conv2d_1a_1x1/convolution/merged_input", "op": "Const", "attr": {"value": {"tensor": {"dtype": "DT_FLOAT", "tensorShape": {"dim": [{"size": "3"}, {"size": "3"}, {"size": "288"}, {"size": "384"}]}}}, "dtype": {"type": "DT_FLOAT"}}}, {"name": "InceptionV3/InceptionV3/Mixed_6b/Branch_2/Conv2d_0e_1x7/BatchNorm/batchnorm/sub", "op": "Const", "attr": {"value": {"tensor": {"dtype": "DT_FLOAT", "tensorShape": {"dim": [{"size": "192"}]}}}, "dtype": {"type": "DT_FLOAT"}}}, {"name": "InceptionV3/InceptionV3/Mixed_6b/Branch_2/Conv2d_0e_1x7/convolution/merged_input", "op": "Const", "attr": {"value": {"tensor": {"dtype": "DT_FLOAT", "tensorShape": {"dim": [{"size": "1"}, {"size": "7"}, {"size": "128"}, {"size": "192"}]}}}, "dtype": {"type": "DT_FLOAT"}}}, {"name": "InceptionV3/InceptionV3/Mixed_6b/Branch_2/Conv2d_0d_7x1/BatchNorm/batchnorm/sub", "op": "Const", "attr": {"value": {"tensor": {"dtype": "DT_FLOAT", "tensorShape": {"dim": [{"size": "128"}]}}}, "dtype": {"type": "DT_FLOAT"}}}, {"name": "InceptionV3/InceptionV3/Mixed_6b/Branch_2/Conv2d_0d_7x1/convolution/merged_input", "op": "Const", "attr": {"value": {"tensor": {"dtype": "DT_FLOAT", "tensorShape": {"dim": [{"size": "7"}, {"size": "1"}, {"size": "128"}, {"size": "128"}]}}}, "dtype": {"type": "DT_FLOAT"}}}, {"name": "InceptionV3/InceptionV3/Mixed_6b/Branch_2/Conv2d_0c_1x7/BatchNorm/batchnorm/sub", "op": "Const", "attr": {"value": {"tensor": {"dtype": "DT_FLOAT", "tensorShape": {"dim": [{"size": "128"}]}}}, "dtype": {"type": "DT_FLOAT"}}}, {"name": "InceptionV3/InceptionV3/Mixed_6b/Branch_2/Conv2d_0c_1x7/convolution/merged_input", "op": "Const", "attr": {"value": {"tensor": {"dtype": "DT_FLOAT", "tensorShape": {"dim": [{"size": "1"}, {"size": "7"}, {"size": "128"}, {"size": "128"}]}}}, "dtype": {"type": "DT_FLOAT"}}}, {"name": "InceptionV3/InceptionV3/Mixed_6b/Branch_2/Conv2d_0b_7x1/BatchNorm/batchnorm/sub", "op": "Const", "attr": {"value": {"tensor": {"dtype": "DT_FLOAT", "tensorShape": {"dim": [{"size": "128"}]}}}, "dtype": {"type": "DT_FLOAT"}}}, {"name": "InceptionV3/InceptionV3/Mixed_6b/Branch_2/Conv2d_0b_7x1/convolution/merged_input", "op": "Const", "attr": {"dtype": {"type": "DT_FLOAT"}, "value": {"tensor": {"dtype": "DT_FLOAT", "tensorShape": {"dim": [{"size": "7"}, {"size": "1"}, {"size": "128"}, {"size": "128"}]}}}}}, {"name": "InceptionV3/InceptionV3/Mixed_6b/Branch_2/Conv2d_0a_1x1/BatchNorm/batchnorm/sub", "op": "Const", "attr": {"dtype": {"type": "DT_FLOAT"}, "value": {"tensor": {"dtype": "DT_FLOAT", "tensorShape": {"dim": [{"size": "128"}]}}}}}, {"name": "InceptionV3/InceptionV3/Mixed_6b/Branch_2/Conv2d_0a_1x1/convolution/merged_input", "op": "Const", "attr": {"value": {"tensor": {"dtype": "DT_FLOAT", "tensorShape": {"dim": [{"size": "1"}, {"size": "1"}, {"size": "768"}, {"size": "128"}]}}}, "dtype": {"type": "DT_FLOAT"}}}, {"name": "InceptionV3/InceptionV3/Mixed_6b/Branch_1/Conv2d_0c_7x1/BatchNorm/batchnorm/sub", "op": "Const", "attr": {"value": {"tensor": {"dtype": "DT_FLOAT", "tensorShape": {"dim": [{"size": "192"}]}}}, "dtype": {"type": "DT_FLOAT"}}}, {"name": "InceptionV3/InceptionV3/Mixed_6b/Branch_1/Conv2d_0c_7x1/convolution/merged_input", "op": "Const", "attr": {"value": {"tensor": {"dtype": "DT_FLOAT", "tensorShape": {"dim": [{"size": "7"}, {"size": "1"}, {"size": "128"}, {"size": "192"}]}}}, "dtype": {"type": "DT_FLOAT"}}}, {"name": "InceptionV3/InceptionV3/Mixed_6b/Branch_1/Conv2d_0b_1x7/BatchNorm/batchnorm/sub", "op": "Const", "attr": {"value": {"tensor": {"dtype": "DT_FLOAT", "tensorShape": {"dim": [{"size": "128"}]}}}, "dtype": {"type": "DT_FLOAT"}}}, {"name": "InceptionV3/InceptionV3/Mixed_6b/Branch_1/Conv2d_0b_1x7/convolution/merged_input", "op": "Const", "attr": {"value": {"tensor": {"dtype": "DT_FLOAT", "tensorShape": {"dim": [{"size": "1"}, {"size": "7"}, {"size": "128"}, {"size": "128"}]}}}, "dtype": {"type": "DT_FLOAT"}}}, {"name": "InceptionV3/InceptionV3/Mixed_6b/Branch_1/Conv2d_0a_1x1/BatchNorm/batchnorm/sub", "op": "Const", "attr": {"value": {"tensor": {"dtype": "DT_FLOAT", "tensorShape": {"dim": [{"size": "128"}]}}}, "dtype": {"type": "DT_FLOAT"}}}, {"name": "InceptionV3/InceptionV3/Mixed_6b/Branch_1/Conv2d_0a_1x1/convolution/merged_input", "op": "Const", "attr": {"value": {"tensor": {"dtype": "DT_FLOAT", "tensorShape": {"dim": [{"size": "1"}, {"size": "1"}, {"size": "768"}, {"size": "128"}]}}}, "dtype": {"type": "DT_FLOAT"}}}, {"name": "InceptionV3/InceptionV3/Mixed_6b/Branch_0/Conv2d_0a_1x1/BatchNorm/batchnorm/sub", "op": "Const", "attr": {"value": {"tensor": {"dtype": "DT_FLOAT", "tensorShape": {"dim": [{"size": "192"}]}}}, "dtype": {"type": "DT_FLOAT"}}}, {"name": "InceptionV3/InceptionV3/Mixed_6b/Branch_0/Conv2d_0a_1x1/convolution/merged_input", "op": "Const", "attr": {"value": {"tensor": {"dtype": "DT_FLOAT", "tensorShape": {"dim": [{"size": "1"}, {"size": "1"}, {"size": "768"}, {"size": "192"}]}}}, "dtype": {"type": "DT_FLOAT"}}}, {"name": "InceptionV3/InceptionV3/Mixed_6c/Branch_2/Conv2d_0e_1x7/BatchNorm/batchnorm/sub", "op": "Const", "attr": {"value": {"tensor": {"dtype": "DT_FLOAT", "tensorShape": {"dim": [{"size": "192"}]}}}, "dtype": {"type": "DT_FLOAT"}}}, {"name": "InceptionV3/InceptionV3/Mixed_6c/Branch_2/Conv2d_0e_1x7/convolution/merged_input", "op": "Const", "attr": {"value": {"tensor": {"dtype": "DT_FLOAT", "tensorShape": {"dim": [{"size": "1"}, {"size": "7"}, {"size": "160"}, {"size": "192"}]}}}, "dtype": {"type": "DT_FLOAT"}}}, {"name": "InceptionV3/InceptionV3/Mixed_6c/Branch_2/Conv2d_0d_7x1/BatchNorm/batchnorm/sub", "op": "Const", "attr": {"value": {"tensor": {"dtype": "DT_FLOAT", "tensorShape": {"dim": [{"size": "160"}]}}}, "dtype": {"type": "DT_FLOAT"}}}, {"name": "InceptionV3/InceptionV3/Mixed_6c/Branch_2/Conv2d_0d_7x1/convolution/merged_input", "op": "Const", "attr": {"value": {"tensor": {"dtype": "DT_FLOAT", "tensorShape": {"dim": [{"size": "7"}, {"size": "1"}, {"size": "160"}, {"size": "160"}]}}}, "dtype": {"type": "DT_FLOAT"}}}, {"name": "InceptionV3/InceptionV3/Mixed_6c/Branch_2/Conv2d_0c_1x7/BatchNorm/batchnorm/sub", "op": "Const", "attr": {"value": {"tensor": {"dtype": "DT_FLOAT", "tensorShape": {"dim": [{"size": "160"}]}}}, "dtype": {"type": "DT_FLOAT"}}}, {"name": "InceptionV3/InceptionV3/Mixed_6c/Branch_2/Conv2d_0c_1x7/convolution/merged_input", "op": "Const", "attr": {"value": {"tensor": {"dtype": "DT_FLOAT", "tensorShape": {"dim": [{"size": "1"}, {"size": "7"}, {"size": "160"}, {"size": "160"}]}}}, "dtype": {"type": "DT_FLOAT"}}}, {"name": "InceptionV3/InceptionV3/Mixed_6c/Branch_2/Conv2d_0b_7x1/BatchNorm/batchnorm/sub", "op": "Const", "attr": {"value": {"tensor": {"dtype": "DT_FLOAT", "tensorShape": {"dim": [{"size": "160"}]}}}, "dtype": {"type": "DT_FLOAT"}}}, {"name": "InceptionV3/InceptionV3/Mixed_6c/Branch_2/Conv2d_0b_7x1/convolution/merged_input", "op": "Const", "attr": {"value": {"tensor": {"dtype": "DT_FLOAT", "tensorShape": {"dim": [{"size": "7"}, {"size": "1"}, {"size": "160"}, {"size": "160"}]}}}, "dtype": {"type": "DT_FLOAT"}}}, {"name": "InceptionV3/InceptionV3/Mixed_6c/Branch_2/Conv2d_0a_1x1/BatchNorm/batchnorm/sub", "op": "Const", "attr": {"value": {"tensor": {"dtype": "DT_FLOAT", "tensorShape": {"dim": [{"size": "160"}]}}}, "dtype": {"type": "DT_FLOAT"}}}, {"name": "InceptionV3/InceptionV3/Mixed_6c/Branch_2/Conv2d_0a_1x1/convolution/merged_input", "op": "Const", "attr": {"value": {"tensor": {"dtype": "DT_FLOAT", "tensorShape": {"dim": [{"size": "1"}, {"size": "1"}, {"size": "768"}, {"size": "160"}]}}}, "dtype": {"type": "DT_FLOAT"}}}, {"name": "InceptionV3/InceptionV3/Mixed_6c/Branch_1/Conv2d_0c_7x1/BatchNorm/batchnorm/sub", "op": "Const", "attr": {"value": {"tensor": {"dtype": "DT_FLOAT", "tensorShape": {"dim": [{"size": "192"}]}}}, "dtype": {"type": "DT_FLOAT"}}}, {"name": "InceptionV3/InceptionV3/Mixed_6c/Branch_1/Conv2d_0c_7x1/convolution/merged_input", "op": "Const", "attr": {"value": {"tensor": {"dtype": "DT_FLOAT", "tensorShape": {"dim": [{"size": "7"}, {"size": "1"}, {"size": "160"}, {"size": "192"}]}}}, "dtype": {"type": "DT_FLOAT"}}}, {"name": "InceptionV3/InceptionV3/Mixed_6c/Branch_1/Conv2d_0b_1x7/BatchNorm/batchnorm/sub", "op": "Const", "attr": {"value": {"tensor": {"dtype": "DT_FLOAT", "tensorShape": {"dim": [{"size": "160"}]}}}, "dtype": {"type": "DT_FLOAT"}}}, {"name": "InceptionV3/InceptionV3/Mixed_6c/Branch_1/Conv2d_0b_1x7/convolution/merged_input", "op": "Const", "attr": {"value": {"tensor": {"dtype": "DT_FLOAT", "tensorShape": {"dim": [{"size": "1"}, {"size": "7"}, {"size": "160"}, {"size": "160"}]}}}, "dtype": {"type": "DT_FLOAT"}}}, {"name": "InceptionV3/InceptionV3/Mixed_6c/Branch_1/Conv2d_0a_1x1/BatchNorm/batchnorm/sub", "op": "Const", "attr": {"value": {"tensor": {"dtype": "DT_FLOAT", "tensorShape": {"dim": [{"size": "160"}]}}}, "dtype": {"type": "DT_FLOAT"}}}, {"name": "InceptionV3/InceptionV3/Mixed_6c/Branch_1/Conv2d_0a_1x1/convolution/merged_input", "op": "Const", "attr": {"value": {"tensor": {"dtype": "DT_FLOAT", "tensorShape": {"dim": [{"size": "1"}, {"size": "1"}, {"size": "768"}, {"size": "160"}]}}}, "dtype": {"type": "DT_FLOAT"}}}, {"name": "InceptionV3/InceptionV3/Mixed_6c/Branch_0/Conv2d_0a_1x1/BatchNorm/batchnorm/sub", "op": "Const", "attr": {"value": {"tensor": {"dtype": "DT_FLOAT", "tensorShape": {"dim": [{"size": "192"}]}}}, "dtype": {"type": "DT_FLOAT"}}}, {"name": "InceptionV3/InceptionV3/Mixed_6c/Branch_0/Conv2d_0a_1x1/convolution/merged_input", "op": "Const", "attr": {"value": {"tensor": {"dtype": "DT_FLOAT", "tensorShape": {"dim": [{"size": "1"}, {"size": "1"}, {"size": "768"}, {"size": "192"}]}}}, "dtype": {"type": "DT_FLOAT"}}}, {"name": "InceptionV3/InceptionV3/Mixed_6d/Branch_2/Conv2d_0e_1x7/BatchNorm/batchnorm/sub", "op": "Const", "attr": {"value": {"tensor": {"dtype": "DT_FLOAT", "tensorShape": {"dim": [{"size": "192"}]}}}, "dtype": {"type": "DT_FLOAT"}}}, {"name": "InceptionV3/InceptionV3/Mixed_6d/Branch_2/Conv2d_0e_1x7/convolution/merged_input", "op": "Const", "attr": {"value": {"tensor": {"dtype": "DT_FLOAT", "tensorShape": {"dim": [{"size": "1"}, {"size": "7"}, {"size": "160"}, {"size": "192"}]}}}, "dtype": {"type": "DT_FLOAT"}}}, {"name": "InceptionV3/InceptionV3/Mixed_6d/Branch_2/Conv2d_0d_7x1/BatchNorm/batchnorm/sub", "op": "Const", "attr": {"value": {"tensor": {"dtype": "DT_FLOAT", "tensorShape": {"dim": [{"size": "160"}]}}}, "dtype": {"type": "DT_FLOAT"}}}, {"name": "InceptionV3/InceptionV3/Mixed_6d/Branch_2/Conv2d_0d_7x1/convolution/merged_input", "op": "Const", "attr": {"value": {"tensor": {"dtype": "DT_FLOAT", "tensorShape": {"dim": [{"size": "7"}, {"size": "1"}, {"size": "160"}, {"size": "160"}]}}}, "dtype": {"type": "DT_FLOAT"}}}, {"name": "InceptionV3/InceptionV3/Mixed_6d/Branch_2/Conv2d_0c_1x7/BatchNorm/batchnorm/sub", "op": "Const", "attr": {"value": {"tensor": {"dtype": "DT_FLOAT", "tensorShape": {"dim": [{"size": "160"}]}}}, "dtype": {"type": "DT_FLOAT"}}}, {"name": "InceptionV3/InceptionV3/Mixed_6d/Branch_2/Conv2d_0c_1x7/convolution/merged_input", "op": "Const", "attr": {"value": {"tensor": {"dtype": "DT_FLOAT", "tensorShape": {"dim": [{"size": "1"}, {"size": "7"}, {"size": "160"}, {"size": "160"}]}}}, "dtype": {"type": "DT_FLOAT"}}}, {"name": "InceptionV3/InceptionV3/Mixed_6d/Branch_2/Conv2d_0b_7x1/BatchNorm/batchnorm/sub", "op": "Const", "attr": {"value": {"tensor": {"dtype": "DT_FLOAT", "tensorShape": {"dim": [{"size": "160"}]}}}, "dtype": {"type": "DT_FLOAT"}}}, {"name": "InceptionV3/InceptionV3/Mixed_6d/Branch_2/Conv2d_0b_7x1/convolution/merged_input", "op": "Const", "attr": {"value": {"tensor": {"dtype": "DT_FLOAT", "tensorShape": {"dim": [{"size": "7"}, {"size": "1"}, {"size": "160"}, {"size": "160"}]}}}, "dtype": {"type": "DT_FLOAT"}}}, {"name": "InceptionV3/InceptionV3/Mixed_6d/Branch_2/Conv2d_0a_1x1/BatchNorm/batchnorm/sub", "op": "Const", "attr": {"value": {"tensor": {"dtype": "DT_FLOAT", "tensorShape": {"dim": [{"size": "160"}]}}}, "dtype": {"type": "DT_FLOAT"}}}, {"name": "InceptionV3/InceptionV3/Mixed_6d/Branch_2/Conv2d_0a_1x1/convolution/merged_input", "op": "Const", "attr": {"value": {"tensor": {"dtype": "DT_FLOAT", "tensorShape": {"dim": [{"size": "1"}, {"size": "1"}, {"size": "768"}, {"size": "160"}]}}}, "dtype": {"type": "DT_FLOAT"}}}, {"name": "InceptionV3/InceptionV3/Mixed_6d/Branch_1/Conv2d_0c_7x1/BatchNorm/batchnorm/sub", "op": "Const", "attr": {"value": {"tensor": {"dtype": "DT_FLOAT", "tensorShape": {"dim": [{"size": "192"}]}}}, "dtype": {"type": "DT_FLOAT"}}}, {"name": "InceptionV3/InceptionV3/Mixed_6d/Branch_1/Conv2d_0c_7x1/convolution/merged_input", "op": "Const", "attr": {"value": {"tensor": {"dtype": "DT_FLOAT", "tensorShape": {"dim": [{"size": "7"}, {"size": "1"}, {"size": "160"}, {"size": "192"}]}}}, "dtype": {"type": "DT_FLOAT"}}}, {"name": "InceptionV3/InceptionV3/Mixed_6d/Branch_1/Conv2d_0b_1x7/BatchNorm/batchnorm/sub", "op": "Const", "attr": {"value": {"tensor": {"dtype": "DT_FLOAT", "tensorShape": {"dim": [{"size": "160"}]}}}, "dtype": {"type": "DT_FLOAT"}}}, {"name": "InceptionV3/InceptionV3/Mixed_6d/Branch_1/Conv2d_0b_1x7/convolution/merged_input", "op": "Const", "attr": {"value": {"tensor": {"dtype": "DT_FLOAT", "tensorShape": {"dim": [{"size": "1"}, {"size": "7"}, {"size": "160"}, {"size": "160"}]}}}, "dtype": {"type": "DT_FLOAT"}}}, {"name": "InceptionV3/InceptionV3/Mixed_6d/Branch_1/Conv2d_0a_1x1/BatchNorm/batchnorm/sub", "op": "Const", "attr": {"value": {"tensor": {"dtype": "DT_FLOAT", "tensorShape": {"dim": [{"size": "160"}]}}}, "dtype": {"type": "DT_FLOAT"}}}, {"name": "InceptionV3/InceptionV3/Mixed_6d/Branch_1/Conv2d_0a_1x1/convolution/merged_input", "op": "Const", "attr": {"value": {"tensor": {"dtype": "DT_FLOAT", "tensorShape": {"dim": [{"size": "1"}, {"size": "1"}, {"size": "768"}, {"size": "160"}]}}}, "dtype": {"type": "DT_FLOAT"}}}, {"name": "InceptionV3/InceptionV3/Mixed_6d/Branch_0/Conv2d_0a_1x1/BatchNorm/batchnorm/sub", "op": "Const", "attr": {"value": {"tensor": {"dtype": "DT_FLOAT", "tensorShape": {"dim": [{"size": "192"}]}}}, "dtype": {"type": "DT_FLOAT"}}}, {"name": "InceptionV3/InceptionV3/Mixed_6d/Branch_0/Conv2d_0a_1x1/convolution/merged_input", "op": "Const", "attr": {"value": {"tensor": {"dtype": "DT_FLOAT", "tensorShape": {"dim": [{"size": "1"}, {"size": "1"}, {"size": "768"}, {"size": "192"}]}}}, "dtype": {"type": "DT_FLOAT"}}}, {"name": "InceptionV3/InceptionV3/Mixed_6e/Branch_2/Conv2d_0e_1x7/BatchNorm/batchnorm/sub", "op": "Const", "attr": {"value": {"tensor": {"dtype": "DT_FLOAT", "tensorShape": {"dim": [{"size": "192"}]}}}, "dtype": {"type": "DT_FLOAT"}}}, {"name": "InceptionV3/InceptionV3/Mixed_6e/Branch_2/Conv2d_0e_1x7/convolution/merged_input", "op": "Const", "attr": {"value": {"tensor": {"dtype": "DT_FLOAT", "tensorShape": {"dim": [{"size": "1"}, {"size": "7"}, {"size": "192"}, {"size": "192"}]}}}, "dtype": {"type": "DT_FLOAT"}}}, {"name": "InceptionV3/InceptionV3/Mixed_6e/Branch_2/Conv2d_0d_7x1/BatchNorm/batchnorm/sub", "op": "Const", "attr": {"value": {"tensor": {"dtype": "DT_FLOAT", "tensorShape": {"dim": [{"size": "192"}]}}}, "dtype": {"type": "DT_FLOAT"}}}, {"name": "InceptionV3/InceptionV3/Mixed_6e/Branch_2/Conv2d_0d_7x1/convolution/merged_input", "op": "Const", "attr": {"value": {"tensor": {"dtype": "DT_FLOAT", "tensorShape": {"dim": [{"size": "7"}, {"size": "1"}, {"size": "192"}, {"size": "192"}]}}}, "dtype": {"type": "DT_FLOAT"}}}, {"name": "InceptionV3/InceptionV3/Mixed_6e/Branch_2/Conv2d_0c_1x7/BatchNorm/batchnorm/sub", "op": "Const", "attr": {"value": {"tensor": {"dtype": "DT_FLOAT", "tensorShape": {"dim": [{"size": "192"}]}}}, "dtype": {"type": "DT_FLOAT"}}}, {"name": "InceptionV3/InceptionV3/Mixed_6e/Branch_2/Conv2d_0c_1x7/convolution/merged_input", "op": "Const", "attr": {"value": {"tensor": {"dtype": "DT_FLOAT", "tensorShape": {"dim": [{"size": "1"}, {"size": "7"}, {"size": "192"}, {"size": "192"}]}}}, "dtype": {"type": "DT_FLOAT"}}}, {"name": "InceptionV3/InceptionV3/Mixed_6e/Branch_2/Conv2d_0b_7x1/BatchNorm/batchnorm/sub", "op": "Const", "attr": {"value": {"tensor": {"dtype": "DT_FLOAT", "tensorShape": {"dim": [{"size": "192"}]}}}, "dtype": {"type": "DT_FLOAT"}}}, {"name": "InceptionV3/InceptionV3/Mixed_6e/Branch_2/Conv2d_0b_7x1/convolution/merged_input", "op": "Const", "attr": {"value": {"tensor": {"dtype": "DT_FLOAT", "tensorShape": {"dim": [{"size": "7"}, {"size": "1"}, {"size": "192"}, {"size": "192"}]}}}, "dtype": {"type": "DT_FLOAT"}}}, {"name": "InceptionV3/InceptionV3/Mixed_6e/Branch_2/Conv2d_0a_1x1/BatchNorm/batchnorm/sub", "op": "Const", "attr": {"value": {"tensor": {"dtype": "DT_FLOAT", "tensorShape": {"dim": [{"size": "192"}]}}}, "dtype": {"type": "DT_FLOAT"}}}, {"name": "InceptionV3/InceptionV3/Mixed_6e/Branch_2/Conv2d_0a_1x1/convolution/merged_input", "op": "Const", "attr": {"value": {"tensor": {"dtype": "DT_FLOAT", "tensorShape": {"dim": [{"size": "1"}, {"size": "1"}, {"size": "768"}, {"size": "192"}]}}}, "dtype": {"type": "DT_FLOAT"}}}, {"name": "InceptionV3/InceptionV3/Mixed_6e/Branch_1/Conv2d_0c_7x1/BatchNorm/batchnorm/sub", "op": "Const", "attr": {"value": {"tensor": {"dtype": "DT_FLOAT", "tensorShape": {"dim": [{"size": "192"}]}}}, "dtype": {"type": "DT_FLOAT"}}}, {"name": "InceptionV3/InceptionV3/Mixed_6e/Branch_1/Conv2d_0c_7x1/convolution/merged_input", "op": "Const", "attr": {"value": {"tensor": {"dtype": "DT_FLOAT", "tensorShape": {"dim": [{"size": "7"}, {"size": "1"}, {"size": "192"}, {"size": "192"}]}}}, "dtype": {"type": "DT_FLOAT"}}}, {"name": "InceptionV3/InceptionV3/Mixed_6e/Branch_1/Conv2d_0b_1x7/BatchNorm/batchnorm/sub", "op": "Const", "attr": {"value": {"tensor": {"dtype": "DT_FLOAT", "tensorShape": {"dim": [{"size": "192"}]}}}, "dtype": {"type": "DT_FLOAT"}}}, {"name": "InceptionV3/InceptionV3/Mixed_6e/Branch_1/Conv2d_0b_1x7/convolution/merged_input", "op": "Const", "attr": {"value": {"tensor": {"dtype": "DT_FLOAT", "tensorShape": {"dim": [{"size": "1"}, {"size": "7"}, {"size": "192"}, {"size": "192"}]}}}, "dtype": {"type": "DT_FLOAT"}}}, {"name": "InceptionV3/InceptionV3/Mixed_6e/Branch_1/Conv2d_0a_1x1/BatchNorm/batchnorm/sub", "op": "Const", "attr": {"value": {"tensor": {"dtype": "DT_FLOAT", "tensorShape": {"dim": [{"size": "192"}]}}}, "dtype": {"type": "DT_FLOAT"}}}, {"name": "InceptionV3/InceptionV3/Mixed_6e/Branch_1/Conv2d_0a_1x1/convolution/merged_input", "op": "Const", "attr": {"value": {"tensor": {"dtype": "DT_FLOAT", "tensorShape": {"dim": [{"size": "1"}, {"size": "1"}, {"size": "768"}, {"size": "192"}]}}}, "dtype": {"type": "DT_FLOAT"}}}, {"name": "InceptionV3/InceptionV3/Mixed_6e/Branch_0/Conv2d_0a_1x1/BatchNorm/batchnorm/sub", "op": "Const", "attr": {"value": {"tensor": {"dtype": "DT_FLOAT", "tensorShape": {"dim": [{"size": "192"}]}}}, "dtype": {"type": "DT_FLOAT"}}}, {"name": "InceptionV3/InceptionV3/Mixed_6e/Branch_0/Conv2d_0a_1x1/convolution/merged_input", "op": "Const", "attr": {"value": {"tensor": {"dtype": "DT_FLOAT", "tensorShape": {"dim": [{"size": "1"}, {"size": "1"}, {"size": "768"}, {"size": "192"}]}}}, "dtype": {"type": "DT_FLOAT"}}}, {"name": "InceptionV3/InceptionV3/Mixed_7a/Branch_1/Conv2d_1a_3x3/BatchNorm/batchnorm/sub", "op": "Const", "attr": {"value": {"tensor": {"dtype": "DT_FLOAT", "tensorShape": {"dim": [{"size": "192"}]}}}, "dtype": {"type": "DT_FLOAT"}}}, {"name": "InceptionV3/InceptionV3/Mixed_7a/Branch_1/Conv2d_1a_3x3/convolution/merged_input", "op": "Const", "attr": {"value": {"tensor": {"dtype": "DT_FLOAT", "tensorShape": {"dim": [{"size": "3"}, {"size": "3"}, {"size": "192"}, {"size": "192"}]}}}, "dtype": {"type": "DT_FLOAT"}}}, {"name": "InceptionV3/InceptionV3/Mixed_7a/Branch_1/Conv2d_0c_7x1/BatchNorm/batchnorm/sub", "op": "Const", "attr": {"value": {"tensor": {"dtype": "DT_FLOAT", "tensorShape": {"dim": [{"size": "192"}]}}}, "dtype": {"type": "DT_FLOAT"}}}, {"name": "InceptionV3/InceptionV3/Mixed_7a/Branch_1/Conv2d_0c_7x1/convolution/merged_input", "op": "Const", "attr": {"value": {"tensor": {"dtype": "DT_FLOAT", "tensorShape": {"dim": [{"size": "7"}, {"size": "1"}, {"size": "192"}, {"size": "192"}]}}}, "dtype": {"type": "DT_FLOAT"}}}, {"name": "InceptionV3/InceptionV3/Mixed_7a/Branch_1/Conv2d_0b_1x7/BatchNorm/batchnorm/sub", "op": "Const", "attr": {"value": {"tensor": {"dtype": "DT_FLOAT", "tensorShape": {"dim": [{"size": "192"}]}}}, "dtype": {"type": "DT_FLOAT"}}}, {"name": "InceptionV3/InceptionV3/Mixed_7a/Branch_1/Conv2d_0b_1x7/convolution/merged_input", "op": "Const", "attr": {"value": {"tensor": {"dtype": "DT_FLOAT", "tensorShape": {"dim": [{"size": "1"}, {"size": "7"}, {"size": "192"}, {"size": "192"}]}}}, "dtype": {"type": "DT_FLOAT"}}}, {"name": "InceptionV3/InceptionV3/Mixed_7a/Branch_1/Conv2d_0a_1x1/BatchNorm/batchnorm/sub", "op": "Const", "attr": {"value": {"tensor": {"dtype": "DT_FLOAT", "tensorShape": {"dim": [{"size": "192"}]}}}, "dtype": {"type": "DT_FLOAT"}}}, {"name": "InceptionV3/InceptionV3/Mixed_7a/Branch_1/Conv2d_0a_1x1/convolution/merged_input", "op": "Const", "attr": {"value": {"tensor": {"dtype": "DT_FLOAT", "tensorShape": {"dim": [{"size": "1"}, {"size": "1"}, {"size": "768"}, {"size": "192"}]}}}, "dtype": {"type": "DT_FLOAT"}}}, {"name": "InceptionV3/InceptionV3/Mixed_7a/Branch_0/Conv2d_1a_3x3/BatchNorm/batchnorm/sub", "op": "Const", "attr": {"value": {"tensor": {"dtype": "DT_FLOAT", "tensorShape": {"dim": [{"size": "320"}]}}}, "dtype": {"type": "DT_FLOAT"}}}, {"name": "InceptionV3/InceptionV3/Mixed_7a/Branch_0/Conv2d_1a_3x3/convolution/merged_input", "op": "Const", "attr": {"value": {"tensor": {"dtype": "DT_FLOAT", "tensorShape": {"dim": [{"size": "3"}, {"size": "3"}, {"size": "192"}, {"size": "320"}]}}}, "dtype": {"type": "DT_FLOAT"}}}, {"name": "InceptionV3/InceptionV3/Mixed_7a/Branch_0/Conv2d_0a_1x1/BatchNorm/batchnorm/sub", "op": "Const", "attr": {"value": {"tensor": {"dtype": "DT_FLOAT", "tensorShape": {"dim": [{"size": "192"}]}}}, "dtype": {"type": "DT_FLOAT"}}}, {"name": "InceptionV3/InceptionV3/Mixed_7a/Branch_0/Conv2d_0a_1x1/convolution/merged_input", "op": "Const", "attr": {"value": {"tensor": {"dtype": "DT_FLOAT", "tensorShape": {"dim": [{"size": "1"}, {"size": "1"}, {"size": "768"}, {"size": "192"}]}}}, "dtype": {"type": "DT_FLOAT"}}}, {"name": "InceptionV3/InceptionV3/Mixed_7b/Branch_2/Conv2d_0d_3x1/BatchNorm/batchnorm/sub", "op": "Const", "attr": {"value": {"tensor": {"dtype": "DT_FLOAT", "tensorShape": {"dim": [{"size": "384"}]}}}, "dtype": {"type": "DT_FLOAT"}}}, {"name": "InceptionV3/InceptionV3/Mixed_7b/Branch_2/Conv2d_0d_3x1/convolution/merged_input", "op": "Const", "attr": {"value": {"tensor": {"dtype": "DT_FLOAT", "tensorShape": {"dim": [{"size": "3"}, {"size": "1"}, {"size": "384"}, {"size": "384"}]}}}, "dtype": {"type": "DT_FLOAT"}}}, {"name": "InceptionV3/InceptionV3/Mixed_7b/Branch_2/Conv2d_0b_3x3/BatchNorm/batchnorm/sub", "op": "Const", "attr": {"value": {"tensor": {"dtype": "DT_FLOAT", "tensorShape": {"dim": [{"size": "384"}]}}}, "dtype": {"type": "DT_FLOAT"}}}, {"name": "InceptionV3/InceptionV3/Mixed_7b/Branch_2/Conv2d_0b_3x3/convolution/merged_input", "op": "Const", "attr": {"value": {"tensor": {"dtype": "DT_FLOAT", "tensorShape": {"dim": [{"size": "3"}, {"size": "3"}, {"size": "448"}, {"size": "384"}]}}}, "dtype": {"type": "DT_FLOAT"}}}, {"name": "InceptionV3/InceptionV3/Mixed_7b/Branch_2/Conv2d_0a_1x1/BatchNorm/batchnorm/sub", "op": "Const", "attr": {"value": {"tensor": {"dtype": "DT_FLOAT", "tensorShape": {"dim": [{"size": "448"}]}}}, "dtype": {"type": "DT_FLOAT"}}}, {"name": "InceptionV3/InceptionV3/Mixed_7b/Branch_2/Conv2d_0a_1x1/convolution/merged_input", "op": "Const", "attr": {"value": {"tensor": {"dtype": "DT_FLOAT", "tensorShape": {"dim": [{"size": "1"}, {"size": "1"}, {"size": "1280"}, {"size": "448"}]}}}, "dtype": {"type": "DT_FLOAT"}}}, {"name": "InceptionV3/InceptionV3/Mixed_7b/Branch_2/Conv2d_0c_1x3/BatchNorm/batchnorm/sub", "op": "Const", "attr": {"value": {"tensor": {"dtype": "DT_FLOAT", "tensorShape": {"dim": [{"size": "384"}]}}}, "dtype": {"type": "DT_FLOAT"}}}, {"name": "InceptionV3/InceptionV3/Mixed_7b/Branch_2/Conv2d_0c_1x3/convolution/merged_input", "op": "Const", "attr": {"value": {"tensor": {"dtype": "DT_FLOAT", "tensorShape": {"dim": [{"size": "1"}, {"size": "3"}, {"size": "384"}, {"size": "384"}]}}}, "dtype": {"type": "DT_FLOAT"}}}, {"name": "InceptionV3/InceptionV3/Mixed_7b/Branch_1/Conv2d_0b_3x1/BatchNorm/batchnorm/sub", "op": "Const", "attr": {"value": {"tensor": {"dtype": "DT_FLOAT", "tensorShape": {"dim": [{"size": "384"}]}}}, "dtype": {"type": "DT_FLOAT"}}}, {"name": "InceptionV3/InceptionV3/Mixed_7b/Branch_1/Conv2d_0b_3x1/convolution/merged_input", "op": "Const", "attr": {"value": {"tensor": {"dtype": "DT_FLOAT", "tensorShape": {"dim": [{"size": "3"}, {"size": "1"}, {"size": "384"}, {"size": "384"}]}}}, "dtype": {"type": "DT_FLOAT"}}}, {"name": "InceptionV3/InceptionV3/Mixed_7b/Branch_1/Conv2d_0a_1x1/BatchNorm/batchnorm/sub", "op": "Const", "attr": {"value": {"tensor": {"dtype": "DT_FLOAT", "tensorShape": {"dim": [{"size": "384"}]}}}, "dtype": {"type": "DT_FLOAT"}}}, {"name": "InceptionV3/InceptionV3/Mixed_7b/Branch_1/Conv2d_0a_1x1/convolution/merged_input", "op": "Const", "attr": {"value": {"tensor": {"dtype": "DT_FLOAT", "tensorShape": {"dim": [{"size": "1"}, {"size": "1"}, {"size": "1280"}, {"size": "384"}]}}}, "dtype": {"type": "DT_FLOAT"}}}, {"name": "InceptionV3/InceptionV3/Mixed_7b/Branch_1/Conv2d_0b_1x3/BatchNorm/batchnorm/sub", "op": "Const", "attr": {"value": {"tensor": {"dtype": "DT_FLOAT", "tensorShape": {"dim": [{"size": "384"}]}}}, "dtype": {"type": "DT_FLOAT"}}}, {"name": "InceptionV3/InceptionV3/Mixed_7b/Branch_1/Conv2d_0b_1x3/convolution/merged_input", "op": "Const", "attr": {"value": {"tensor": {"dtype": "DT_FLOAT", "tensorShape": {"dim": [{"size": "1"}, {"size": "3"}, {"size": "384"}, {"size": "384"}]}}}, "dtype": {"type": "DT_FLOAT"}}}, {"name": "InceptionV3/InceptionV3/Mixed_7b/Branch_0/Conv2d_0a_1x1/BatchNorm/batchnorm/sub", "op": "Const", "attr": {"value": {"tensor": {"dtype": "DT_FLOAT", "tensorShape": {"dim": [{"size": "320"}]}}}, "dtype": {"type": "DT_FLOAT"}}}, {"name": "InceptionV3/InceptionV3/Mixed_7b/Branch_0/Conv2d_0a_1x1/convolution/merged_input", "op": "Const", "attr": {"value": {"tensor": {"dtype": "DT_FLOAT", "tensorShape": {"dim": [{"size": "1"}, {"size": "1"}, {"size": "1280"}, {"size": "320"}]}}}, "dtype": {"type": "DT_FLOAT"}}}, {"name": "InceptionV3/InceptionV3/Mixed_7c/Branch_2/Conv2d_0d_3x1/BatchNorm/batchnorm/sub", "op": "Const", "attr": {"value": {"tensor": {"dtype": "DT_FLOAT", "tensorShape": {"dim": [{"size": "384"}]}}}, "dtype": {"type": "DT_FLOAT"}}}, {"name": "InceptionV3/InceptionV3/Mixed_7c/Branch_2/Conv2d_0d_3x1/convolution/merged_input", "op": "Const", "attr": {"value": {"tensor": {"dtype": "DT_FLOAT", "tensorShape": {"dim": [{"size": "3"}, {"size": "1"}, {"size": "384"}, {"size": "384"}]}}}, "dtype": {"type": "DT_FLOAT"}}}, {"name": "InceptionV3/InceptionV3/Mixed_7c/Branch_2/Conv2d_0b_3x3/BatchNorm/batchnorm/sub", "op": "Const", "attr": {"value": {"tensor": {"dtype": "DT_FLOAT", "tensorShape": {"dim": [{"size": "384"}]}}}, "dtype": {"type": "DT_FLOAT"}}}, {"name": "InceptionV3/InceptionV3/Mixed_7c/Branch_2/Conv2d_0b_3x3/convolution/merged_input", "op": "Const", "attr": {"value": {"tensor": {"dtype": "DT_FLOAT", "tensorShape": {"dim": [{"size": "3"}, {"size": "3"}, {"size": "448"}, {"size": "384"}]}}}, "dtype": {"type": "DT_FLOAT"}}}, {"name": "InceptionV3/InceptionV3/Mixed_7c/Branch_2/Conv2d_0a_1x1/BatchNorm/batchnorm/sub", "op": "Const", "attr": {"value": {"tensor": {"dtype": "DT_FLOAT", "tensorShape": {"dim": [{"size": "448"}]}}}, "dtype": {"type": "DT_FLOAT"}}}, {"name": "InceptionV3/InceptionV3/Mixed_7c/Branch_2/Conv2d_0a_1x1/convolution/merged_input", "op": "Const", "attr": {"value": {"tensor": {"dtype": "DT_FLOAT", "tensorShape": {"dim": [{"size": "1"}, {"size": "1"}, {"size": "2048"}, {"size": "448"}]}}}, "dtype": {"type": "DT_FLOAT"}}}, {"name": "InceptionV3/InceptionV3/Mixed_7c/Branch_2/Conv2d_0c_1x3/BatchNorm/batchnorm/sub", "op": "Const", "attr": {"value": {"tensor": {"dtype": "DT_FLOAT", "tensorShape": {"dim": [{"size": "384"}]}}}, "dtype": {"type": "DT_FLOAT"}}}, {"name": "InceptionV3/InceptionV3/Mixed_7c/Branch_2/Conv2d_0c_1x3/convolution/merged_input", "op": "Const", "attr": {"value": {"tensor": {"dtype": "DT_FLOAT", "tensorShape": {"dim": [{"size": "1"}, {"size": "3"}, {"size": "384"}, {"size": "384"}]}}}, "dtype": {"type": "DT_FLOAT"}}}, {"name": "InceptionV3/InceptionV3/Mixed_7c/Branch_1/Conv2d_0c_3x1/BatchNorm/batchnorm/sub", "op": "Const", "attr": {"value": {"tensor": {"dtype": "DT_FLOAT", "tensorShape": {"dim": [{"size": "384"}]}}}, "dtype": {"type": "DT_FLOAT"}}}, {"name": "InceptionV3/InceptionV3/Mixed_7c/Branch_1/Conv2d_0c_3x1/convolution/merged_input", "op": "Const", "attr": {"value": {"tensor": {"dtype": "DT_FLOAT", "tensorShape": {"dim": [{"size": "3"}, {"size": "1"}, {"size": "384"}, {"size": "384"}]}}}, "dtype": {"type": "DT_FLOAT"}}}, {"name": "InceptionV3/InceptionV3/Mixed_7c/Branch_1/Conv2d_0a_1x1/BatchNorm/batchnorm/sub", "op": "Const", "attr": {"value": {"tensor": {"dtype": "DT_FLOAT", "tensorShape": {"dim": [{"size": "384"}]}}}, "dtype": {"type": "DT_FLOAT"}}}, {"name": "InceptionV3/InceptionV3/Mixed_7c/Branch_1/Conv2d_0a_1x1/convolution/merged_input", "op": "Const", "attr": {"value": {"tensor": {"dtype": "DT_FLOAT", "tensorShape": {"dim": [{"size": "1"}, {"size": "1"}, {"size": "2048"}, {"size": "384"}]}}}, "dtype": {"type": "DT_FLOAT"}}}, {"name": "InceptionV3/InceptionV3/Mixed_7c/Branch_1/Conv2d_0b_1x3/BatchNorm/batchnorm/sub", "op": "Const", "attr": {"dtype": {"type": "DT_FLOAT"}, "value": {"tensor": {"dtype": "DT_FLOAT", "tensorShape": {"dim": [{"size": "384"}]}}}}}, {"name": "InceptionV3/InceptionV3/Mixed_7c/Branch_1/Conv2d_0b_1x3/convolution/merged_input", "op": "Const", "attr": {"value": {"tensor": {"dtype": "DT_FLOAT", "tensorShape": {"dim": [{"size": "1"}, {"size": "3"}, {"size": "384"}, {"size": "384"}]}}}, "dtype": {"type": "DT_FLOAT"}}}, {"name": "InceptionV3/InceptionV3/Mixed_7c/Branch_0/Conv2d_0a_1x1/BatchNorm/batchnorm/sub", "op": "Const", "attr": {"dtype": {"type": "DT_FLOAT"}, "value": {"tensor": {"dtype": "DT_FLOAT", "tensorShape": {"dim": [{"size": "320"}]}}}}}, {"name": "InceptionV3/InceptionV3/Mixed_7c/Branch_0/Conv2d_0a_1x1/convolution/merged_input", "op": "Const", "attr": {"dtype": {"type": "DT_FLOAT"}, "value": {"tensor": {"dtype": "DT_FLOAT", "tensorShape": {"dim": [{"size": "1"}, {"size": "1"}, {"size": "2048"}, {"size": "320"}]}}}}}, {"name": "lstm/split", "op": "Split", "input": ["lstm/initial_state/concat_dim", "lstm/state_feed"], "attr": {"T": {"type": "DT_FLOAT"}, "num_split": {"i": "2"}}}, {"name": "ExpandDims_5", "op": "ExpandDims", "input": ["input_feed", "lstm/initial_state/concat_dim"], "attr": {"Tdim": {"type": "DT_INT32"}, "T": {"type": "DT_INT64"}}}, {"name": "InceptionV3/InceptionV3/Conv2d_1a_3x3/BatchNorm/batchnorm/mul", "op": "Conv2D", "input": ["ExpandDims_4", "InceptionV3/InceptionV3/Conv2d_1a_3x3/convolution/merged_input"], "attr": {"dilations": {"list": {"i": ["1", "1", "1", "1"]}}, "T": {"type": "DT_FLOAT"}, "strides": {"list": {"i": ["1", "2", "2", "1"]}}, "data_format": {"s": "TkhXQw=="}, "use_cudnn_on_gpu": {"b": true}, "explicit_paddings": {"list": {}}, "padding": {"s": "VkFMSUQ="}}}, {"name": "seq_embedding/embedding_lookup", "op": "Gather", "input": ["seq_embedding/map", "ExpandDims_5"], "attr": {"Tindices": {"type": "DT_INT64"}, "validate_indices": {"b": true}, "Tparams": {"type": "DT_FLOAT"}}}, {"name": "InceptionV3/InceptionV3/Conv2d_1a_3x3/BatchNorm/batchnorm/add_1", "op": "Add", "input": ["InceptionV3/InceptionV3/Conv2d_1a_3x3/BatchNorm/batchnorm/mul", "InceptionV3/InceptionV3/Conv2d_1a_3x3/BatchNorm/batchnorm/sub"], "attr": {"T": {"type": "DT_FLOAT"}}}, {"name": "lstm/Squeeze", "op": "Squeeze", "input": ["seq_embedding/embedding_lookup"], "attr": {"squeeze_dims": {"list": {"i": ["1"]}}, "T": {"type": "DT_FLOAT"}}}, {"name": "InceptionV3/InceptionV3/Conv2d_1a_3x3/Relu", "op": "Relu", "input": ["InceptionV3/InceptionV3/Conv2d_1a_3x3/BatchNorm/batchnorm/add_1"], "attr": {"T": {"type": "DT_FLOAT"}}}, {"name": "lstm/BasicLSTMCell_1/Linear/concat", "op": "Concat", "input": ["lstm/initial_state/concat_dim", "lstm/Squeeze", "lstm/split:1"], "attr": {"T": {"type": "DT_FLOAT"}, "N": {"i": "2"}}}, {"name": "InceptionV3/InceptionV3/Conv2d_2a_3x3/BatchNorm/batchnorm/mul", "op": "Conv2D", "input": ["InceptionV3/InceptionV3/Conv2d_1a_3x3/Relu", "InceptionV3/InceptionV3/Conv2d_2a_3x3/convolution/merged_input"], "attr": {"dilations": {"list": {"i": ["1", "1", "1", "1"]}}, "T": {"type": "DT_FLOAT"}, "data_format": {"s": "TkhXQw=="}, "strides": {"list": {"i": ["1", "1", "1", "1"]}}, "use_cudnn_on_gpu": {"b": true}, "explicit_paddings": {"list": {}}, "padding": {"s": "VkFMSUQ="}}}, {"name": "lstm/BasicLSTMCell_1/Linear/MatMul", "op": "MatMul", "input": ["lstm/BasicLSTMCell_1/Linear/concat", "lstm/BasicLSTMCell/Linear/Matrix"], "attr": {"transpose_b": {"b": false}, "T": {"type": "DT_FLOAT"}, "transpose_a": {"b": false}}}, {"name": "InceptionV3/InceptionV3/Conv2d_2a_3x3/BatchNorm/batchnorm/add_1", "op": "Add", "input": ["InceptionV3/InceptionV3/Conv2d_2a_3x3/BatchNorm/batchnorm/mul", "InceptionV3/InceptionV3/Conv2d_2a_3x3/BatchNorm/batchnorm/sub"], "attr": {"T": {"type": "DT_FLOAT"}}}, {"name": "lstm/BasicLSTMCell_1/add", "op": "Add", "input": ["lstm/BasicLSTMCell/Linear/Bias", "lstm/BasicLSTMCell_1/Linear/MatMul"], "attr": {"T": {"type": "DT_FLOAT"}}}, {"name": "InceptionV3/InceptionV3/Conv2d_2a_3x3/Relu", "op": "Relu", "input": ["InceptionV3/InceptionV3/Conv2d_2a_3x3/BatchNorm/batchnorm/add_1"], "attr": {"T": {"type": "DT_FLOAT"}}}, {"name": "lstm/BasicLSTMCell_1/split", "op": "Split", "input": ["lstm/initial_state/concat_dim", "lstm/BasicLSTMCell_1/add"], "attr": {"T": {"type": "DT_FLOAT"}, "num_split": {"i": "4"}}}, {"name": "InceptionV3/InceptionV3/Conv2d_2b_3x3/BatchNorm/batchnorm/mul", "op": "Conv2D", "input": ["InceptionV3/InceptionV3/Conv2d_2a_3x3/Relu", "InceptionV3/InceptionV3/Conv2d_2b_3x3/convolution/merged_input"], "attr": {"dilations": {"list": {"i": ["1", "1", "1", "1"]}}, "T": {"type": "DT_FLOAT"}, "data_format": {"s": "TkhXQw=="}, "strides": {"list": {"i": ["1", "1", "1", "1"]}}, "explicit_paddings": {"list": {}}, "use_cudnn_on_gpu": {"b": true}, "padding": {"s": "U0FNRQ=="}}}, {"name": "lstm/BasicLSTMCell_1/Tanh", "op": "Tanh", "input": ["lstm/BasicLSTMCell_1/split:1"], "attr": {"T": {"type": "DT_FLOAT"}}}, {"name": "lstm/BasicLSTMCell_1/Sigmoid_1", "op": "Sigmoid", "input": ["lstm/BasicLSTMCell_1/split"], "attr": {"T": {"type": "DT_FLOAT"}}}, {"name": "lstm/BasicLSTMCell_1/add_1", "op": "Add", "input": ["lstm/BasicLSTMCell/add_1/y", "lstm/BasicLSTMCell_1/split:2"], "attr": {"T": {"type": "DT_FLOAT"}}}, {"name": "lstm/BasicLSTMCell_1/Sigmoid_2", "op": "Sigmoid", "input": ["lstm/BasicLSTMCell_1/split:3"], "attr": {"T": {"type": "DT_FLOAT"}}}, {"name": "InceptionV3/InceptionV3/Conv2d_2b_3x3/BatchNorm/batchnorm/add_1", "op": "Add", "input": ["InceptionV3/InceptionV3/Conv2d_2b_3x3/BatchNorm/batchnorm/mul", "InceptionV3/InceptionV3/Conv2d_2b_3x3/BatchNorm/batchnorm/sub"], "attr": {"T": {"type": "DT_FLOAT"}}}, {"name": "lstm/BasicLSTMCell_1/mul_1", "op": "Mul", "input": ["lstm/BasicLSTMCell_1/Sigmoid_1", "lstm/BasicLSTMCell_1/Tanh"], "attr": {"T": {"type": "DT_FLOAT"}}}, {"name": "lstm/BasicLSTMCell_1/Sigmoid", "op": "Sigmoid", "input": ["lstm/BasicLSTMCell_1/add_1"], "attr": {"T": {"type": "DT_FLOAT"}}}, {"name": "InceptionV3/InceptionV3/MaxPool_3a_3x3/MaxPool", "op": "MaxPool", "input": ["InceptionV3/InceptionV3/Conv2d_2b_3x3/BatchNorm/batchnorm/add_1"], "attr": {"T": {"type": "DT_FLOAT"}, "strides": {"list": {"i": ["1", "2", "2", "1"]}}, "data_format": {"s": "TkhXQw=="}, "ksize": {"list": {"i": ["1", "3", "3", "1"]}}, "padding": {"s": "VkFMSUQ="}}}, {"name": "lstm/BasicLSTMCell_1/mul", "op": "Mul", "input": ["lstm/BasicLSTMCell_1/Sigmoid", "lstm/split"], "attr": {"T": {"type": "DT_FLOAT"}}}, {"name": "InceptionV3/InceptionV3/Conv2d_2b_3x3/Relu", "op": "Relu", "input": ["InceptionV3/InceptionV3/MaxPool_3a_3x3/MaxPool"], "attr": {"T": {"type": "DT_FLOAT"}}}, {"name": "lstm/BasicLSTMCell_1/add_2", "op": "Add", "input": ["lstm/BasicLSTMCell_1/mul", "lstm/BasicLSTMCell_1/mul_1"], "attr": {"T": {"type": "DT_FLOAT"}}}, {"name": "InceptionV3/InceptionV3/Conv2d_3b_1x1/BatchNorm/batchnorm/mul", "op": "Conv2D", "input": ["InceptionV3/InceptionV3/Conv2d_2b_3x3/Relu", "InceptionV3/InceptionV3/Conv2d_3b_1x1/convolution/merged_input"], "attr": {"padding": {"s": "VkFMSUQ="}, "dilations": {"list": {"i": ["1", "1", "1", "1"]}}, "T": {"type": "DT_FLOAT"}, "data_format": {"s": "TkhXQw=="}, "strides": {"list": {"i": ["1", "1", "1", "1"]}}, "use_cudnn_on_gpu": {"b": true}, "explicit_paddings": {"list": {}}}}, {"name": "lstm/BasicLSTMCell_1/Tanh_1", "op": "Tanh", "input": ["lstm/BasicLSTMCell_1/add_2"], "attr": {"T": {"type": "DT_FLOAT"}}}, {"name": "InceptionV3/InceptionV3/Conv2d_3b_1x1/BatchNorm/batchnorm/add_1", "op": "Add", "input": ["InceptionV3/InceptionV3/Conv2d_3b_1x1/BatchNorm/batchnorm/mul", "InceptionV3/InceptionV3/Conv2d_3b_1x1/BatchNorm/batchnorm/sub"], "attr": {"T": {"type": "DT_FLOAT"}}}, {"name": "lstm/BasicLSTMCell_1/mul_2", "op": "Mul", "input": ["lstm/BasicLSTMCell_1/Sigmoid_2", "lstm/BasicLSTMCell_1/Tanh_1"], "attr": {"T": {"type": "DT_FLOAT"}}}, {"name": "InceptionV3/InceptionV3/Conv2d_3b_1x1/Relu", "op": "Relu", "input": ["InceptionV3/InceptionV3/Conv2d_3b_1x1/BatchNorm/batchnorm/add_1"], "attr": {"T": {"type": "DT_FLOAT"}}}, {"name": "Reshape_1", "op": "Reshape", "input": ["lstm/BasicLSTMCell_1/mul_2", "Reshape_1/shape"], "attr": {"T": {"type": "DT_FLOAT"}, "Tshape": {"type": "DT_INT32"}}}, {"name": "lstm/state", "op": "Concat", "input": ["lstm/initial_state/concat_dim", "lstm/BasicLSTMCell_1/add_2", "lstm/BasicLSTMCell_1/mul_2"], "attr": {"T": {"type": "DT_FLOAT"}, "N": {"i": "2"}}}, {"name": "InceptionV3/InceptionV3/Conv2d_4a_3x3/BatchNorm/batchnorm/mul", "op": "Conv2D", "input": ["InceptionV3/InceptionV3/Conv2d_3b_1x1/Relu", "InceptionV3/InceptionV3/Conv2d_4a_3x3/convolution/merged_input"], "attr": {"dilations": {"list": {"i": ["1", "1", "1", "1"]}}, "T": {"type": "DT_FLOAT"}, "data_format": {"s": "TkhXQw=="}, "strides": {"list": {"i": ["1", "1", "1", "1"]}}, "use_cudnn_on_gpu": {"b": true}, "explicit_paddings": {"list": {}}, "padding": {"s": "VkFMSUQ="}}}, {"name": "logits/logits/MatMul", "op": "MatMul", "input": ["Reshape_1", "logits/weights"], "attr": {"transpose_b": {"b": false}, "T": {"type": "DT_FLOAT"}, "transpose_a": {"b": false}}}, {"name": "InceptionV3/InceptionV3/Conv2d_4a_3x3/BatchNorm/batchnorm/add_1", "op": "Add", "input": ["InceptionV3/InceptionV3/Conv2d_4a_3x3/BatchNorm/batchnorm/mul", "InceptionV3/InceptionV3/Conv2d_4a_3x3/BatchNorm/batchnorm/sub"], "attr": {"T": {"type": "DT_FLOAT"}}}, {"name": "logits/logits/BiasAdd", "op": "BiasAdd", "input": ["logits/logits/MatMul", "logits/biases"], "attr": {"T": {"type": "DT_FLOAT"}, "data_format": {"s": "TkhXQw=="}}}, {"name": "InceptionV3/InceptionV3/MaxPool_5a_3x3/MaxPool", "op": "MaxPool", "input": ["InceptionV3/InceptionV3/Conv2d_4a_3x3/BatchNorm/batchnorm/add_1"], "attr": {"ksize": {"list": {"i": ["1", "3", "3", "1"]}}, "padding": {"s": "VkFMSUQ="}, "T": {"type": "DT_FLOAT"}, "strides": {"list": {"i": ["1", "2", "2", "1"]}}, "data_format": {"s": "TkhXQw=="}}}, {"name": "softmax", "op": "Softmax", "input": ["logits/logits/BiasAdd"], "attr": {"T": {"type": "DT_FLOAT"}}}, {"name": "InceptionV3/InceptionV3/Conv2d_4a_3x3/Relu", "op": "Relu", "input": ["InceptionV3/InceptionV3/MaxPool_5a_3x3/MaxPool"], "attr": {"T": {"type": "DT_FLOAT"}}}, {"name": "InceptionV3/InceptionV3/Mixed_5b/Branch_3/AvgPool_0a_3x3/AvgPool", "op": "AvgPool", "input": ["InceptionV3/InceptionV3/Conv2d_4a_3x3/Relu"], "attr": {"T": {"type": "DT_FLOAT"}, "strides": {"list": {"i": ["1", "1", "1", "1"]}}, "data_format": {"s": "TkhXQw=="}, "ksize": {"list": {"i": ["1", "3", "3", "1"]}}, "padding": {"s": "U0FNRQ=="}}}, {"name": "InceptionV3/InceptionV3/Mixed_5b/Branch_2/Conv2d_0a_1x1/BatchNorm/batchnorm/mul", "op": "Conv2D", "input": ["InceptionV3/InceptionV3/Conv2d_4a_3x3/Relu", "InceptionV3/InceptionV3/Mixed_5b/Branch_2/Conv2d_0a_1x1/convolution/merged_input"], "attr": {"padding": {"s": "U0FNRQ=="}, "dilations": {"list": {"i": ["1", "1", "1", "1"]}}, "T": {"type": "DT_FLOAT"}, "strides": {"list": {"i": ["1", "1", "1", "1"]}}, "data_format": {"s": "TkhXQw=="}, "explicit_paddings": {"list": {}}, "use_cudnn_on_gpu": {"b": true}}}, {"name": "InceptionV3/InceptionV3/Mixed_5b/Branch_1/Conv2d_0a_1x1/BatchNorm/batchnorm/mul", "op": "Conv2D", "input": ["InceptionV3/InceptionV3/Conv2d_4a_3x3/Relu", "InceptionV3/InceptionV3/Mixed_5b/Branch_1/Conv2d_0a_1x1/convolution/merged_input"], "attr": {"dilations": {"list": {"i": ["1", "1", "1", "1"]}}, "T": {"type": "DT_FLOAT"}, "strides": {"list": {"i": ["1", "1", "1", "1"]}}, "data_format": {"s": "TkhXQw=="}, "use_cudnn_on_gpu": {"b": true}, "explicit_paddings": {"list": {}}, "padding": {"s": "U0FNRQ=="}}}, {"name": "InceptionV3/InceptionV3/Mixed_5b/Branch_0/Conv2d_0a_1x1/BatchNorm/batchnorm/mul", "op": "Conv2D", "input": ["InceptionV3/InceptionV3/Conv2d_4a_3x3/Relu", "InceptionV3/InceptionV3/Mixed_5b/Branch_0/Conv2d_0a_1x1/convolution/merged_input"], "attr": {"dilations": {"list": {"i": ["1", "1", "1", "1"]}}, "T": {"type": "DT_FLOAT"}, "strides": {"list": {"i": ["1", "1", "1", "1"]}}, "data_format": {"s": "TkhXQw=="}, "use_cudnn_on_gpu": {"b": true}, "explicit_paddings": {"list": {}}, "padding": {"s": "U0FNRQ=="}}}, {"name": "InceptionV3/InceptionV3/Mixed_5b/Branch_3/Conv2d_0b_1x1/BatchNorm/batchnorm/mul", "op": "Conv2D", "input": ["InceptionV3/InceptionV3/Mixed_5b/Branch_3/AvgPool_0a_3x3/AvgPool", "InceptionV3/InceptionV3/Mixed_5b/Branch_3/Conv2d_0b_1x1/convolution/merged_input"], "attr": {"T": {"type": "DT_FLOAT"}, "data_format": {"s": "TkhXQw=="}, "strides": {"list": {"i": ["1", "1", "1", "1"]}}, "explicit_paddings": {"list": {}}, "use_cudnn_on_gpu": {"b": true}, "padding": {"s": "U0FNRQ=="}, "dilations": {"list": {"i": ["1", "1", "1", "1"]}}}}, {"name": "InceptionV3/InceptionV3/Mixed_5b/Branch_2/Conv2d_0a_1x1/BatchNorm/batchnorm/add_1", "op": "Add", "input": ["InceptionV3/InceptionV3/Mixed_5b/Branch_2/Conv2d_0a_1x1/BatchNorm/batchnorm/mul", "InceptionV3/InceptionV3/Mixed_5b/Branch_2/Conv2d_0a_1x1/BatchNorm/batchnorm/sub"], "attr": {"T": {"type": "DT_FLOAT"}}}, {"name": "InceptionV3/InceptionV3/Mixed_5b/Branch_1/Conv2d_0a_1x1/BatchNorm/batchnorm/add_1", "op": "Add", "input": ["InceptionV3/InceptionV3/Mixed_5b/Branch_1/Conv2d_0a_1x1/BatchNorm/batchnorm/mul", "InceptionV3/InceptionV3/Mixed_5b/Branch_1/Conv2d_0a_1x1/BatchNorm/batchnorm/sub"], "attr": {"T": {"type": "DT_FLOAT"}}}, {"name": "InceptionV3/InceptionV3/Mixed_5b/Branch_0/Conv2d_0a_1x1/BatchNorm/batchnorm/add_1", "op": "Add", "input": ["InceptionV3/InceptionV3/Mixed_5b/Branch_0/Conv2d_0a_1x1/BatchNorm/batchnorm/mul", "InceptionV3/InceptionV3/Mixed_5b/Branch_0/Conv2d_0a_1x1/BatchNorm/batchnorm/sub"], "attr": {"T": {"type": "DT_FLOAT"}}}, {"name": "InceptionV3/InceptionV3/Mixed_5b/Branch_3/Conv2d_0b_1x1/BatchNorm/batchnorm/add_1", "op": "Add", "input": ["InceptionV3/InceptionV3/Mixed_5b/Branch_3/Conv2d_0b_1x1/BatchNorm/batchnorm/mul", "InceptionV3/InceptionV3/Mixed_5b/Branch_3/Conv2d_0b_1x1/BatchNorm/batchnorm/sub"], "attr": {"T": {"type": "DT_FLOAT"}}}, {"name": "InceptionV3/InceptionV3/Mixed_5b/Branch_2/Conv2d_0a_1x1/Relu", "op": "Relu", "input": ["InceptionV3/InceptionV3/Mixed_5b/Branch_2/Conv2d_0a_1x1/BatchNorm/batchnorm/add_1"], "attr": {"T": {"type": "DT_FLOAT"}}}, {"name": "InceptionV3/InceptionV3/Mixed_5b/Branch_1/Conv2d_0a_1x1/Relu", "op": "Relu", "input": ["InceptionV3/InceptionV3/Mixed_5b/Branch_1/Conv2d_0a_1x1/BatchNorm/batchnorm/add_1"], "attr": {"T": {"type": "DT_FLOAT"}}}, {"name": "InceptionV3/InceptionV3/Mixed_5b/Branch_2/Conv2d_0b_3x3/BatchNorm/batchnorm/mul", "op": "Conv2D", "input": ["InceptionV3/InceptionV3/Mixed_5b/Branch_2/Conv2d_0a_1x1/Relu", "InceptionV3/InceptionV3/Mixed_5b/Branch_2/Conv2d_0b_3x3/convolution/merged_input"], "attr": {"padding": {"s": "U0FNRQ=="}, "dilations": {"list": {"i": ["1", "1", "1", "1"]}}, "T": {"type": "DT_FLOAT"}, "strides": {"list": {"i": ["1", "1", "1", "1"]}}, "data_format": {"s": "TkhXQw=="}, "use_cudnn_on_gpu": {"b": true}, "explicit_paddings": {"list": {}}}}, {"name": "InceptionV3/InceptionV3/Mixed_5b/Branch_1/Conv2d_0b_5x5/BatchNorm/batchnorm/mul", "op": "Conv2D", "input": ["InceptionV3/InceptionV3/Mixed_5b/Branch_1/Conv2d_0a_1x1/Relu", "InceptionV3/InceptionV3/Mixed_5b/Branch_1/Conv2d_0b_5x5/convolution/merged_input"], "attr": {"dilations": {"list": {"i": ["1", "1", "1", "1"]}}, "T": {"type": "DT_FLOAT"}, "data_format": {"s": "TkhXQw=="}, "strides": {"list": {"i": ["1", "1", "1", "1"]}}, "use_cudnn_on_gpu": {"b": true}, "explicit_paddings": {"list": {}}, "padding": {"s": "U0FNRQ=="}}}, {"name": "InceptionV3/InceptionV3/Mixed_5b/Branch_2/Conv2d_0b_3x3/BatchNorm/batchnorm/add_1", "op": "Add", "input": ["InceptionV3/InceptionV3/Mixed_5b/Branch_2/Conv2d_0b_3x3/BatchNorm/batchnorm/mul", "InceptionV3/InceptionV3/Mixed_5b/Branch_2/Conv2d_0b_3x3/BatchNorm/batchnorm/sub"], "attr": {"T": {"type": "DT_FLOAT"}}}, {"name": "InceptionV3/InceptionV3/Mixed_5b/Branch_1/Conv2d_0b_5x5/BatchNorm/batchnorm/add_1", "op": "Add", "input": ["InceptionV3/InceptionV3/Mixed_5b/Branch_1/Conv2d_0b_5x5/BatchNorm/batchnorm/mul", "InceptionV3/InceptionV3/Mixed_5b/Branch_1/Conv2d_0b_5x5/BatchNorm/batchnorm/sub"], "attr": {"T": {"type": "DT_FLOAT"}}}, {"name": "InceptionV3/InceptionV3/Mixed_5b/Branch_2/Conv2d_0b_3x3/Relu", "op": "Relu", "input": ["InceptionV3/InceptionV3/Mixed_5b/Branch_2/Conv2d_0b_3x3/BatchNorm/batchnorm/add_1"], "attr": {"T": {"type": "DT_FLOAT"}}}, {"name": "InceptionV3/InceptionV3/Mixed_5b/Branch_2/Conv2d_0c_3x3/BatchNorm/batchnorm/mul", "op": "Conv2D", "input": ["InceptionV3/InceptionV3/Mixed_5b/Branch_2/Conv2d_0b_3x3/Relu", "InceptionV3/InceptionV3/Mixed_5b/Branch_2/Conv2d_0c_3x3/convolution/merged_input"], "attr": {"T": {"type": "DT_FLOAT"}, "data_format": {"s": "TkhXQw=="}, "strides": {"list": {"i": ["1", "1", "1", "1"]}}, "explicit_paddings": {"list": {}}, "use_cudnn_on_gpu": {"b": true}, "padding": {"s": "U0FNRQ=="}, "dilations": {"list": {"i": ["1", "1", "1", "1"]}}}}, {"name": "InceptionV3/InceptionV3/Mixed_5b/Branch_2/Conv2d_0c_3x3/BatchNorm/batchnorm/add_1", "op": "Add", "input": ["InceptionV3/InceptionV3/Mixed_5b/Branch_2/Conv2d_0c_3x3/BatchNorm/batchnorm/mul", "InceptionV3/InceptionV3/Mixed_5b/Branch_2/Conv2d_0c_3x3/BatchNorm/batchnorm/sub"], "attr": {"T": {"type": "DT_FLOAT"}}}, {"name": "InceptionV3/InceptionV3/Mixed_5b/concat", "op": "Concat", "input": ["InceptionV3/InceptionV3/Mixed_7c/concat/concat_dim", "InceptionV3/InceptionV3/Mixed_5b/Branch_0/Conv2d_0a_1x1/BatchNorm/batchnorm/add_1", "InceptionV3/InceptionV3/Mixed_5b/Branch_1/Conv2d_0b_5x5/BatchNorm/batchnorm/add_1", "InceptionV3/InceptionV3/Mixed_5b/Branch_2/Conv2d_0c_3x3/BatchNorm/batchnorm/add_1", "InceptionV3/InceptionV3/Mixed_5b/Branch_3/Conv2d_0b_1x1/BatchNorm/batchnorm/add_1"], "attr": {"T": {"type": "DT_FLOAT"}, "N": {"i": "4"}}}, {"name": "InceptionV3/InceptionV3/Mixed_5b/Branch_0/Conv2d_0a_1x1/Relu", "op": "Relu", "input": ["InceptionV3/InceptionV3/Mixed_5b/concat"], "attr": {"T": {"type": "DT_FLOAT"}}}, {"name": "InceptionV3/InceptionV3/Mixed_5c/Branch_3/AvgPool_0a_3x3/AvgPool", "op": "AvgPool", "input": ["InceptionV3/InceptionV3/Mixed_5b/Branch_0/Conv2d_0a_1x1/Relu"], "attr": {"T": {"type": "DT_FLOAT"}, "strides": {"list": {"i": ["1", "1", "1", "1"]}}, "data_format": {"s": "TkhXQw=="}, "ksize": {"list": {"i": ["1", "3", "3", "1"]}}, "padding": {"s": "U0FNRQ=="}}}, {"name": "InceptionV3/InceptionV3/Mixed_5c/Branch_2/Conv2d_0a_1x1/BatchNorm/batchnorm/mul", "op": "Conv2D", "input": ["InceptionV3/InceptionV3/Mixed_5b/Branch_0/Conv2d_0a_1x1/Relu", "InceptionV3/InceptionV3/Mixed_5c/Branch_2/Conv2d_0a_1x1/convolution/merged_input"], "attr": {"dilations": {"list": {"i": ["1", "1", "1", "1"]}}, "T": {"type": "DT_FLOAT"}, "strides": {"list": {"i": ["1", "1", "1", "1"]}}, "data_format": {"s": "TkhXQw=="}, "use_cudnn_on_gpu": {"b": true}, "explicit_paddings": {"list": {}}, "padding": {"s": "U0FNRQ=="}}}, {"name": "InceptionV3/InceptionV3/Mixed_5c/Branch_1/Conv2d_0b_1x1/BatchNorm/batchnorm/mul", "op": "Conv2D", "input": ["InceptionV3/InceptionV3/Mixed_5b/Branch_0/Conv2d_0a_1x1/Relu", "InceptionV3/InceptionV3/Mixed_5c/Branch_1/Conv2d_0b_1x1/convolution/merged_input"], "attr": {"dilations": {"list": {"i": ["1", "1", "1", "1"]}}, "T": {"type": "DT_FLOAT"}, "strides": {"list": {"i": ["1", "1", "1", "1"]}}, "data_format": {"s": "TkhXQw=="}, "use_cudnn_on_gpu": {"b": true}, "explicit_paddings": {"list": {}}, "padding": {"s": "U0FNRQ=="}}}, {"name": "InceptionV3/InceptionV3/Mixed_5c/Branch_0/Conv2d_0a_1x1/BatchNorm/batchnorm/mul", "op": "Conv2D", "input": ["InceptionV3/InceptionV3/Mixed_5b/Branch_0/Conv2d_0a_1x1/Relu", "InceptionV3/InceptionV3/Mixed_5c/Branch_0/Conv2d_0a_1x1/convolution/merged_input"], "attr": {"dilations": {"list": {"i": ["1", "1", "1", "1"]}}, "T": {"type": "DT_FLOAT"}, "data_format": {"s": "TkhXQw=="}, "strides": {"list": {"i": ["1", "1", "1", "1"]}}, "use_cudnn_on_gpu": {"b": true}, "explicit_paddings": {"list": {}}, "padding": {"s": "U0FNRQ=="}}}, {"name": "InceptionV3/InceptionV3/Mixed_5c/Branch_3/Conv2d_0b_1x1/BatchNorm/batchnorm/mul", "op": "Conv2D", "input": ["InceptionV3/InceptionV3/Mixed_5c/Branch_3/AvgPool_0a_3x3/AvgPool", "InceptionV3/InceptionV3/Mixed_5c/Branch_3/Conv2d_0b_1x1/convolution/merged_input"], "attr": {"padding": {"s": "U0FNRQ=="}, "dilations": {"list": {"i": ["1", "1", "1", "1"]}}, "T": {"type": "DT_FLOAT"}, "strides": {"list": {"i": ["1", "1", "1", "1"]}}, "data_format": {"s": "TkhXQw=="}, "use_cudnn_on_gpu": {"b": true}, "explicit_paddings": {"list": {}}}}, {"name": "InceptionV3/InceptionV3/Mixed_5c/Branch_2/Conv2d_0a_1x1/BatchNorm/batchnorm/add_1", "op": "Add", "input": ["InceptionV3/InceptionV3/Mixed_5c/Branch_2/Conv2d_0a_1x1/BatchNorm/batchnorm/mul", "InceptionV3/InceptionV3/Mixed_5c/Branch_2/Conv2d_0a_1x1/BatchNorm/batchnorm/sub"], "attr": {"T": {"type": "DT_FLOAT"}}}, {"name": "InceptionV3/InceptionV3/Mixed_5c/Branch_1/Conv2d_0b_1x1/BatchNorm/batchnorm/add_1", "op": "Add", "input": ["InceptionV3/InceptionV3/Mixed_5c/Branch_1/Conv2d_0b_1x1/BatchNorm/batchnorm/mul", "InceptionV3/InceptionV3/Mixed_5c/Branch_1/Conv2d_0b_1x1/BatchNorm/batchnorm/sub"], "attr": {"T": {"type": "DT_FLOAT"}}}, {"name": "InceptionV3/InceptionV3/Mixed_5c/Branch_0/Conv2d_0a_1x1/BatchNorm/batchnorm/add_1", "op": "Add", "input": ["InceptionV3/InceptionV3/Mixed_5c/Branch_0/Conv2d_0a_1x1/BatchNorm/batchnorm/mul", "InceptionV3/InceptionV3/Mixed_5c/Branch_0/Conv2d_0a_1x1/BatchNorm/batchnorm/sub"], "attr": {"T": {"type": "DT_FLOAT"}}}, {"name": "InceptionV3/InceptionV3/Mixed_5c/Branch_3/Conv2d_0b_1x1/BatchNorm/batchnorm/add_1", "op": "Add", "input": ["InceptionV3/InceptionV3/Mixed_5c/Branch_3/Conv2d_0b_1x1/BatchNorm/batchnorm/mul", "InceptionV3/InceptionV3/Mixed_5c/Branch_3/Conv2d_0b_1x1/BatchNorm/batchnorm/sub"], "attr": {"T": {"type": "DT_FLOAT"}}}, {"name": "InceptionV3/InceptionV3/Mixed_5c/Branch_2/Conv2d_0a_1x1/Relu", "op": "Relu", "input": ["InceptionV3/InceptionV3/Mixed_5c/Branch_2/Conv2d_0a_1x1/BatchNorm/batchnorm/add_1"], "attr": {"T": {"type": "DT_FLOAT"}}}, {"name": "InceptionV3/InceptionV3/Mixed_5c/Branch_1/Conv2d_0b_1x1/Relu", "op": "Relu", "input": ["InceptionV3/InceptionV3/Mixed_5c/Branch_1/Conv2d_0b_1x1/BatchNorm/batchnorm/add_1"], "attr": {"T": {"type": "DT_FLOAT"}}}, {"name": "InceptionV3/InceptionV3/Mixed_5c/Branch_2/Conv2d_0b_3x3/BatchNorm/batchnorm/mul", "op": "Conv2D", "input": ["InceptionV3/InceptionV3/Mixed_5c/Branch_2/Conv2d_0a_1x1/Relu", "InceptionV3/InceptionV3/Mixed_5c/Branch_2/Conv2d_0b_3x3/convolution/merged_input"], "attr": {"dilations": {"list": {"i": ["1", "1", "1", "1"]}}, "T": {"type": "DT_FLOAT"}, "strides": {"list": {"i": ["1", "1", "1", "1"]}}, "data_format": {"s": "TkhXQw=="}, "explicit_paddings": {"list": {}}, "use_cudnn_on_gpu": {"b": true}, "padding": {"s": "U0FNRQ=="}}}, {"name": "InceptionV3/InceptionV3/Mixed_5c/Branch_1/Conv_1_0c_5x5/BatchNorm/batchnorm/mul", "op": "Conv2D", "input": ["InceptionV3/InceptionV3/Mixed_5c/Branch_1/Conv2d_0b_1x1/Relu", "InceptionV3/InceptionV3/Mixed_5c/Branch_1/Conv_1_0c_5x5/convolution/merged_input"], "attr": {"T": {"type": "DT_FLOAT"}, "data_format": {"s": "TkhXQw=="}, "strides": {"list": {"i": ["1", "1", "1", "1"]}}, "use_cudnn_on_gpu": {"b": true}, "explicit_paddings": {"list": {}}, "padding": {"s": "U0FNRQ=="}, "dilations": {"list": {"i": ["1", "1", "1", "1"]}}}}, {"name": "InceptionV3/InceptionV3/Mixed_5c/Branch_2/Conv2d_0b_3x3/BatchNorm/batchnorm/add_1", "op": "Add", "input": ["InceptionV3/InceptionV3/Mixed_5c/Branch_2/Conv2d_0b_3x3/BatchNorm/batchnorm/mul", "InceptionV3/InceptionV3/Mixed_5c/Branch_2/Conv2d_0b_3x3/BatchNorm/batchnorm/sub"], "attr": {"T": {"type": "DT_FLOAT"}}}, {"name": "InceptionV3/InceptionV3/Mixed_5c/Branch_1/Conv_1_0c_5x5/BatchNorm/batchnorm/add_1", "op": "Add", "input": ["InceptionV3/InceptionV3/Mixed_5c/Branch_1/Conv_1_0c_5x5/BatchNorm/batchnorm/mul", "InceptionV3/InceptionV3/Mixed_5c/Branch_1/Conv_1_0c_5x5/BatchNorm/batchnorm/sub"], "attr": {"T": {"type": "DT_FLOAT"}}}, {"name": "InceptionV3/InceptionV3/Mixed_5c/Branch_2/Conv2d_0b_3x3/Relu", "op": "Relu", "input": ["InceptionV3/InceptionV3/Mixed_5c/Branch_2/Conv2d_0b_3x3/BatchNorm/batchnorm/add_1"], "attr": {"T": {"type": "DT_FLOAT"}}}, {"name": "InceptionV3/InceptionV3/Mixed_5c/Branch_2/Conv2d_0c_3x3/BatchNorm/batchnorm/mul", "op": "Conv2D", "input": ["InceptionV3/InceptionV3/Mixed_5c/Branch_2/Conv2d_0b_3x3/Relu", "InceptionV3/InceptionV3/Mixed_5c/Branch_2/Conv2d_0c_3x3/convolution/merged_input"], "attr": {"dilations": {"list": {"i": ["1", "1", "1", "1"]}}, "T": {"type": "DT_FLOAT"}, "data_format": {"s": "TkhXQw=="}, "strides": {"list": {"i": ["1", "1", "1", "1"]}}, "use_cudnn_on_gpu": {"b": true}, "explicit_paddings": {"list": {}}, "padding": {"s": "U0FNRQ=="}}}, {"name": "InceptionV3/InceptionV3/Mixed_5c/Branch_2/Conv2d_0c_3x3/BatchNorm/batchnorm/add_1", "op": "Add", "input": ["InceptionV3/InceptionV3/Mixed_5c/Branch_2/Conv2d_0c_3x3/BatchNorm/batchnorm/mul", "InceptionV3/InceptionV3/Mixed_5c/Branch_2/Conv2d_0c_3x3/BatchNorm/batchnorm/sub"], "attr": {"T": {"type": "DT_FLOAT"}}}, {"name": "InceptionV3/InceptionV3/Mixed_5c/concat", "op": "Concat", "input": ["InceptionV3/InceptionV3/Mixed_7c/concat/concat_dim", "InceptionV3/InceptionV3/Mixed_5c/Branch_0/Conv2d_0a_1x1/BatchNorm/batchnorm/add_1", "InceptionV3/InceptionV3/Mixed_5c/Branch_1/Conv_1_0c_5x5/BatchNorm/batchnorm/add_1", "InceptionV3/InceptionV3/Mixed_5c/Branch_2/Conv2d_0c_3x3/BatchNorm/batchnorm/add_1", "InceptionV3/InceptionV3/Mixed_5c/Branch_3/Conv2d_0b_1x1/BatchNorm/batchnorm/add_1"], "attr": {"T": {"type": "DT_FLOAT"}, "N": {"i": "4"}}}, {"name": "InceptionV3/InceptionV3/Mixed_5c/Branch_0/Conv2d_0a_1x1/Relu", "op": "Relu", "input": ["InceptionV3/InceptionV3/Mixed_5c/concat"], "attr": {"T": {"type": "DT_FLOAT"}}}, {"name": "InceptionV3/InceptionV3/Mixed_5d/Branch_3/AvgPool_0a_3x3/AvgPool", "op": "AvgPool", "input": ["InceptionV3/InceptionV3/Mixed_5c/Branch_0/Conv2d_0a_1x1/Relu"], "attr": {"T": {"type": "DT_FLOAT"}, "data_format": {"s": "TkhXQw=="}, "strides": {"list": {"i": ["1", "1", "1", "1"]}}, "ksize": {"list": {"i": ["1", "3", "3", "1"]}}, "padding": {"s": "U0FNRQ=="}}}, {"name": "InceptionV3/InceptionV3/Mixed_5d/Branch_2/Conv2d_0a_1x1/BatchNorm/batchnorm/mul", "op": "Conv2D", "input": ["InceptionV3/InceptionV3/Mixed_5c/Branch_0/Conv2d_0a_1x1/Relu", "InceptionV3/InceptionV3/Mixed_5d/Branch_2/Conv2d_0a_1x1/convolution/merged_input"], "attr": {"dilations": {"list": {"i": ["1", "1", "1", "1"]}}, "T": {"type": "DT_FLOAT"}, "data_format": {"s": "TkhXQw=="}, "strides": {"list": {"i": ["1", "1", "1", "1"]}}, "use_cudnn_on_gpu": {"b": true}, "explicit_paddings": {"list": {}}, "padding": {"s": "U0FNRQ=="}}}, {"name": "InceptionV3/InceptionV3/Mixed_5d/Branch_1/Conv2d_0a_1x1/BatchNorm/batchnorm/mul", "op": "Conv2D", "input": ["InceptionV3/InceptionV3/Mixed_5c/Branch_0/Conv2d_0a_1x1/Relu", "InceptionV3/InceptionV3/Mixed_5d/Branch_1/Conv2d_0a_1x1/convolution/merged_input"], "attr": {"dilations": {"list": {"i": ["1", "1", "1", "1"]}}, "T": {"type": "DT_FLOAT"}, "data_format": {"s": "TkhXQw=="}, "strides": {"list": {"i": ["1", "1", "1", "1"]}}, "use_cudnn_on_gpu": {"b": true}, "explicit_paddings": {"list": {}}, "padding": {"s": "U0FNRQ=="}}}, {"name": "InceptionV3/InceptionV3/Mixed_5d/Branch_0/Conv2d_0a_1x1/BatchNorm/batchnorm/mul", "op": "Conv2D", "input": ["InceptionV3/InceptionV3/Mixed_5c/Branch_0/Conv2d_0a_1x1/Relu", "InceptionV3/InceptionV3/Mixed_5d/Branch_0/Conv2d_0a_1x1/convolution/merged_input"], "attr": {"dilations": {"list": {"i": ["1", "1", "1", "1"]}}, "T": {"type": "DT_FLOAT"}, "data_format": {"s": "TkhXQw=="}, "strides": {"list": {"i": ["1", "1", "1", "1"]}}, "explicit_paddings": {"list": {}}, "use_cudnn_on_gpu": {"b": true}, "padding": {"s": "U0FNRQ=="}}}, {"name": "InceptionV3/InceptionV3/Mixed_5d/Branch_3/Conv2d_0b_1x1/BatchNorm/batchnorm/mul", "op": "Conv2D", "input": ["InceptionV3/InceptionV3/Mixed_5d/Branch_3/AvgPool_0a_3x3/AvgPool", "InceptionV3/InceptionV3/Mixed_5d/Branch_3/Conv2d_0b_1x1/convolution/merged_input"], "attr": {"padding": {"s": "U0FNRQ=="}, "dilations": {"list": {"i": ["1", "1", "1", "1"]}}, "T": {"type": "DT_FLOAT"}, "strides": {"list": {"i": ["1", "1", "1", "1"]}}, "data_format": {"s": "TkhXQw=="}, "use_cudnn_on_gpu": {"b": true}, "explicit_paddings": {"list": {}}}}, {"name": "InceptionV3/InceptionV3/Mixed_5d/Branch_2/Conv2d_0a_1x1/BatchNorm/batchnorm/add_1", "op": "Add", "input": ["InceptionV3/InceptionV3/Mixed_5d/Branch_2/Conv2d_0a_1x1/BatchNorm/batchnorm/mul", "InceptionV3/InceptionV3/Mixed_5d/Branch_2/Conv2d_0a_1x1/BatchNorm/batchnorm/sub"], "attr": {"T": {"type": "DT_FLOAT"}}}, {"name": "InceptionV3/InceptionV3/Mixed_5d/Branch_1/Conv2d_0a_1x1/BatchNorm/batchnorm/add_1", "op": "Add", "input": ["InceptionV3/InceptionV3/Mixed_5d/Branch_1/Conv2d_0a_1x1/BatchNorm/batchnorm/mul", "InceptionV3/InceptionV3/Mixed_5d/Branch_1/Conv2d_0a_1x1/BatchNorm/batchnorm/sub"], "attr": {"T": {"type": "DT_FLOAT"}}}, {"name": "InceptionV3/InceptionV3/Mixed_5d/Branch_0/Conv2d_0a_1x1/BatchNorm/batchnorm/add_1", "op": "Add", "input": ["InceptionV3/InceptionV3/Mixed_5d/Branch_0/Conv2d_0a_1x1/BatchNorm/batchnorm/mul", "InceptionV3/InceptionV3/Mixed_5d/Branch_0/Conv2d_0a_1x1/BatchNorm/batchnorm/sub"], "attr": {"T": {"type": "DT_FLOAT"}}}, {"name": "InceptionV3/InceptionV3/Mixed_5d/Branch_3/Conv2d_0b_1x1/BatchNorm/batchnorm/add_1", "op": "Add", "input": ["InceptionV3/InceptionV3/Mixed_5d/Branch_3/Conv2d_0b_1x1/BatchNorm/batchnorm/mul", "InceptionV3/InceptionV3/Mixed_5d/Branch_3/Conv2d_0b_1x1/BatchNorm/batchnorm/sub"], "attr": {"T": {"type": "DT_FLOAT"}}}, {"name": "InceptionV3/InceptionV3/Mixed_5d/Branch_2/Conv2d_0a_1x1/Relu", "op": "Relu", "input": ["InceptionV3/InceptionV3/Mixed_5d/Branch_2/Conv2d_0a_1x1/BatchNorm/batchnorm/add_1"], "attr": {"T": {"type": "DT_FLOAT"}}}, {"name": "InceptionV3/InceptionV3/Mixed_5d/Branch_1/Conv2d_0a_1x1/Relu", "op": "Relu", "input": ["InceptionV3/InceptionV3/Mixed_5d/Branch_1/Conv2d_0a_1x1/BatchNorm/batchnorm/add_1"], "attr": {"T": {"type": "DT_FLOAT"}}}, {"name": "InceptionV3/InceptionV3/Mixed_5d/Branch_2/Conv2d_0b_3x3/BatchNorm/batchnorm/mul", "op": "Conv2D", "input": ["InceptionV3/InceptionV3/Mixed_5d/Branch_2/Conv2d_0a_1x1/Relu", "InceptionV3/InceptionV3/Mixed_5d/Branch_2/Conv2d_0b_3x3/convolution/merged_input"], "attr": {"dilations": {"list": {"i": ["1", "1", "1", "1"]}}, "T": {"type": "DT_FLOAT"}, "data_format": {"s": "TkhXQw=="}, "strides": {"list": {"i": ["1", "1", "1", "1"]}}, "use_cudnn_on_gpu": {"b": true}, "explicit_paddings": {"list": {}}, "padding": {"s": "U0FNRQ=="}}}, {"name": "InceptionV3/InceptionV3/Mixed_5d/Branch_1/Conv2d_0b_5x5/BatchNorm/batchnorm/mul", "op": "Conv2D", "input": ["InceptionV3/InceptionV3/Mixed_5d/Branch_1/Conv2d_0a_1x1/Relu", "InceptionV3/InceptionV3/Mixed_5d/Branch_1/Conv2d_0b_5x5/convolution/merged_input"], "attr": {"padding": {"s": "U0FNRQ=="}, "dilations": {"list": {"i": ["1", "1", "1", "1"]}}, "T": {"type": "DT_FLOAT"}, "strides": {"list": {"i": ["1", "1", "1", "1"]}}, "data_format": {"s": "TkhXQw=="}, "use_cudnn_on_gpu": {"b": true}, "explicit_paddings": {"list": {}}}}, {"name": "InceptionV3/InceptionV3/Mixed_5d/Branch_2/Conv2d_0b_3x3/BatchNorm/batchnorm/add_1", "op": "Add", "input": ["InceptionV3/InceptionV3/Mixed_5d/Branch_2/Conv2d_0b_3x3/BatchNorm/batchnorm/mul", "InceptionV3/InceptionV3/Mixed_5d/Branch_2/Conv2d_0b_3x3/BatchNorm/batchnorm/sub"], "attr": {"T": {"type": "DT_FLOAT"}}}, {"name": "InceptionV3/InceptionV3/Mixed_5d/Branch_1/Conv2d_0b_5x5/BatchNorm/batchnorm/add_1", "op": "Add", "input": ["InceptionV3/InceptionV3/Mixed_5d/Branch_1/Conv2d_0b_5x5/BatchNorm/batchnorm/mul", "InceptionV3/InceptionV3/Mixed_5d/Branch_1/Conv2d_0b_5x5/BatchNorm/batchnorm/sub"], "attr": {"T": {"type": "DT_FLOAT"}}}, {"name": "InceptionV3/InceptionV3/Mixed_5d/Branch_2/Conv2d_0b_3x3/Relu", "op": "Relu", "input": ["InceptionV3/InceptionV3/Mixed_5d/Branch_2/Conv2d_0b_3x3/BatchNorm/batchnorm/add_1"], "attr": {"T": {"type": "DT_FLOAT"}}}, {"name": "InceptionV3/InceptionV3/Mixed_5d/Branch_2/Conv2d_0c_3x3/BatchNorm/batchnorm/mul", "op": "Conv2D", "input": ["InceptionV3/InceptionV3/Mixed_5d/Branch_2/Conv2d_0b_3x3/Relu", "InceptionV3/InceptionV3/Mixed_5d/Branch_2/Conv2d_0c_3x3/convolution/merged_input"], "attr": {"dilations": {"list": {"i": ["1", "1", "1", "1"]}}, "T": {"type": "DT_FLOAT"}, "data_format": {"s": "TkhXQw=="}, "strides": {"list": {"i": ["1", "1", "1", "1"]}}, "use_cudnn_on_gpu": {"b": true}, "explicit_paddings": {"list": {}}, "padding": {"s": "U0FNRQ=="}}}, {"name": "InceptionV3/InceptionV3/Mixed_5d/Branch_2/Conv2d_0c_3x3/BatchNorm/batchnorm/add_1", "op": "Add", "input": ["InceptionV3/InceptionV3/Mixed_5d/Branch_2/Conv2d_0c_3x3/BatchNorm/batchnorm/mul", "InceptionV3/InceptionV3/Mixed_5d/Branch_2/Conv2d_0c_3x3/BatchNorm/batchnorm/sub"], "attr": {"T": {"type": "DT_FLOAT"}}}, {"name": "InceptionV3/InceptionV3/Mixed_5d/concat", "op": "Concat", "input": ["InceptionV3/InceptionV3/Mixed_7c/concat/concat_dim", "InceptionV3/InceptionV3/Mixed_5d/Branch_0/Conv2d_0a_1x1/BatchNorm/batchnorm/add_1", "InceptionV3/InceptionV3/Mixed_5d/Branch_1/Conv2d_0b_5x5/BatchNorm/batchnorm/add_1", "InceptionV3/InceptionV3/Mixed_5d/Branch_2/Conv2d_0c_3x3/BatchNorm/batchnorm/add_1", "InceptionV3/InceptionV3/Mixed_5d/Branch_3/Conv2d_0b_1x1/BatchNorm/batchnorm/add_1"], "attr": {"T": {"type": "DT_FLOAT"}, "N": {"i": "4"}}}, {"name": "InceptionV3/InceptionV3/Mixed_5d/Branch_0/Conv2d_0a_1x1/Relu", "op": "Relu", "input": ["InceptionV3/InceptionV3/Mixed_5d/concat"], "attr": {"T": {"type": "DT_FLOAT"}}}, {"name": "InceptionV3/InceptionV3/Mixed_6a/Branch_2/MaxPool_1a_3x3/MaxPool", "op": "MaxPool", "input": ["InceptionV3/InceptionV3/Mixed_5d/Branch_0/Conv2d_0a_1x1/Relu"], "attr": {"T": {"type": "DT_FLOAT"}, "data_format": {"s": "TkhXQw=="}, "strides": {"list": {"i": ["1", "2", "2", "1"]}}, "ksize": {"list": {"i": ["1", "3", "3", "1"]}}, "padding": {"s": "VkFMSUQ="}}}, {"name": "InceptionV3/InceptionV3/Mixed_6a/Branch_1/Conv2d_0a_1x1/BatchNorm/batchnorm/mul", "op": "Conv2D", "input": ["InceptionV3/InceptionV3/Mixed_5d/Branch_0/Conv2d_0a_1x1/Relu", "InceptionV3/InceptionV3/Mixed_6a/Branch_1/Conv2d_0a_1x1/convolution/merged_input"], "attr": {"dilations": {"list": {"i": ["1", "1", "1", "1"]}}, "T": {"type": "DT_FLOAT"}, "strides": {"list": {"i": ["1", "1", "1", "1"]}}, "data_format": {"s": "TkhXQw=="}, "use_cudnn_on_gpu": {"b": true}, "explicit_paddings": {"list": {}}, "padding": {"s": "U0FNRQ=="}}}, {"name": "InceptionV3/InceptionV3/Mixed_6a/Branch_0/Conv2d_1a_1x1/BatchNorm/batchnorm/mul", "op": "Conv2D", "input": ["InceptionV3/InceptionV3/Mixed_5d/Branch_0/Conv2d_0a_1x1/Relu", "InceptionV3/InceptionV3/Mixed_6a/Branch_0/Conv2d_1a_1x1/convolution/merged_input"], "attr": {"T": {"type": "DT_FLOAT"}, "data_format": {"s": "TkhXQw=="}, "strides": {"list": {"i": ["1", "2", "2", "1"]}}, "use_cudnn_on_gpu": {"b": true}, "explicit_paddings": {"list": {}}, "padding": {"s": "VkFMSUQ="}, "dilations": {"list": {"i": ["1", "1", "1", "1"]}}}}, {"name": "InceptionV3/InceptionV3/Mixed_6a/Branch_1/Conv2d_0a_1x1/BatchNorm/batchnorm/add_1", "op": "Add", "input": ["InceptionV3/InceptionV3/Mixed_6a/Branch_1/Conv2d_0a_1x1/BatchNorm/batchnorm/mul", "InceptionV3/InceptionV3/Mixed_6a/Branch_1/Conv2d_0a_1x1/BatchNorm/batchnorm/sub"], "attr": {"T": {"type": "DT_FLOAT"}}}, {"name": "InceptionV3/InceptionV3/Mixed_6a/Branch_0/Conv2d_1a_1x1/BatchNorm/batchnorm/add_1", "op": "Add", "input": ["InceptionV3/InceptionV3/Mixed_6a/Branch_0/Conv2d_1a_1x1/BatchNorm/batchnorm/mul", "InceptionV3/InceptionV3/Mixed_6a/Branch_0/Conv2d_1a_1x1/BatchNorm/batchnorm/sub"], "attr": {"T": {"type": "DT_FLOAT"}}}, {"name": "InceptionV3/InceptionV3/Mixed_6a/Branch_1/Conv2d_0a_1x1/Relu", "op": "Relu", "input": ["InceptionV3/InceptionV3/Mixed_6a/Branch_1/Conv2d_0a_1x1/BatchNorm/batchnorm/add_1"], "attr": {"T": {"type": "DT_FLOAT"}}}, {"name": "InceptionV3/InceptionV3/Mixed_6a/Branch_0/Conv2d_1a_1x1/Relu", "op": "Relu", "input": ["InceptionV3/InceptionV3/Mixed_6a/Branch_0/Conv2d_1a_1x1/BatchNorm/batchnorm/add_1"], "attr": {"T": {"type": "DT_FLOAT"}}}, {"name": "InceptionV3/InceptionV3/Mixed_6a/Branch_1/Conv2d_0b_3x3/BatchNorm/batchnorm/mul", "op": "Conv2D", "input": ["InceptionV3/InceptionV3/Mixed_6a/Branch_1/Conv2d_0a_1x1/Relu", "InceptionV3/InceptionV3/Mixed_6a/Branch_1/Conv2d_0b_3x3/convolution/merged_input"], "attr": {"padding": {"s": "U0FNRQ=="}, "dilations": {"list": {"i": ["1", "1", "1", "1"]}}, "T": {"type": "DT_FLOAT"}, "strides": {"list": {"i": ["1", "1", "1", "1"]}}, "data_format": {"s": "TkhXQw=="}, "explicit_paddings": {"list": {}}, "use_cudnn_on_gpu": {"b": true}}}, {"name": "InceptionV3/InceptionV3/Mixed_6a/Branch_1/Conv2d_0b_3x3/BatchNorm/batchnorm/add_1", "op": "Add", "input": ["InceptionV3/InceptionV3/Mixed_6a/Branch_1/Conv2d_0b_3x3/BatchNorm/batchnorm/mul", "InceptionV3/InceptionV3/Mixed_6a/Branch_1/Conv2d_0b_3x3/BatchNorm/batchnorm/sub"], "attr": {"T": {"type": "DT_FLOAT"}}}, {"name": "InceptionV3/InceptionV3/Mixed_6a/Branch_1/Conv2d_0b_3x3/Relu", "op": "Relu", "input": ["InceptionV3/InceptionV3/Mixed_6a/Branch_1/Conv2d_0b_3x3/BatchNorm/batchnorm/add_1"], "attr": {"T": {"type": "DT_FLOAT"}}}, {"name": "InceptionV3/InceptionV3/Mixed_6a/Branch_1/Conv2d_1a_1x1/BatchNorm/batchnorm/mul", "op": "Conv2D", "input": ["InceptionV3/InceptionV3/Mixed_6a/Branch_1/Conv2d_0b_3x3/Relu", "InceptionV3/InceptionV3/Mixed_6a/Branch_1/Conv2d_1a_1x1/convolution/merged_input"], "attr": {"T": {"type": "DT_FLOAT"}, "data_format": {"s": "TkhXQw=="}, "strides": {"list": {"i": ["1", "2", "2", "1"]}}, "use_cudnn_on_gpu": {"b": true}, "explicit_paddings": {"list": {}}, "padding": {"s": "VkFMSUQ="}, "dilations": {"list": {"i": ["1", "1", "1", "1"]}}}}, {"name": "InceptionV3/InceptionV3/Mixed_6a/Branch_1/Conv2d_1a_1x1/BatchNorm/batchnorm/add_1", "op": "Add", "input": ["InceptionV3/InceptionV3/Mixed_6a/Branch_1/Conv2d_1a_1x1/BatchNorm/batchnorm/mul", "InceptionV3/InceptionV3/Mixed_6a/Branch_1/Conv2d_1a_1x1/BatchNorm/batchnorm/sub"], "attr": {"T": {"type": "DT_FLOAT"}}}, {"name": "InceptionV3/InceptionV3/Mixed_6a/Branch_1/Conv2d_1a_1x1/Relu", "op": "Relu", "input": ["InceptionV3/InceptionV3/Mixed_6a/Branch_1/Conv2d_1a_1x1/BatchNorm/batchnorm/add_1"], "attr": {"T": {"type": "DT_FLOAT"}}}, {"name": "InceptionV3/InceptionV3/Mixed_6a/concat", "op": "Concat", "input": ["InceptionV3/InceptionV3/Mixed_7c/concat/concat_dim", "InceptionV3/InceptionV3/Mixed_6a/Branch_0/Conv2d_1a_1x1/Relu", "InceptionV3/InceptionV3/Mixed_6a/Branch_1/Conv2d_1a_1x1/Relu", "InceptionV3/InceptionV3/Mixed_6a/Branch_2/MaxPool_1a_3x3/MaxPool"], "attr": {"T": {"type": "DT_FLOAT"}, "N": {"i": "3"}}}, {"name": "InceptionV3/InceptionV3/Mixed_6b/Branch_3/AvgPool_0a_3x3/AvgPool", "op": "AvgPool", "input": ["InceptionV3/InceptionV3/Mixed_6a/concat"], "attr": {"ksize": {"list": {"i": ["1", "3", "3", "1"]}}, "padding": {"s": "U0FNRQ=="}, "T": {"type": "DT_FLOAT"}, "strides": {"list": {"i": ["1", "1", "1", "1"]}}, "data_format": {"s": "TkhXQw=="}}}, {"name": "InceptionV3/InceptionV3/Mixed_6b/Branch_2/Conv2d_0a_1x1/BatchNorm/batchnorm/mul", "op": "Conv2D", "input": ["InceptionV3/InceptionV3/Mixed_6a/concat", "InceptionV3/InceptionV3/Mixed_6b/Branch_2/Conv2d_0a_1x1/convolution/merged_input"], "attr": {"dilations": {"list": {"i": ["1", "1", "1", "1"]}}, "T": {"type": "DT_FLOAT"}, "data_format": {"s": "TkhXQw=="}, "strides": {"list": {"i": ["1", "1", "1", "1"]}}, "use_cudnn_on_gpu": {"b": true}, "explicit_paddings": {"list": {}}, "padding": {"s": "U0FNRQ=="}}}, {"name": "InceptionV3/InceptionV3/Mixed_6b/Branch_1/Conv2d_0a_1x1/BatchNorm/batchnorm/mul", "op": "Conv2D", "input": ["InceptionV3/InceptionV3/Mixed_6a/concat", "InceptionV3/InceptionV3/Mixed_6b/Branch_1/Conv2d_0a_1x1/convolution/merged_input"], "attr": {"padding": {"s": "U0FNRQ=="}, "dilations": {"list": {"i": ["1", "1", "1", "1"]}}, "T": {"type": "DT_FLOAT"}, "strides": {"list": {"i": ["1", "1", "1", "1"]}}, "data_format": {"s": "TkhXQw=="}, "use_cudnn_on_gpu": {"b": true}, "explicit_paddings": {"list": {}}}}, {"name": "InceptionV3/InceptionV3/Mixed_6b/Branch_0/Conv2d_0a_1x1/BatchNorm/batchnorm/mul", "op": "Conv2D", "input": ["InceptionV3/InceptionV3/Mixed_6a/concat", "InceptionV3/InceptionV3/Mixed_6b/Branch_0/Conv2d_0a_1x1/convolution/merged_input"], "attr": {"T": {"type": "DT_FLOAT"}, "data_format": {"s": "TkhXQw=="}, "strides": {"list": {"i": ["1", "1", "1", "1"]}}, "explicit_paddings": {"list": {}}, "use_cudnn_on_gpu": {"b": true}, "padding": {"s": "U0FNRQ=="}, "dilations": {"list": {"i": ["1", "1", "1", "1"]}}}}, {"name": "InceptionV3/InceptionV3/Mixed_6b/Branch_3/Conv2d_0b_1x1/BatchNorm/batchnorm/mul", "op": "Conv2D", "input": ["InceptionV3/InceptionV3/Mixed_6b/Branch_3/AvgPool_0a_3x3/AvgPool", "InceptionV3/InceptionV3/Mixed_6b/Branch_3/Conv2d_0b_1x1/convolution/merged_input"], "attr": {"dilations": {"list": {"i": ["1", "1", "1", "1"]}}, "T": {"type": "DT_FLOAT"}, "data_format": {"s": "TkhXQw=="}, "strides": {"list": {"i": ["1", "1", "1", "1"]}}, "use_cudnn_on_gpu": {"b": true}, "explicit_paddings": {"list": {}}, "padding": {"s": "U0FNRQ=="}}}, {"name": "InceptionV3/InceptionV3/Mixed_6b/Branch_2/Conv2d_0a_1x1/BatchNorm/batchnorm/add_1", "op": "Add", "input": ["InceptionV3/InceptionV3/Mixed_6b/Branch_2/Conv2d_0a_1x1/BatchNorm/batchnorm/mul", "InceptionV3/InceptionV3/Mixed_6b/Branch_2/Conv2d_0a_1x1/BatchNorm/batchnorm/sub"], "attr": {"T": {"type": "DT_FLOAT"}}}, {"name": "InceptionV3/InceptionV3/Mixed_6b/Branch_1/Conv2d_0a_1x1/BatchNorm/batchnorm/add_1", "op": "Add", "input": ["InceptionV3/InceptionV3/Mixed_6b/Branch_1/Conv2d_0a_1x1/BatchNorm/batchnorm/mul", "InceptionV3/InceptionV3/Mixed_6b/Branch_1/Conv2d_0a_1x1/BatchNorm/batchnorm/sub"], "attr": {"T": {"type": "DT_FLOAT"}}}, {"name": "InceptionV3/InceptionV3/Mixed_6b/Branch_0/Conv2d_0a_1x1/BatchNorm/batchnorm/add_1", "op": "Add", "input": ["InceptionV3/InceptionV3/Mixed_6b/Branch_0/Conv2d_0a_1x1/BatchNorm/batchnorm/mul", "InceptionV3/InceptionV3/Mixed_6b/Branch_0/Conv2d_0a_1x1/BatchNorm/batchnorm/sub"], "attr": {"T": {"type": "DT_FLOAT"}}}, {"name": "InceptionV3/InceptionV3/Mixed_6b/Branch_3/Conv2d_0b_1x1/BatchNorm/batchnorm/add_1", "op": "Add", "input": ["InceptionV3/InceptionV3/Mixed_6b/Branch_3/Conv2d_0b_1x1/BatchNorm/batchnorm/mul", "InceptionV3/InceptionV3/Mixed_6b/Branch_3/Conv2d_0b_1x1/BatchNorm/batchnorm/sub"], "attr": {"T": {"type": "DT_FLOAT"}}}, {"name": "InceptionV3/InceptionV3/Mixed_6b/Branch_2/Conv2d_0a_1x1/Relu", "op": "Relu", "input": ["InceptionV3/InceptionV3/Mixed_6b/Branch_2/Conv2d_0a_1x1/BatchNorm/batchnorm/add_1"], "attr": {"T": {"type": "DT_FLOAT"}}}, {"name": "InceptionV3/InceptionV3/Mixed_6b/Branch_1/Conv2d_0a_1x1/Relu", "op": "Relu", "input": ["InceptionV3/InceptionV3/Mixed_6b/Branch_1/Conv2d_0a_1x1/BatchNorm/batchnorm/add_1"], "attr": {"T": {"type": "DT_FLOAT"}}}, {"name": "InceptionV3/InceptionV3/Mixed_6b/Branch_2/Conv2d_0b_7x1/BatchNorm/batchnorm/mul", "op": "Conv2D", "input": ["InceptionV3/InceptionV3/Mixed_6b/Branch_2/Conv2d_0a_1x1/Relu", "InceptionV3/InceptionV3/Mixed_6b/Branch_2/Conv2d_0b_7x1/convolution/merged_input"], "attr": {"dilations": {"list": {"i": ["1", "1", "1", "1"]}}, "T": {"type": "DT_FLOAT"}, "data_format": {"s": "TkhXQw=="}, "strides": {"list": {"i": ["1", "1", "1", "1"]}}, "use_cudnn_on_gpu": {"b": true}, "explicit_paddings": {"list": {}}, "padding": {"s": "U0FNRQ=="}}}, {"name": "InceptionV3/InceptionV3/Mixed_6b/Branch_1/Conv2d_0b_1x7/BatchNorm/batchnorm/mul", "op": "Conv2D", "input": ["InceptionV3/InceptionV3/Mixed_6b/Branch_1/Conv2d_0a_1x1/Relu", "InceptionV3/InceptionV3/Mixed_6b/Branch_1/Conv2d_0b_1x7/convolution/merged_input"], "attr": {"dilations": {"list": {"i": ["1", "1", "1", "1"]}}, "T": {"type": "DT_FLOAT"}, "strides": {"list": {"i": ["1", "1", "1", "1"]}}, "data_format": {"s": "TkhXQw=="}, "explicit_paddings": {"list": {}}, "use_cudnn_on_gpu": {"b": true}, "padding": {"s": "U0FNRQ=="}}}, {"name": "InceptionV3/InceptionV3/Mixed_6b/Branch_2/Conv2d_0b_7x1/BatchNorm/batchnorm/add_1", "op": "Add", "input": ["InceptionV3/InceptionV3/Mixed_6b/Branch_2/Conv2d_0b_7x1/BatchNorm/batchnorm/mul", "InceptionV3/InceptionV3/Mixed_6b/Branch_2/Conv2d_0b_7x1/BatchNorm/batchnorm/sub"], "attr": {"T": {"type": "DT_FLOAT"}}}, {"name": "InceptionV3/InceptionV3/Mixed_6b/Branch_1/Conv2d_0b_1x7/BatchNorm/batchnorm/add_1", "op": "Add", "input": ["InceptionV3/InceptionV3/Mixed_6b/Branch_1/Conv2d_0b_1x7/BatchNorm/batchnorm/mul", "InceptionV3/InceptionV3/Mixed_6b/Branch_1/Conv2d_0b_1x7/BatchNorm/batchnorm/sub"], "attr": {"T": {"type": "DT_FLOAT"}}}, {"name": "InceptionV3/InceptionV3/Mixed_6b/Branch_2/Conv2d_0b_7x1/Relu", "op": "Relu", "input": ["InceptionV3/InceptionV3/Mixed_6b/Branch_2/Conv2d_0b_7x1/BatchNorm/batchnorm/add_1"], "attr": {"T": {"type": "DT_FLOAT"}}}, {"name": "InceptionV3/InceptionV3/Mixed_6b/Branch_1/Conv2d_0b_1x7/Relu", "op": "Relu", "input": ["InceptionV3/InceptionV3/Mixed_6b/Branch_1/Conv2d_0b_1x7/BatchNorm/batchnorm/add_1"], "attr": {"T": {"type": "DT_FLOAT"}}}, {"name": "InceptionV3/InceptionV3/Mixed_6b/Branch_2/Conv2d_0c_1x7/BatchNorm/batchnorm/mul", "op": "Conv2D", "input": ["InceptionV3/InceptionV3/Mixed_6b/Branch_2/Conv2d_0b_7x1/Relu", "InceptionV3/InceptionV3/Mixed_6b/Branch_2/Conv2d_0c_1x7/convolution/merged_input"], "attr": {"dilations": {"list": {"i": ["1", "1", "1", "1"]}}, "T": {"type": "DT_FLOAT"}, "data_format": {"s": "TkhXQw=="}, "strides": {"list": {"i": ["1", "1", "1", "1"]}}, "use_cudnn_on_gpu": {"b": true}, "explicit_paddings": {"list": {}}, "padding": {"s": "U0FNRQ=="}}}, {"name": "InceptionV3/InceptionV3/Mixed_6b/Branch_1/Conv2d_0c_7x1/BatchNorm/batchnorm/mul", "op": "Conv2D", "input": ["InceptionV3/InceptionV3/Mixed_6b/Branch_1/Conv2d_0b_1x7/Relu", "InceptionV3/InceptionV3/Mixed_6b/Branch_1/Conv2d_0c_7x1/convolution/merged_input"], "attr": {"T": {"type": "DT_FLOAT"}, "strides": {"list": {"i": ["1", "1", "1", "1"]}}, "data_format": {"s": "TkhXQw=="}, "use_cudnn_on_gpu": {"b": true}, "explicit_paddings": {"list": {}}, "padding": {"s": "U0FNRQ=="}, "dilations": {"list": {"i": ["1", "1", "1", "1"]}}}}, {"name": "InceptionV3/InceptionV3/Mixed_6b/Branch_2/Conv2d_0c_1x7/BatchNorm/batchnorm/add_1", "op": "Add", "input": ["InceptionV3/InceptionV3/Mixed_6b/Branch_2/Conv2d_0c_1x7/BatchNorm/batchnorm/mul", "InceptionV3/InceptionV3/Mixed_6b/Branch_2/Conv2d_0c_1x7/BatchNorm/batchnorm/sub"], "attr": {"T": {"type": "DT_FLOAT"}}}, {"name": "InceptionV3/InceptionV3/Mixed_6b/Branch_1/Conv2d_0c_7x1/BatchNorm/batchnorm/add_1", "op": "Add", "input": ["InceptionV3/InceptionV3/Mixed_6b/Branch_1/Conv2d_0c_7x1/BatchNorm/batchnorm/mul", "InceptionV3/InceptionV3/Mixed_6b/Branch_1/Conv2d_0c_7x1/BatchNorm/batchnorm/sub"], "attr": {"T": {"type": "DT_FLOAT"}}}, {"name": "InceptionV3/InceptionV3/Mixed_6b/Branch_2/Conv2d_0c_1x7/Relu", "op": "Relu", "input": ["InceptionV3/InceptionV3/Mixed_6b/Branch_2/Conv2d_0c_1x7/BatchNorm/batchnorm/add_1"], "attr": {"T": {"type": "DT_FLOAT"}}}, {"name": "InceptionV3/InceptionV3/Mixed_6b/Branch_2/Conv2d_0d_7x1/BatchNorm/batchnorm/mul", "op": "Conv2D", "input": ["InceptionV3/InceptionV3/Mixed_6b/Branch_2/Conv2d_0c_1x7/Relu", "InceptionV3/InceptionV3/Mixed_6b/Branch_2/Conv2d_0d_7x1/convolution/merged_input"], "attr": {"T": {"type": "DT_FLOAT"}, "data_format": {"s": "TkhXQw=="}, "strides": {"list": {"i": ["1", "1", "1", "1"]}}, "use_cudnn_on_gpu": {"b": true}, "explicit_paddings": {"list": {}}, "padding": {"s": "U0FNRQ=="}, "dilations": {"list": {"i": ["1", "1", "1", "1"]}}}}, {"name": "InceptionV3/InceptionV3/Mixed_6b/Branch_2/Conv2d_0d_7x1/BatchNorm/batchnorm/add_1", "op": "Add", "input": ["InceptionV3/InceptionV3/Mixed_6b/Branch_2/Conv2d_0d_7x1/BatchNorm/batchnorm/mul", "InceptionV3/InceptionV3/Mixed_6b/Branch_2/Conv2d_0d_7x1/BatchNorm/batchnorm/sub"], "attr": {"T": {"type": "DT_FLOAT"}}}, {"name": "InceptionV3/InceptionV3/Mixed_6b/Branch_2/Conv2d_0d_7x1/Relu", "op": "Relu", "input": ["InceptionV3/InceptionV3/Mixed_6b/Branch_2/Conv2d_0d_7x1/BatchNorm/batchnorm/add_1"], "attr": {"T": {"type": "DT_FLOAT"}}}, {"name": "InceptionV3/InceptionV3/Mixed_6b/Branch_2/Conv2d_0e_1x7/BatchNorm/batchnorm/mul", "op": "Conv2D", "input": ["InceptionV3/InceptionV3/Mixed_6b/Branch_2/Conv2d_0d_7x1/Relu", "InceptionV3/InceptionV3/Mixed_6b/Branch_2/Conv2d_0e_1x7/convolution/merged_input"], "attr": {"dilations": {"list": {"i": ["1", "1", "1", "1"]}}, "T": {"type": "DT_FLOAT"}, "data_format": {"s": "TkhXQw=="}, "strides": {"list": {"i": ["1", "1", "1", "1"]}}, "use_cudnn_on_gpu": {"b": true}, "explicit_paddings": {"list": {}}, "padding": {"s": "U0FNRQ=="}}}, {"name": "InceptionV3/InceptionV3/Mixed_6b/Branch_2/Conv2d_0e_1x7/BatchNorm/batchnorm/add_1", "op": "Add", "input": ["InceptionV3/InceptionV3/Mixed_6b/Branch_2/Conv2d_0e_1x7/BatchNorm/batchnorm/mul", "InceptionV3/InceptionV3/Mixed_6b/Branch_2/Conv2d_0e_1x7/BatchNorm/batchnorm/sub"], "attr": {"T": {"type": "DT_FLOAT"}}}, {"name": "InceptionV3/InceptionV3/Mixed_6b/concat", "op": "Concat", "input": ["InceptionV3/InceptionV3/Mixed_7c/concat/concat_dim", "InceptionV3/InceptionV3/Mixed_6b/Branch_0/Conv2d_0a_1x1/BatchNorm/batchnorm/add_1", "InceptionV3/InceptionV3/Mixed_6b/Branch_1/Conv2d_0c_7x1/BatchNorm/batchnorm/add_1", "InceptionV3/InceptionV3/Mixed_6b/Branch_2/Conv2d_0e_1x7/BatchNorm/batchnorm/add_1", "InceptionV3/InceptionV3/Mixed_6b/Branch_3/Conv2d_0b_1x1/BatchNorm/batchnorm/add_1"], "attr": {"T": {"type": "DT_FLOAT"}, "N": {"i": "4"}}}, {"name": "InceptionV3/InceptionV3/Mixed_6b/Branch_0/Conv2d_0a_1x1/Relu", "op": "Relu", "input": ["InceptionV3/InceptionV3/Mixed_6b/concat"], "attr": {"T": {"type": "DT_FLOAT"}}}, {"name": "InceptionV3/InceptionV3/Mixed_6c/Branch_3/AvgPool_0a_3x3/AvgPool", "op": "AvgPool", "input": ["InceptionV3/InceptionV3/Mixed_6b/Branch_0/Conv2d_0a_1x1/Relu"], "attr": {"ksize": {"list": {"i": ["1", "3", "3", "1"]}}, "padding": {"s": "U0FNRQ=="}, "T": {"type": "DT_FLOAT"}, "strides": {"list": {"i": ["1", "1", "1", "1"]}}, "data_format": {"s": "TkhXQw=="}}}, {"name": "InceptionV3/InceptionV3/Mixed_6c/Branch_2/Conv2d_0a_1x1/BatchNorm/batchnorm/mul", "op": "Conv2D", "input": ["InceptionV3/InceptionV3/Mixed_6b/Branch_0/Conv2d_0a_1x1/Relu", "InceptionV3/InceptionV3/Mixed_6c/Branch_2/Conv2d_0a_1x1/convolution/merged_input"], "attr": {"dilations": {"list": {"i": ["1", "1", "1", "1"]}}, "T": {"type": "DT_FLOAT"}, "strides": {"list": {"i": ["1", "1", "1", "1"]}}, "data_format": {"s": "TkhXQw=="}, "use_cudnn_on_gpu": {"b": true}, "explicit_paddings": {"list": {}}, "padding": {"s": "U0FNRQ=="}}}, {"name": "InceptionV3/InceptionV3/Mixed_6c/Branch_1/Conv2d_0a_1x1/BatchNorm/batchnorm/mul", "op": "Conv2D", "input": ["InceptionV3/InceptionV3/Mixed_6b/Branch_0/Conv2d_0a_1x1/Relu", "InceptionV3/InceptionV3/Mixed_6c/Branch_1/Conv2d_0a_1x1/convolution/merged_input"], "attr": {"T": {"type": "DT_FLOAT"}, "data_format": {"s": "TkhXQw=="}, "strides": {"list": {"i": ["1", "1", "1", "1"]}}, "use_cudnn_on_gpu": {"b": true}, "explicit_paddings": {"list": {}}, "padding": {"s": "U0FNRQ=="}, "dilations": {"list": {"i": ["1", "1", "1", "1"]}}}}, {"name": "InceptionV3/InceptionV3/Mixed_6c/Branch_0/Conv2d_0a_1x1/BatchNorm/batchnorm/mul", "op": "Conv2D", "input": ["InceptionV3/InceptionV3/Mixed_6b/Branch_0/Conv2d_0a_1x1/Relu", "InceptionV3/InceptionV3/Mixed_6c/Branch_0/Conv2d_0a_1x1/convolution/merged_input"], "attr": {"dilations": {"list": {"i": ["1", "1", "1", "1"]}}, "T": {"type": "DT_FLOAT"}, "strides": {"list": {"i": ["1", "1", "1", "1"]}}, "data_format": {"s": "TkhXQw=="}, "use_cudnn_on_gpu": {"b": true}, "explicit_paddings": {"list": {}}, "padding": {"s": "U0FNRQ=="}}}, {"name": "InceptionV3/InceptionV3/Mixed_6c/Branch_3/Conv2d_0b_1x1/BatchNorm/batchnorm/mul", "op": "Conv2D", "input": ["InceptionV3/InceptionV3/Mixed_6c/Branch_3/AvgPool_0a_3x3/AvgPool", "InceptionV3/InceptionV3/Mixed_6c/Branch_3/Conv2d_0b_1x1/convolution/merged_input"], "attr": {"dilations": {"list": {"i": ["1", "1", "1", "1"]}}, "T": {"type": "DT_FLOAT"}, "data_format": {"s": "TkhXQw=="}, "strides": {"list": {"i": ["1", "1", "1", "1"]}}, "explicit_paddings": {"list": {}}, "use_cudnn_on_gpu": {"b": true}, "padding": {"s": "U0FNRQ=="}}}, {"name": "InceptionV3/InceptionV3/Mixed_6c/Branch_2/Conv2d_0a_1x1/BatchNorm/batchnorm/add_1", "op": "Add", "input": ["InceptionV3/InceptionV3/Mixed_6c/Branch_2/Conv2d_0a_1x1/BatchNorm/batchnorm/mul", "InceptionV3/InceptionV3/Mixed_6c/Branch_2/Conv2d_0a_1x1/BatchNorm/batchnorm/sub"], "attr": {"T": {"type": "DT_FLOAT"}}}, {"name": "InceptionV3/InceptionV3/Mixed_6c/Branch_1/Conv2d_0a_1x1/BatchNorm/batchnorm/add_1", "op": "Add", "input": ["InceptionV3/InceptionV3/Mixed_6c/Branch_1/Conv2d_0a_1x1/BatchNorm/batchnorm/mul", "InceptionV3/InceptionV3/Mixed_6c/Branch_1/Conv2d_0a_1x1/BatchNorm/batchnorm/sub"], "attr": {"T": {"type": "DT_FLOAT"}}}, {"name": "InceptionV3/InceptionV3/Mixed_6c/Branch_0/Conv2d_0a_1x1/BatchNorm/batchnorm/add_1", "op": "Add", "input": ["InceptionV3/InceptionV3/Mixed_6c/Branch_0/Conv2d_0a_1x1/BatchNorm/batchnorm/mul", "InceptionV3/InceptionV3/Mixed_6c/Branch_0/Conv2d_0a_1x1/BatchNorm/batchnorm/sub"], "attr": {"T": {"type": "DT_FLOAT"}}}, {"name": "InceptionV3/InceptionV3/Mixed_6c/Branch_3/Conv2d_0b_1x1/BatchNorm/batchnorm/add_1", "op": "Add", "input": ["InceptionV3/InceptionV3/Mixed_6c/Branch_3/Conv2d_0b_1x1/BatchNorm/batchnorm/mul", "InceptionV3/InceptionV3/Mixed_6c/Branch_3/Conv2d_0b_1x1/BatchNorm/batchnorm/sub"], "attr": {"T": {"type": "DT_FLOAT"}}}, {"name": "InceptionV3/InceptionV3/Mixed_6c/Branch_2/Conv2d_0a_1x1/Relu", "op": "Relu", "input": ["InceptionV3/InceptionV3/Mixed_6c/Branch_2/Conv2d_0a_1x1/BatchNorm/batchnorm/add_1"], "attr": {"T": {"type": "DT_FLOAT"}}}, {"name": "InceptionV3/InceptionV3/Mixed_6c/Branch_1/Conv2d_0a_1x1/Relu", "op": "Relu", "input": ["InceptionV3/InceptionV3/Mixed_6c/Branch_1/Conv2d_0a_1x1/BatchNorm/batchnorm/add_1"], "attr": {"T": {"type": "DT_FLOAT"}}}, {"name": "InceptionV3/InceptionV3/Mixed_6c/Branch_2/Conv2d_0b_7x1/BatchNorm/batchnorm/mul", "op": "Conv2D", "input": ["InceptionV3/InceptionV3/Mixed_6c/Branch_2/Conv2d_0a_1x1/Relu", "InceptionV3/InceptionV3/Mixed_6c/Branch_2/Conv2d_0b_7x1/convolution/merged_input"], "attr": {"T": {"type": "DT_FLOAT"}, "strides": {"list": {"i": ["1", "1", "1", "1"]}}, "data_format": {"s": "TkhXQw=="}, "explicit_paddings": {"list": {}}, "use_cudnn_on_gpu": {"b": true}, "padding": {"s": "U0FNRQ=="}, "dilations": {"list": {"i": ["1", "1", "1", "1"]}}}}, {"name": "InceptionV3/InceptionV3/Mixed_6c/Branch_1/Conv2d_0b_1x7/BatchNorm/batchnorm/mul", "op": "Conv2D", "input": ["InceptionV3/InceptionV3/Mixed_6c/Branch_1/Conv2d_0a_1x1/Relu", "InceptionV3/InceptionV3/Mixed_6c/Branch_1/Conv2d_0b_1x7/convolution/merged_input"], "attr": {"dilations": {"list": {"i": ["1", "1", "1", "1"]}}, "T": {"type": "DT_FLOAT"}, "data_format": {"s": "TkhXQw=="}, "strides": {"list": {"i": ["1", "1", "1", "1"]}}, "explicit_paddings": {"list": {}}, "use_cudnn_on_gpu": {"b": true}, "padding": {"s": "U0FNRQ=="}}}, {"name": "InceptionV3/InceptionV3/Mixed_6c/Branch_2/Conv2d_0b_7x1/BatchNorm/batchnorm/add_1", "op": "Add", "input": ["InceptionV3/InceptionV3/Mixed_6c/Branch_2/Conv2d_0b_7x1/BatchNorm/batchnorm/mul", "InceptionV3/InceptionV3/Mixed_6c/Branch_2/Conv2d_0b_7x1/BatchNorm/batchnorm/sub"], "attr": {"T": {"type": "DT_FLOAT"}}}, {"name": "InceptionV3/InceptionV3/Mixed_6c/Branch_1/Conv2d_0b_1x7/BatchNorm/batchnorm/add_1", "op": "Add", "input": ["InceptionV3/InceptionV3/Mixed_6c/Branch_1/Conv2d_0b_1x7/BatchNorm/batchnorm/mul", "InceptionV3/InceptionV3/Mixed_6c/Branch_1/Conv2d_0b_1x7/BatchNorm/batchnorm/sub"], "attr": {"T": {"type": "DT_FLOAT"}}}, {"name": "InceptionV3/InceptionV3/Mixed_6c/Branch_2/Conv2d_0b_7x1/Relu", "op": "Relu", "input": ["InceptionV3/InceptionV3/Mixed_6c/Branch_2/Conv2d_0b_7x1/BatchNorm/batchnorm/add_1"], "attr": {"T": {"type": "DT_FLOAT"}}}, {"name": "InceptionV3/InceptionV3/Mixed_6c/Branch_1/Conv2d_0b_1x7/Relu", "op": "Relu", "input": ["InceptionV3/InceptionV3/Mixed_6c/Branch_1/Conv2d_0b_1x7/BatchNorm/batchnorm/add_1"], "attr": {"T": {"type": "DT_FLOAT"}}}, {"name": "InceptionV3/InceptionV3/Mixed_6c/Branch_2/Conv2d_0c_1x7/BatchNorm/batchnorm/mul", "op": "Conv2D", "input": ["InceptionV3/InceptionV3/Mixed_6c/Branch_2/Conv2d_0b_7x1/Relu", "InceptionV3/InceptionV3/Mixed_6c/Branch_2/Conv2d_0c_1x7/convolution/merged_input"], "attr": {"dilations": {"list": {"i": ["1", "1", "1", "1"]}}, "T": {"type": "DT_FLOAT"}, "strides": {"list": {"i": ["1", "1", "1", "1"]}}, "data_format": {"s": "TkhXQw=="}, "use_cudnn_on_gpu": {"b": true}, "explicit_paddings": {"list": {}}, "padding": {"s": "U0FNRQ=="}}}, {"name": "InceptionV3/InceptionV3/Mixed_6c/Branch_1/Conv2d_0c_7x1/BatchNorm/batchnorm/mul", "op": "Conv2D", "input": ["InceptionV3/InceptionV3/Mixed_6c/Branch_1/Conv2d_0b_1x7/Relu", "InceptionV3/InceptionV3/Mixed_6c/Branch_1/Conv2d_0c_7x1/convolution/merged_input"], "attr": {"padding": {"s": "U0FNRQ=="}, "dilations": {"list": {"i": ["1", "1", "1", "1"]}}, "T": {"type": "DT_FLOAT"}, "strides": {"list": {"i": ["1", "1", "1", "1"]}}, "data_format": {"s": "TkhXQw=="}, "explicit_paddings": {"list": {}}, "use_cudnn_on_gpu": {"b": true}}}, {"name": "InceptionV3/InceptionV3/Mixed_6c/Branch_2/Conv2d_0c_1x7/BatchNorm/batchnorm/add_1", "op": "Add", "input": ["InceptionV3/InceptionV3/Mixed_6c/Branch_2/Conv2d_0c_1x7/BatchNorm/batchnorm/mul", "InceptionV3/InceptionV3/Mixed_6c/Branch_2/Conv2d_0c_1x7/BatchNorm/batchnorm/sub"], "attr": {"T": {"type": "DT_FLOAT"}}}, {"name": "InceptionV3/InceptionV3/Mixed_6c/Branch_1/Conv2d_0c_7x1/BatchNorm/batchnorm/add_1", "op": "Add", "input": ["InceptionV3/InceptionV3/Mixed_6c/Branch_1/Conv2d_0c_7x1/BatchNorm/batchnorm/mul", "InceptionV3/InceptionV3/Mixed_6c/Branch_1/Conv2d_0c_7x1/BatchNorm/batchnorm/sub"], "attr": {"T": {"type": "DT_FLOAT"}}}, {"name": "InceptionV3/InceptionV3/Mixed_6c/Branch_2/Conv2d_0c_1x7/Relu", "op": "Relu", "input": ["InceptionV3/InceptionV3/Mixed_6c/Branch_2/Conv2d_0c_1x7/BatchNorm/batchnorm/add_1"], "attr": {"T": {"type": "DT_FLOAT"}}}, {"name": "InceptionV3/InceptionV3/Mixed_6c/Branch_2/Conv2d_0d_7x1/BatchNorm/batchnorm/mul", "op": "Conv2D", "input": ["InceptionV3/InceptionV3/Mixed_6c/Branch_2/Conv2d_0c_1x7/Relu", "InceptionV3/InceptionV3/Mixed_6c/Branch_2/Conv2d_0d_7x1/convolution/merged_input"], "attr": {"dilations": {"list": {"i": ["1", "1", "1", "1"]}}, "T": {"type": "DT_FLOAT"}, "data_format": {"s": "TkhXQw=="}, "strides": {"list": {"i": ["1", "1", "1", "1"]}}, "explicit_paddings": {"list": {}}, "use_cudnn_on_gpu": {"b": true}, "padding": {"s": "U0FNRQ=="}}}, {"name": "InceptionV3/InceptionV3/Mixed_6c/Branch_2/Conv2d_0d_7x1/BatchNorm/batchnorm/add_1", "op": "Add", "input": ["InceptionV3/InceptionV3/Mixed_6c/Branch_2/Conv2d_0d_7x1/BatchNorm/batchnorm/mul", "InceptionV3/InceptionV3/Mixed_6c/Branch_2/Conv2d_0d_7x1/BatchNorm/batchnorm/sub"], "attr": {"T": {"type": "DT_FLOAT"}}}, {"name": "InceptionV3/InceptionV3/Mixed_6c/Branch_2/Conv2d_0d_7x1/Relu", "op": "Relu", "input": ["InceptionV3/InceptionV3/Mixed_6c/Branch_2/Conv2d_0d_7x1/BatchNorm/batchnorm/add_1"], "attr": {"T": {"type": "DT_FLOAT"}}}, {"name": "InceptionV3/InceptionV3/Mixed_6c/Branch_2/Conv2d_0e_1x7/BatchNorm/batchnorm/mul", "op": "Conv2D", "input": ["InceptionV3/InceptionV3/Mixed_6c/Branch_2/Conv2d_0d_7x1/Relu", "InceptionV3/InceptionV3/Mixed_6c/Branch_2/Conv2d_0e_1x7/convolution/merged_input"], "attr": {"padding": {"s": "U0FNRQ=="}, "dilations": {"list": {"i": ["1", "1", "1", "1"]}}, "T": {"type": "DT_FLOAT"}, "strides": {"list": {"i": ["1", "1", "1", "1"]}}, "data_format": {"s": "TkhXQw=="}, "use_cudnn_on_gpu": {"b": true}, "explicit_paddings": {"list": {}}}}, {"name": "InceptionV3/InceptionV3/Mixed_6c/Branch_2/Conv2d_0e_1x7/BatchNorm/batchnorm/add_1", "op": "Add", "input": ["InceptionV3/InceptionV3/Mixed_6c/Branch_2/Conv2d_0e_1x7/BatchNorm/batchnorm/mul", "InceptionV3/InceptionV3/Mixed_6c/Branch_2/Conv2d_0e_1x7/BatchNorm/batchnorm/sub"], "attr": {"T": {"type": "DT_FLOAT"}}}, {"name": "InceptionV3/InceptionV3/Mixed_6c/concat", "op": "Concat", "input": ["InceptionV3/InceptionV3/Mixed_7c/concat/concat_dim", "InceptionV3/InceptionV3/Mixed_6c/Branch_0/Conv2d_0a_1x1/BatchNorm/batchnorm/add_1", "InceptionV3/InceptionV3/Mixed_6c/Branch_1/Conv2d_0c_7x1/BatchNorm/batchnorm/add_1", "InceptionV3/InceptionV3/Mixed_6c/Branch_2/Conv2d_0e_1x7/BatchNorm/batchnorm/add_1", "InceptionV3/InceptionV3/Mixed_6c/Branch_3/Conv2d_0b_1x1/BatchNorm/batchnorm/add_1"], "attr": {"T": {"type": "DT_FLOAT"}, "N": {"i": "4"}}}, {"name": "InceptionV3/InceptionV3/Mixed_6c/Branch_0/Conv2d_0a_1x1/Relu", "op": "Relu", "input": ["InceptionV3/InceptionV3/Mixed_6c/concat"], "attr": {"T": {"type": "DT_FLOAT"}}}, {"name": "InceptionV3/InceptionV3/Mixed_6d/Branch_3/AvgPool_0a_3x3/AvgPool", "op": "AvgPool", "input": ["InceptionV3/InceptionV3/Mixed_6c/Branch_0/Conv2d_0a_1x1/Relu"], "attr": {"ksize": {"list": {"i": ["1", "3", "3", "1"]}}, "padding": {"s": "U0FNRQ=="}, "T": {"type": "DT_FLOAT"}, "data_format": {"s": "TkhXQw=="}, "strides": {"list": {"i": ["1", "1", "1", "1"]}}}}, {"name": "InceptionV3/InceptionV3/Mixed_6d/Branch_2/Conv2d_0a_1x1/BatchNorm/batchnorm/mul", "op": "Conv2D", "input": ["InceptionV3/InceptionV3/Mixed_6c/Branch_0/Conv2d_0a_1x1/Relu", "InceptionV3/InceptionV3/Mixed_6d/Branch_2/Conv2d_0a_1x1/convolution/merged_input"], "attr": {"dilations": {"list": {"i": ["1", "1", "1", "1"]}}, "T": {"type": "DT_FLOAT"}, "strides": {"list": {"i": ["1", "1", "1", "1"]}}, "data_format": {"s": "TkhXQw=="}, "use_cudnn_on_gpu": {"b": true}, "explicit_paddings": {"list": {}}, "padding": {"s": "U0FNRQ=="}}}, {"name": "InceptionV3/InceptionV3/Mixed_6d/Branch_1/Conv2d_0a_1x1/BatchNorm/batchnorm/mul", "op": "Conv2D", "input": ["InceptionV3/InceptionV3/Mixed_6c/Branch_0/Conv2d_0a_1x1/Relu", "InceptionV3/InceptionV3/Mixed_6d/Branch_1/Conv2d_0a_1x1/convolution/merged_input"], "attr": {"dilations": {"list": {"i": ["1", "1", "1", "1"]}}, "T": {"type": "DT_FLOAT"}, "data_format": {"s": "TkhXQw=="}, "strides": {"list": {"i": ["1", "1", "1", "1"]}}, "use_cudnn_on_gpu": {"b": true}, "explicit_paddings": {"list": {}}, "padding": {"s": "U0FNRQ=="}}}, {"name": "InceptionV3/InceptionV3/Mixed_6d/Branch_0/Conv2d_0a_1x1/BatchNorm/batchnorm/mul", "op": "Conv2D", "input": ["InceptionV3/InceptionV3/Mixed_6c/Branch_0/Conv2d_0a_1x1/Relu", "InceptionV3/InceptionV3/Mixed_6d/Branch_0/Conv2d_0a_1x1/convolution/merged_input"], "attr": {"dilations": {"list": {"i": ["1", "1", "1", "1"]}}, "T": {"type": "DT_FLOAT"}, "data_format": {"s": "TkhXQw=="}, "strides": {"list": {"i": ["1", "1", "1", "1"]}}, "explicit_paddings": {"list": {}}, "use_cudnn_on_gpu": {"b": true}, "padding": {"s": "U0FNRQ=="}}}, {"name": "InceptionV3/InceptionV3/Mixed_6d/Branch_3/Conv2d_0b_1x1/BatchNorm/batchnorm/mul", "op": "Conv2D", "input": ["InceptionV3/InceptionV3/Mixed_6d/Branch_3/AvgPool_0a_3x3/AvgPool", "InceptionV3/InceptionV3/Mixed_6d/Branch_3/Conv2d_0b_1x1/convolution/merged_input"], "attr": {"T": {"type": "DT_FLOAT"}, "strides": {"list": {"i": ["1", "1", "1", "1"]}}, "data_format": {"s": "TkhXQw=="}, "use_cudnn_on_gpu": {"b": true}, "explicit_paddings": {"list": {}}, "padding": {"s": "U0FNRQ=="}, "dilations": {"list": {"i": ["1", "1", "1", "1"]}}}}, {"name": "InceptionV3/InceptionV3/Mixed_6d/Branch_2/Conv2d_0a_1x1/BatchNorm/batchnorm/add_1", "op": "Add", "input": ["InceptionV3/InceptionV3/Mixed_6d/Branch_2/Conv2d_0a_1x1/BatchNorm/batchnorm/mul", "InceptionV3/InceptionV3/Mixed_6d/Branch_2/Conv2d_0a_1x1/BatchNorm/batchnorm/sub"], "attr": {"T": {"type": "DT_FLOAT"}}}, {"name": "InceptionV3/InceptionV3/Mixed_6d/Branch_1/Conv2d_0a_1x1/BatchNorm/batchnorm/add_1", "op": "Add", "input": ["InceptionV3/InceptionV3/Mixed_6d/Branch_1/Conv2d_0a_1x1/BatchNorm/batchnorm/mul", "InceptionV3/InceptionV3/Mixed_6d/Branch_1/Conv2d_0a_1x1/BatchNorm/batchnorm/sub"], "attr": {"T": {"type": "DT_FLOAT"}}}, {"name": "InceptionV3/InceptionV3/Mixed_6d/Branch_0/Conv2d_0a_1x1/BatchNorm/batchnorm/add_1", "op": "Add", "input": ["InceptionV3/InceptionV3/Mixed_6d/Branch_0/Conv2d_0a_1x1/BatchNorm/batchnorm/mul", "InceptionV3/InceptionV3/Mixed_6d/Branch_0/Conv2d_0a_1x1/BatchNorm/batchnorm/sub"], "attr": {"T": {"type": "DT_FLOAT"}}}, {"name": "InceptionV3/InceptionV3/Mixed_6d/Branch_3/Conv2d_0b_1x1/BatchNorm/batchnorm/add_1", "op": "Add", "input": ["InceptionV3/InceptionV3/Mixed_6d/Branch_3/Conv2d_0b_1x1/BatchNorm/batchnorm/mul", "InceptionV3/InceptionV3/Mixed_6d/Branch_3/Conv2d_0b_1x1/BatchNorm/batchnorm/sub"], "attr": {"T": {"type": "DT_FLOAT"}}}, {"name": "InceptionV3/InceptionV3/Mixed_6d/Branch_2/Conv2d_0a_1x1/Relu", "op": "Relu", "input": ["InceptionV3/InceptionV3/Mixed_6d/Branch_2/Conv2d_0a_1x1/BatchNorm/batchnorm/add_1"], "attr": {"T": {"type": "DT_FLOAT"}}}, {"name": "InceptionV3/InceptionV3/Mixed_6d/Branch_1/Conv2d_0a_1x1/Relu", "op": "Relu", "input": ["InceptionV3/InceptionV3/Mixed_6d/Branch_1/Conv2d_0a_1x1/BatchNorm/batchnorm/add_1"], "attr": {"T": {"type": "DT_FLOAT"}}}, {"name": "InceptionV3/InceptionV3/Mixed_6d/Branch_2/Conv2d_0b_7x1/BatchNorm/batchnorm/mul", "op": "Conv2D", "input": ["InceptionV3/InceptionV3/Mixed_6d/Branch_2/Conv2d_0a_1x1/Relu", "InceptionV3/InceptionV3/Mixed_6d/Branch_2/Conv2d_0b_7x1/convolution/merged_input"], "attr": {"T": {"type": "DT_FLOAT"}, "strides": {"list": {"i": ["1", "1", "1", "1"]}}, "data_format": {"s": "TkhXQw=="}, "use_cudnn_on_gpu": {"b": true}, "explicit_paddings": {"list": {}}, "padding": {"s": "U0FNRQ=="}, "dilations": {"list": {"i": ["1", "1", "1", "1"]}}}}, {"name": "InceptionV3/InceptionV3/Mixed_6d/Branch_1/Conv2d_0b_1x7/BatchNorm/batchnorm/mul", "op": "Conv2D", "input": ["InceptionV3/InceptionV3/Mixed_6d/Branch_1/Conv2d_0a_1x1/Relu", "InceptionV3/InceptionV3/Mixed_6d/Branch_1/Conv2d_0b_1x7/convolution/merged_input"], "attr": {"T": {"type": "DT_FLOAT"}, "data_format": {"s": "TkhXQw=="}, "strides": {"list": {"i": ["1", "1", "1", "1"]}}, "use_cudnn_on_gpu": {"b": true}, "explicit_paddings": {"list": {}}, "padding": {"s": "U0FNRQ=="}, "dilations": {"list": {"i": ["1", "1", "1", "1"]}}}}, {"name": "InceptionV3/InceptionV3/Mixed_6d/Branch_2/Conv2d_0b_7x1/BatchNorm/batchnorm/add_1", "op": "Add", "input": ["InceptionV3/InceptionV3/Mixed_6d/Branch_2/Conv2d_0b_7x1/BatchNorm/batchnorm/mul", "InceptionV3/InceptionV3/Mixed_6d/Branch_2/Conv2d_0b_7x1/BatchNorm/batchnorm/sub"], "attr": {"T": {"type": "DT_FLOAT"}}}, {"name": "InceptionV3/InceptionV3/Mixed_6d/Branch_1/Conv2d_0b_1x7/BatchNorm/batchnorm/add_1", "op": "Add", "input": ["InceptionV3/InceptionV3/Mixed_6d/Branch_1/Conv2d_0b_1x7/BatchNorm/batchnorm/mul", "InceptionV3/InceptionV3/Mixed_6d/Branch_1/Conv2d_0b_1x7/BatchNorm/batchnorm/sub"], "attr": {"T": {"type": "DT_FLOAT"}}}, {"name": "InceptionV3/InceptionV3/Mixed_6d/Branch_2/Conv2d_0b_7x1/Relu", "op": "Relu", "input": ["InceptionV3/InceptionV3/Mixed_6d/Branch_2/Conv2d_0b_7x1/BatchNorm/batchnorm/add_1"], "attr": {"T": {"type": "DT_FLOAT"}}}, {"name": "InceptionV3/InceptionV3/Mixed_6d/Branch_1/Conv2d_0b_1x7/Relu", "op": "Relu", "input": ["InceptionV3/InceptionV3/Mixed_6d/Branch_1/Conv2d_0b_1x7/BatchNorm/batchnorm/add_1"], "attr": {"T": {"type": "DT_FLOAT"}}}, {"name": "InceptionV3/InceptionV3/Mixed_6d/Branch_2/Conv2d_0c_1x7/BatchNorm/batchnorm/mul", "op": "Conv2D", "input": ["InceptionV3/InceptionV3/Mixed_6d/Branch_2/Conv2d_0b_7x1/Relu", "InceptionV3/InceptionV3/Mixed_6d/Branch_2/Conv2d_0c_1x7/convolution/merged_input"], "attr": {"padding": {"s": "U0FNRQ=="}, "dilations": {"list": {"i": ["1", "1", "1", "1"]}}, "T": {"type": "DT_FLOAT"}, "strides": {"list": {"i": ["1", "1", "1", "1"]}}, "data_format": {"s": "TkhXQw=="}, "explicit_paddings": {"list": {}}, "use_cudnn_on_gpu": {"b": true}}}, {"name": "InceptionV3/InceptionV3/Mixed_6d/Branch_1/Conv2d_0c_7x1/BatchNorm/batchnorm/mul", "op": "Conv2D", "input": ["InceptionV3/InceptionV3/Mixed_6d/Branch_1/Conv2d_0b_1x7/Relu", "InceptionV3/InceptionV3/Mixed_6d/Branch_1/Conv2d_0c_7x1/convolution/merged_input"], "attr": {"dilations": {"list": {"i": ["1", "1", "1", "1"]}}, "T": {"type": "DT_FLOAT"}, "data_format": {"s": "TkhXQw=="}, "strides": {"list": {"i": ["1", "1", "1", "1"]}}, "explicit_paddings": {"list": {}}, "use_cudnn_on_gpu": {"b": true}, "padding": {"s": "U0FNRQ=="}}}, {"name": "InceptionV3/InceptionV3/Mixed_6d/Branch_2/Conv2d_0c_1x7/BatchNorm/batchnorm/add_1", "op": "Add", "input": ["InceptionV3/InceptionV3/Mixed_6d/Branch_2/Conv2d_0c_1x7/BatchNorm/batchnorm/mul", "InceptionV3/InceptionV3/Mixed_6d/Branch_2/Conv2d_0c_1x7/BatchNorm/batchnorm/sub"], "attr": {"T": {"type": "DT_FLOAT"}}}, {"name": "InceptionV3/InceptionV3/Mixed_6d/Branch_1/Conv2d_0c_7x1/BatchNorm/batchnorm/add_1", "op": "Add", "input": ["InceptionV3/InceptionV3/Mixed_6d/Branch_1/Conv2d_0c_7x1/BatchNorm/batchnorm/mul", "InceptionV3/InceptionV3/Mixed_6d/Branch_1/Conv2d_0c_7x1/BatchNorm/batchnorm/sub"], "attr": {"T": {"type": "DT_FLOAT"}}}, {"name": "InceptionV3/InceptionV3/Mixed_6d/Branch_2/Conv2d_0c_1x7/Relu", "op": "Relu", "input": ["InceptionV3/InceptionV3/Mixed_6d/Branch_2/Conv2d_0c_1x7/BatchNorm/batchnorm/add_1"], "attr": {"T": {"type": "DT_FLOAT"}}}, {"name": "InceptionV3/InceptionV3/Mixed_6d/Branch_2/Conv2d_0d_7x1/BatchNorm/batchnorm/mul", "op": "Conv2D", "input": ["InceptionV3/InceptionV3/Mixed_6d/Branch_2/Conv2d_0c_1x7/Relu", "InceptionV3/InceptionV3/Mixed_6d/Branch_2/Conv2d_0d_7x1/convolution/merged_input"], "attr": {"padding": {"s": "U0FNRQ=="}, "dilations": {"list": {"i": ["1", "1", "1", "1"]}}, "T": {"type": "DT_FLOAT"}, "strides": {"list": {"i": ["1", "1", "1", "1"]}}, "data_format": {"s": "TkhXQw=="}, "explicit_paddings": {"list": {}}, "use_cudnn_on_gpu": {"b": true}}}, {"name": "InceptionV3/InceptionV3/Mixed_6d/Branch_2/Conv2d_0d_7x1/BatchNorm/batchnorm/add_1", "op": "Add", "input": ["InceptionV3/InceptionV3/Mixed_6d/Branch_2/Conv2d_0d_7x1/BatchNorm/batchnorm/mul", "InceptionV3/InceptionV3/Mixed_6d/Branch_2/Conv2d_0d_7x1/BatchNorm/batchnorm/sub"], "attr": {"T": {"type": "DT_FLOAT"}}}, {"name": "InceptionV3/InceptionV3/Mixed_6d/Branch_2/Conv2d_0d_7x1/Relu", "op": "Relu", "input": ["InceptionV3/InceptionV3/Mixed_6d/Branch_2/Conv2d_0d_7x1/BatchNorm/batchnorm/add_1"], "attr": {"T": {"type": "DT_FLOAT"}}}, {"name": "InceptionV3/InceptionV3/Mixed_6d/Branch_2/Conv2d_0e_1x7/BatchNorm/batchnorm/mul", "op": "Conv2D", "input": ["InceptionV3/InceptionV3/Mixed_6d/Branch_2/Conv2d_0d_7x1/Relu", "InceptionV3/InceptionV3/Mixed_6d/Branch_2/Conv2d_0e_1x7/convolution/merged_input"], "attr": {"T": {"type": "DT_FLOAT"}, "strides": {"list": {"i": ["1", "1", "1", "1"]}}, "data_format": {"s": "TkhXQw=="}, "use_cudnn_on_gpu": {"b": true}, "explicit_paddings": {"list": {}}, "padding": {"s": "U0FNRQ=="}, "dilations": {"list": {"i": ["1", "1", "1", "1"]}}}}, {"name": "InceptionV3/InceptionV3/Mixed_6d/Branch_2/Conv2d_0e_1x7/BatchNorm/batchnorm/add_1", "op": "Add", "input": ["InceptionV3/InceptionV3/Mixed_6d/Branch_2/Conv2d_0e_1x7/BatchNorm/batchnorm/mul", "InceptionV3/InceptionV3/Mixed_6d/Branch_2/Conv2d_0e_1x7/BatchNorm/batchnorm/sub"], "attr": {"T": {"type": "DT_FLOAT"}}}, {"name": "InceptionV3/InceptionV3/Mixed_6d/concat", "op": "Concat", "input": ["InceptionV3/InceptionV3/Mixed_7c/concat/concat_dim", "InceptionV3/InceptionV3/Mixed_6d/Branch_0/Conv2d_0a_1x1/BatchNorm/batchnorm/add_1", "InceptionV3/InceptionV3/Mixed_6d/Branch_1/Conv2d_0c_7x1/BatchNorm/batchnorm/add_1", "InceptionV3/InceptionV3/Mixed_6d/Branch_2/Conv2d_0e_1x7/BatchNorm/batchnorm/add_1", "InceptionV3/InceptionV3/Mixed_6d/Branch_3/Conv2d_0b_1x1/BatchNorm/batchnorm/add_1"], "attr": {"T": {"type": "DT_FLOAT"}, "N": {"i": "4"}}}, {"name": "InceptionV3/InceptionV3/Mixed_6d/Branch_0/Conv2d_0a_1x1/Relu", "op": "Relu", "input": ["InceptionV3/InceptionV3/Mixed_6d/concat"], "attr": {"T": {"type": "DT_FLOAT"}}}, {"name": "InceptionV3/InceptionV3/Mixed_6e/Branch_3/AvgPool_0a_3x3/AvgPool", "op": "AvgPool", "input": ["InceptionV3/InceptionV3/Mixed_6d/Branch_0/Conv2d_0a_1x1/Relu"], "attr": {"ksize": {"list": {"i": ["1", "3", "3", "1"]}}, "padding": {"s": "U0FNRQ=="}, "T": {"type": "DT_FLOAT"}, "data_format": {"s": "TkhXQw=="}, "strides": {"list": {"i": ["1", "1", "1", "1"]}}}}, {"name": "InceptionV3/InceptionV3/Mixed_6e/Branch_2/Conv2d_0a_1x1/BatchNorm/batchnorm/mul", "op": "Conv2D", "input": ["InceptionV3/InceptionV3/Mixed_6d/Branch_0/Conv2d_0a_1x1/Relu", "InceptionV3/InceptionV3/Mixed_6e/Branch_2/Conv2d_0a_1x1/convolution/merged_input"], "attr": {"padding": {"s": "U0FNRQ=="}, "dilations": {"list": {"i": ["1", "1", "1", "1"]}}, "T": {"type": "DT_FLOAT"}, "data_format": {"s": "TkhXQw=="}, "strides": {"list": {"i": ["1", "1", "1", "1"]}}, "use_cudnn_on_gpu": {"b": true}, "explicit_paddings": {"list": {}}}}, {"name": "InceptionV3/InceptionV3/Mixed_6e/Branch_1/Conv2d_0a_1x1/BatchNorm/batchnorm/mul", "op": "Conv2D", "input": ["InceptionV3/InceptionV3/Mixed_6d/Branch_0/Conv2d_0a_1x1/Relu", "InceptionV3/InceptionV3/Mixed_6e/Branch_1/Conv2d_0a_1x1/convolution/merged_input"], "attr": {"dilations": {"list": {"i": ["1", "1", "1", "1"]}}, "T": {"type": "DT_FLOAT"}, "strides": {"list": {"i": ["1", "1", "1", "1"]}}, "data_format": {"s": "TkhXQw=="}, "explicit_paddings": {"list": {}}, "use_cudnn_on_gpu": {"b": true}, "padding": {"s": "U0FNRQ=="}}}, {"name": "InceptionV3/InceptionV3/Mixed_6e/Branch_0/Conv2d_0a_1x1/BatchNorm/batchnorm/mul", "op": "Conv2D", "input": ["InceptionV3/InceptionV3/Mixed_6d/Branch_0/Conv2d_0a_1x1/Relu", "InceptionV3/InceptionV3/Mixed_6e/Branch_0/Conv2d_0a_1x1/convolution/merged_input"], "attr": {"dilations": {"list": {"i": ["1", "1", "1", "1"]}}, "T": {"type": "DT_FLOAT"}, "strides": {"list": {"i": ["1", "1", "1", "1"]}}, "data_format": {"s": "TkhXQw=="}, "use_cudnn_on_gpu": {"b": true}, "explicit_paddings": {"list": {}}, "padding": {"s": "U0FNRQ=="}}}, {"name": "InceptionV3/InceptionV3/Mixed_6e/Branch_3/Conv2d_0b_1x1/BatchNorm/batchnorm/mul", "op": "Conv2D", "input": ["InceptionV3/InceptionV3/Mixed_6e/Branch_3/AvgPool_0a_3x3/AvgPool", "InceptionV3/InceptionV3/Mixed_6e/Branch_3/Conv2d_0b_1x1/convolution/merged_input"], "attr": {"T": {"type": "DT_FLOAT"}, "strides": {"list": {"i": ["1", "1", "1", "1"]}}, "data_format": {"s": "TkhXQw=="}, "use_cudnn_on_gpu": {"b": true}, "explicit_paddings": {"list": {}}, "padding": {"s": "U0FNRQ=="}, "dilations": {"list": {"i": ["1", "1", "1", "1"]}}}}, {"name": "InceptionV3/InceptionV3/Mixed_6e/Branch_2/Conv2d_0a_1x1/BatchNorm/batchnorm/add_1", "op": "Add", "input": ["InceptionV3/InceptionV3/Mixed_6e/Branch_2/Conv2d_0a_1x1/BatchNorm/batchnorm/mul", "InceptionV3/InceptionV3/Mixed_6e/Branch_2/Conv2d_0a_1x1/BatchNorm/batchnorm/sub"], "attr": {"T": {"type": "DT_FLOAT"}}}, {"name": "InceptionV3/InceptionV3/Mixed_6e/Branch_1/Conv2d_0a_1x1/BatchNorm/batchnorm/add_1", "op": "Add", "input": ["InceptionV3/InceptionV3/Mixed_6e/Branch_1/Conv2d_0a_1x1/BatchNorm/batchnorm/mul", "InceptionV3/InceptionV3/Mixed_6e/Branch_1/Conv2d_0a_1x1/BatchNorm/batchnorm/sub"], "attr": {"T": {"type": "DT_FLOAT"}}}, {"name": "InceptionV3/InceptionV3/Mixed_6e/Branch_0/Conv2d_0a_1x1/BatchNorm/batchnorm/add_1", "op": "Add", "input": ["InceptionV3/InceptionV3/Mixed_6e/Branch_0/Conv2d_0a_1x1/BatchNorm/batchnorm/mul", "InceptionV3/InceptionV3/Mixed_6e/Branch_0/Conv2d_0a_1x1/BatchNorm/batchnorm/sub"], "attr": {"T": {"type": "DT_FLOAT"}}}, {"name": "InceptionV3/InceptionV3/Mixed_6e/Branch_3/Conv2d_0b_1x1/BatchNorm/batchnorm/add_1", "op": "Add", "input": ["InceptionV3/InceptionV3/Mixed_6e/Branch_3/Conv2d_0b_1x1/BatchNorm/batchnorm/mul", "InceptionV3/InceptionV3/Mixed_6e/Branch_3/Conv2d_0b_1x1/BatchNorm/batchnorm/sub"], "attr": {"T": {"type": "DT_FLOAT"}}}, {"name": "InceptionV3/InceptionV3/Mixed_6e/Branch_2/Conv2d_0a_1x1/Relu", "op": "Relu", "input": ["InceptionV3/InceptionV3/Mixed_6e/Branch_2/Conv2d_0a_1x1/BatchNorm/batchnorm/add_1"], "attr": {"T": {"type": "DT_FLOAT"}}}, {"name": "InceptionV3/InceptionV3/Mixed_6e/Branch_1/Conv2d_0a_1x1/Relu", "op": "Relu", "input": ["InceptionV3/InceptionV3/Mixed_6e/Branch_1/Conv2d_0a_1x1/BatchNorm/batchnorm/add_1"], "attr": {"T": {"type": "DT_FLOAT"}}}, {"name": "InceptionV3/InceptionV3/Mixed_6e/Branch_2/Conv2d_0b_7x1/BatchNorm/batchnorm/mul", "op": "Conv2D", "input": ["InceptionV3/InceptionV3/Mixed_6e/Branch_2/Conv2d_0a_1x1/Relu", "InceptionV3/InceptionV3/Mixed_6e/Branch_2/Conv2d_0b_7x1/convolution/merged_input"], "attr": {"dilations": {"list": {"i": ["1", "1", "1", "1"]}}, "T": {"type": "DT_FLOAT"}, "data_format": {"s": "TkhXQw=="}, "strides": {"list": {"i": ["1", "1", "1", "1"]}}, "use_cudnn_on_gpu": {"b": true}, "explicit_paddings": {"list": {}}, "padding": {"s": "U0FNRQ=="}}}, {"name": "InceptionV3/InceptionV3/Mixed_6e/Branch_1/Conv2d_0b_1x7/BatchNorm/batchnorm/mul", "op": "Conv2D", "input": ["InceptionV3/InceptionV3/Mixed_6e/Branch_1/Conv2d_0a_1x1/Relu", "InceptionV3/InceptionV3/Mixed_6e/Branch_1/Conv2d_0b_1x7/convolution/merged_input"], "attr": {"dilations": {"list": {"i": ["1", "1", "1", "1"]}}, "T": {"type": "DT_FLOAT"}, "data_format": {"s": "TkhXQw=="}, "strides": {"list": {"i": ["1", "1", "1", "1"]}}, "explicit_paddings": {"list": {}}, "use_cudnn_on_gpu": {"b": true}, "padding": {"s": "U0FNRQ=="}}}, {"name": "InceptionV3/InceptionV3/Mixed_6e/Branch_2/Conv2d_0b_7x1/BatchNorm/batchnorm/add_1", "op": "Add", "input": ["InceptionV3/InceptionV3/Mixed_6e/Branch_2/Conv2d_0b_7x1/BatchNorm/batchnorm/mul", "InceptionV3/InceptionV3/Mixed_6e/Branch_2/Conv2d_0b_7x1/BatchNorm/batchnorm/sub"], "attr": {"T": {"type": "DT_FLOAT"}}}, {"name": "InceptionV3/InceptionV3/Mixed_6e/Branch_1/Conv2d_0b_1x7/BatchNorm/batchnorm/add_1", "op": "Add", "input": ["InceptionV3/InceptionV3/Mixed_6e/Branch_1/Conv2d_0b_1x7/BatchNorm/batchnorm/mul", "InceptionV3/InceptionV3/Mixed_6e/Branch_1/Conv2d_0b_1x7/BatchNorm/batchnorm/sub"], "attr": {"T": {"type": "DT_FLOAT"}}}, {"name": "InceptionV3/InceptionV3/Mixed_6e/Branch_2/Conv2d_0b_7x1/Relu", "op": "Relu", "input": ["InceptionV3/InceptionV3/Mixed_6e/Branch_2/Conv2d_0b_7x1/BatchNorm/batchnorm/add_1"], "attr": {"T": {"type": "DT_FLOAT"}}}, {"name": "InceptionV3/InceptionV3/Mixed_6e/Branch_1/Conv2d_0b_1x7/Relu", "op": "Relu", "input": ["InceptionV3/InceptionV3/Mixed_6e/Branch_1/Conv2d_0b_1x7/BatchNorm/batchnorm/add_1"], "attr": {"T": {"type": "DT_FLOAT"}}}, {"name": "InceptionV3/InceptionV3/Mixed_6e/Branch_2/Conv2d_0c_1x7/BatchNorm/batchnorm/mul", "op": "Conv2D", "input": ["InceptionV3/InceptionV3/Mixed_6e/Branch_2/Conv2d_0b_7x1/Relu", "InceptionV3/InceptionV3/Mixed_6e/Branch_2/Conv2d_0c_1x7/convolution/merged_input"], "attr": {"T": {"type": "DT_FLOAT"}, "strides": {"list": {"i": ["1", "1", "1", "1"]}}, "data_format": {"s": "TkhXQw=="}, "explicit_paddings": {"list": {}}, "use_cudnn_on_gpu": {"b": true}, "padding": {"s": "U0FNRQ=="}, "dilations": {"list": {"i": ["1", "1", "1", "1"]}}}}, {"name": "InceptionV3/InceptionV3/Mixed_6e/Branch_1/Conv2d_0c_7x1/BatchNorm/batchnorm/mul", "op": "Conv2D", "input": ["InceptionV3/InceptionV3/Mixed_6e/Branch_1/Conv2d_0b_1x7/Relu", "InceptionV3/InceptionV3/Mixed_6e/Branch_1/Conv2d_0c_7x1/convolution/merged_input"], "attr": {"T": {"type": "DT_FLOAT"}, "strides": {"list": {"i": ["1", "1", "1", "1"]}}, "data_format": {"s": "TkhXQw=="}, "use_cudnn_on_gpu": {"b": true}, "explicit_paddings": {"list": {}}, "padding": {"s": "U0FNRQ=="}, "dilations": {"list": {"i": ["1", "1", "1", "1"]}}}}, {"name": "InceptionV3/InceptionV3/Mixed_6e/Branch_2/Conv2d_0c_1x7/BatchNorm/batchnorm/add_1", "op": "Add", "input": ["InceptionV3/InceptionV3/Mixed_6e/Branch_2/Conv2d_0c_1x7/BatchNorm/batchnorm/mul", "InceptionV3/InceptionV3/Mixed_6e/Branch_2/Conv2d_0c_1x7/BatchNorm/batchnorm/sub"], "attr": {"T": {"type": "DT_FLOAT"}}}, {"name": "InceptionV3/InceptionV3/Mixed_6e/Branch_1/Conv2d_0c_7x1/BatchNorm/batchnorm/add_1", "op": "Add", "input": ["InceptionV3/InceptionV3/Mixed_6e/Branch_1/Conv2d_0c_7x1/BatchNorm/batchnorm/mul", "InceptionV3/InceptionV3/Mixed_6e/Branch_1/Conv2d_0c_7x1/BatchNorm/batchnorm/sub"], "attr": {"T": {"type": "DT_FLOAT"}}}, {"name": "InceptionV3/InceptionV3/Mixed_6e/Branch_2/Conv2d_0c_1x7/Relu", "op": "Relu", "input": ["InceptionV3/InceptionV3/Mixed_6e/Branch_2/Conv2d_0c_1x7/BatchNorm/batchnorm/add_1"], "attr": {"T": {"type": "DT_FLOAT"}}}, {"name": "InceptionV3/InceptionV3/Mixed_6e/Branch_2/Conv2d_0d_7x1/BatchNorm/batchnorm/mul", "op": "Conv2D", "input": ["InceptionV3/InceptionV3/Mixed_6e/Branch_2/Conv2d_0c_1x7/Relu", "InceptionV3/InceptionV3/Mixed_6e/Branch_2/Conv2d_0d_7x1/convolution/merged_input"], "attr": {"dilations": {"list": {"i": ["1", "1", "1", "1"]}}, "T": {"type": "DT_FLOAT"}, "strides": {"list": {"i": ["1", "1", "1", "1"]}}, "data_format": {"s": "TkhXQw=="}, "use_cudnn_on_gpu": {"b": true}, "explicit_paddings": {"list": {}}, "padding": {"s": "U0FNRQ=="}}}, {"name": "InceptionV3/InceptionV3/Mixed_6e/Branch_2/Conv2d_0d_7x1/BatchNorm/batchnorm/add_1", "op": "Add", "input": ["InceptionV3/InceptionV3/Mixed_6e/Branch_2/Conv2d_0d_7x1/BatchNorm/batchnorm/mul", "InceptionV3/InceptionV3/Mixed_6e/Branch_2/Conv2d_0d_7x1/BatchNorm/batchnorm/sub"], "attr": {"T": {"type": "DT_FLOAT"}}}, {"name": "InceptionV3/InceptionV3/Mixed_6e/Branch_2/Conv2d_0d_7x1/Relu", "op": "Relu", "input": ["InceptionV3/InceptionV3/Mixed_6e/Branch_2/Conv2d_0d_7x1/BatchNorm/batchnorm/add_1"], "attr": {"T": {"type": "DT_FLOAT"}}}, {"name": "InceptionV3/InceptionV3/Mixed_6e/Branch_2/Conv2d_0e_1x7/BatchNorm/batchnorm/mul", "op": "Conv2D", "input": ["InceptionV3/InceptionV3/Mixed_6e/Branch_2/Conv2d_0d_7x1/Relu", "InceptionV3/InceptionV3/Mixed_6e/Branch_2/Conv2d_0e_1x7/convolution/merged_input"], "attr": {"T": {"type": "DT_FLOAT"}, "strides": {"list": {"i": ["1", "1", "1", "1"]}}, "data_format": {"s": "TkhXQw=="}, "use_cudnn_on_gpu": {"b": true}, "explicit_paddings": {"list": {}}, "padding": {"s": "U0FNRQ=="}, "dilations": {"list": {"i": ["1", "1", "1", "1"]}}}}, {"name": "InceptionV3/InceptionV3/Mixed_6e/Branch_2/Conv2d_0e_1x7/BatchNorm/batchnorm/add_1", "op": "Add", "input": ["InceptionV3/InceptionV3/Mixed_6e/Branch_2/Conv2d_0e_1x7/BatchNorm/batchnorm/mul", "InceptionV3/InceptionV3/Mixed_6e/Branch_2/Conv2d_0e_1x7/BatchNorm/batchnorm/sub"], "attr": {"T": {"type": "DT_FLOAT"}}}, {"name": "InceptionV3/InceptionV3/Mixed_6e/concat", "op": "Concat", "input": ["InceptionV3/InceptionV3/Mixed_7c/concat/concat_dim", "InceptionV3/InceptionV3/Mixed_6e/Branch_0/Conv2d_0a_1x1/BatchNorm/batchnorm/add_1", "InceptionV3/InceptionV3/Mixed_6e/Branch_1/Conv2d_0c_7x1/BatchNorm/batchnorm/add_1", "InceptionV3/InceptionV3/Mixed_6e/Branch_2/Conv2d_0e_1x7/BatchNorm/batchnorm/add_1", "InceptionV3/InceptionV3/Mixed_6e/Branch_3/Conv2d_0b_1x1/BatchNorm/batchnorm/add_1"], "attr": {"T": {"type": "DT_FLOAT"}, "N": {"i": "4"}}}, {"name": "InceptionV3/InceptionV3/Mixed_6e/Branch_0/Conv2d_0a_1x1/Relu", "op": "Relu", "input": ["InceptionV3/InceptionV3/Mixed_6e/concat"], "attr": {"T": {"type": "DT_FLOAT"}}}, {"name": "InceptionV3/InceptionV3/Mixed_7a/Branch_2/MaxPool_1a_3x3/MaxPool", "op": "MaxPool", "input": ["InceptionV3/InceptionV3/Mixed_6e/Branch_0/Conv2d_0a_1x1/Relu"], "attr": {"T": {"type": "DT_FLOAT"}, "strides": {"list": {"i": ["1", "2", "2", "1"]}}, "data_format": {"s": "TkhXQw=="}, "ksize": {"list": {"i": ["1", "3", "3", "1"]}}, "padding": {"s": "VkFMSUQ="}}}, {"name": "InceptionV3/InceptionV3/Mixed_7a/Branch_1/Conv2d_0a_1x1/BatchNorm/batchnorm/mul", "op": "Conv2D", "input": ["InceptionV3/InceptionV3/Mixed_6e/Branch_0/Conv2d_0a_1x1/Relu", "InceptionV3/InceptionV3/Mixed_7a/Branch_1/Conv2d_0a_1x1/convolution/merged_input"], "attr": {"dilations": {"list": {"i": ["1", "1", "1", "1"]}}, "T": {"type": "DT_FLOAT"}, "strides": {"list": {"i": ["1", "1", "1", "1"]}}, "data_format": {"s": "TkhXQw=="}, "explicit_paddings": {"list": {}}, "use_cudnn_on_gpu": {"b": true}, "padding": {"s": "U0FNRQ=="}}}, {"name": "InceptionV3/InceptionV3/Mixed_7a/Branch_0/Conv2d_0a_1x1/BatchNorm/batchnorm/mul", "op": "Conv2D", "input": ["InceptionV3/InceptionV3/Mixed_6e/Branch_0/Conv2d_0a_1x1/Relu", "InceptionV3/InceptionV3/Mixed_7a/Branch_0/Conv2d_0a_1x1/convolution/merged_input"], "attr": {"T": {"type": "DT_FLOAT"}, "data_format": {"s": "TkhXQw=="}, "strides": {"list": {"i": ["1", "1", "1", "1"]}}, "use_cudnn_on_gpu": {"b": true}, "explicit_paddings": {"list": {}}, "padding": {"s": "U0FNRQ=="}, "dilations": {"list": {"i": ["1", "1", "1", "1"]}}}}, {"name": "InceptionV3/InceptionV3/Mixed_7a/Branch_1/Conv2d_0a_1x1/BatchNorm/batchnorm/add_1", "op": "Add", "input": ["InceptionV3/InceptionV3/Mixed_7a/Branch_1/Conv2d_0a_1x1/BatchNorm/batchnorm/mul", "InceptionV3/InceptionV3/Mixed_7a/Branch_1/Conv2d_0a_1x1/BatchNorm/batchnorm/sub"], "attr": {"T": {"type": "DT_FLOAT"}}}, {"name": "InceptionV3/InceptionV3/Mixed_7a/Branch_0/Conv2d_0a_1x1/BatchNorm/batchnorm/add_1", "op": "Add", "input": ["InceptionV3/InceptionV3/Mixed_7a/Branch_0/Conv2d_0a_1x1/BatchNorm/batchnorm/mul", "InceptionV3/InceptionV3/Mixed_7a/Branch_0/Conv2d_0a_1x1/BatchNorm/batchnorm/sub"], "attr": {"T": {"type": "DT_FLOAT"}}}, {"name": "InceptionV3/InceptionV3/Mixed_7a/Branch_1/Conv2d_0a_1x1/Relu", "op": "Relu", "input": ["InceptionV3/InceptionV3/Mixed_7a/Branch_1/Conv2d_0a_1x1/BatchNorm/batchnorm/add_1"], "attr": {"T": {"type": "DT_FLOAT"}}}, {"name": "InceptionV3/InceptionV3/Mixed_7a/Branch_0/Conv2d_0a_1x1/Relu", "op": "Relu", "input": ["InceptionV3/InceptionV3/Mixed_7a/Branch_0/Conv2d_0a_1x1/BatchNorm/batchnorm/add_1"], "attr": {"T": {"type": "DT_FLOAT"}}}, {"name": "InceptionV3/InceptionV3/Mixed_7a/Branch_1/Conv2d_0b_1x7/BatchNorm/batchnorm/mul", "op": "Conv2D", "input": ["InceptionV3/InceptionV3/Mixed_7a/Branch_1/Conv2d_0a_1x1/Relu", "InceptionV3/InceptionV3/Mixed_7a/Branch_1/Conv2d_0b_1x7/convolution/merged_input"], "attr": {"dilations": {"list": {"i": ["1", "1", "1", "1"]}}, "T": {"type": "DT_FLOAT"}, "data_format": {"s": "TkhXQw=="}, "strides": {"list": {"i": ["1", "1", "1", "1"]}}, "explicit_paddings": {"list": {}}, "use_cudnn_on_gpu": {"b": true}, "padding": {"s": "U0FNRQ=="}}}, {"name": "InceptionV3/InceptionV3/Mixed_7a/Branch_0/Conv2d_1a_3x3/BatchNorm/batchnorm/mul", "op": "Conv2D", "input": ["InceptionV3/InceptionV3/Mixed_7a/Branch_0/Conv2d_0a_1x1/Relu", "InceptionV3/InceptionV3/Mixed_7a/Branch_0/Conv2d_1a_3x3/convolution/merged_input"], "attr": {"T": {"type": "DT_FLOAT"}, "data_format": {"s": "TkhXQw=="}, "strides": {"list": {"i": ["1", "2", "2", "1"]}}, "explicit_paddings": {"list": {}}, "use_cudnn_on_gpu": {"b": true}, "padding": {"s": "VkFMSUQ="}, "dilations": {"list": {"i": ["1", "1", "1", "1"]}}}}, {"name": "InceptionV3/InceptionV3/Mixed_7a/Branch_1/Conv2d_0b_1x7/BatchNorm/batchnorm/add_1", "op": "Add", "input": ["InceptionV3/InceptionV3/Mixed_7a/Branch_1/Conv2d_0b_1x7/BatchNorm/batchnorm/mul", "InceptionV3/InceptionV3/Mixed_7a/Branch_1/Conv2d_0b_1x7/BatchNorm/batchnorm/sub"], "attr": {"T": {"type": "DT_FLOAT"}}}, {"name": "InceptionV3/InceptionV3/Mixed_7a/Branch_0/Conv2d_1a_3x3/BatchNorm/batchnorm/add_1", "op": "Add", "input": ["InceptionV3/InceptionV3/Mixed_7a/Branch_0/Conv2d_1a_3x3/BatchNorm/batchnorm/mul", "InceptionV3/InceptionV3/Mixed_7a/Branch_0/Conv2d_1a_3x3/BatchNorm/batchnorm/sub"], "attr": {"T": {"type": "DT_FLOAT"}}}, {"name": "InceptionV3/InceptionV3/Mixed_7a/Branch_1/Conv2d_0b_1x7/Relu", "op": "Relu", "input": ["InceptionV3/InceptionV3/Mixed_7a/Branch_1/Conv2d_0b_1x7/BatchNorm/batchnorm/add_1"], "attr": {"T": {"type": "DT_FLOAT"}}}, {"name": "InceptionV3/InceptionV3/Mixed_7a/Branch_0/Conv2d_1a_3x3/Relu", "op": "Relu", "input": ["InceptionV3/InceptionV3/Mixed_7a/Branch_0/Conv2d_1a_3x3/BatchNorm/batchnorm/add_1"], "attr": {"T": {"type": "DT_FLOAT"}}}, {"name": "InceptionV3/InceptionV3/Mixed_7a/Branch_1/Conv2d_0c_7x1/BatchNorm/batchnorm/mul", "op": "Conv2D", "input": ["InceptionV3/InceptionV3/Mixed_7a/Branch_1/Conv2d_0b_1x7/Relu", "InceptionV3/InceptionV3/Mixed_7a/Branch_1/Conv2d_0c_7x1/convolution/merged_input"], "attr": {"dilations": {"list": {"i": ["1", "1", "1", "1"]}}, "T": {"type": "DT_FLOAT"}, "data_format": {"s": "TkhXQw=="}, "strides": {"list": {"i": ["1", "1", "1", "1"]}}, "use_cudnn_on_gpu": {"b": true}, "explicit_paddings": {"list": {}}, "padding": {"s": "U0FNRQ=="}}}, {"name": "InceptionV3/InceptionV3/Mixed_7a/Branch_1/Conv2d_0c_7x1/BatchNorm/batchnorm/add_1", "op": "Add", "input": ["InceptionV3/InceptionV3/Mixed_7a/Branch_1/Conv2d_0c_7x1/BatchNorm/batchnorm/mul", "InceptionV3/InceptionV3/Mixed_7a/Branch_1/Conv2d_0c_7x1/BatchNorm/batchnorm/sub"], "attr": {"T": {"type": "DT_FLOAT"}}}, {"name": "InceptionV3/InceptionV3/Mixed_7a/Branch_1/Conv2d_0c_7x1/Relu", "op": "Relu", "input": ["InceptionV3/InceptionV3/Mixed_7a/Branch_1/Conv2d_0c_7x1/BatchNorm/batchnorm/add_1"], "attr": {"T": {"type": "DT_FLOAT"}}}, {"name": "InceptionV3/InceptionV3/Mixed_7a/Branch_1/Conv2d_1a_3x3/BatchNorm/batchnorm/mul", "op": "Conv2D", "input": ["InceptionV3/InceptionV3/Mixed_7a/Branch_1/Conv2d_0c_7x1/Relu", "InceptionV3/InceptionV3/Mixed_7a/Branch_1/Conv2d_1a_3x3/convolution/merged_input"], "attr": {"T": {"type": "DT_FLOAT"}, "data_format": {"s": "TkhXQw=="}, "strides": {"list": {"i": ["1", "2", "2", "1"]}}, "explicit_paddings": {"list": {}}, "use_cudnn_on_gpu": {"b": true}, "padding": {"s": "VkFMSUQ="}, "dilations": {"list": {"i": ["1", "1", "1", "1"]}}}}, {"name": "InceptionV3/InceptionV3/Mixed_7a/Branch_1/Conv2d_1a_3x3/BatchNorm/batchnorm/add_1", "op": "Add", "input": ["InceptionV3/InceptionV3/Mixed_7a/Branch_1/Conv2d_1a_3x3/BatchNorm/batchnorm/mul", "InceptionV3/InceptionV3/Mixed_7a/Branch_1/Conv2d_1a_3x3/BatchNorm/batchnorm/sub"], "attr": {"T": {"type": "DT_FLOAT"}}}, {"name": "InceptionV3/InceptionV3/Mixed_7a/Branch_1/Conv2d_1a_3x3/Relu", "op": "Relu", "input": ["InceptionV3/InceptionV3/Mixed_7a/Branch_1/Conv2d_1a_3x3/BatchNorm/batchnorm/add_1"], "attr": {"T": {"type": "DT_FLOAT"}}}, {"name": "InceptionV3/InceptionV3/Mixed_7a/concat", "op": "Concat", "input": ["InceptionV3/InceptionV3/Mixed_7c/concat/concat_dim", "InceptionV3/InceptionV3/Mixed_7a/Branch_0/Conv2d_1a_3x3/Relu", "InceptionV3/InceptionV3/Mixed_7a/Branch_1/Conv2d_1a_3x3/Relu", "InceptionV3/InceptionV3/Mixed_7a/Branch_2/MaxPool_1a_3x3/MaxPool"], "attr": {"T": {"type": "DT_FLOAT"}, "N": {"i": "3"}}}, {"name": "InceptionV3/InceptionV3/Mixed_7b/Branch_3/AvgPool_0a_3x3/AvgPool", "op": "AvgPool", "input": ["InceptionV3/InceptionV3/Mixed_7a/concat"], "attr": {"T": {"type": "DT_FLOAT"}, "strides": {"list": {"i": ["1", "1", "1", "1"]}}, "data_format": {"s": "TkhXQw=="}, "ksize": {"list": {"i": ["1", "3", "3", "1"]}}, "padding": {"s": "U0FNRQ=="}}}, {"name": "InceptionV3/InceptionV3/Mixed_7b/Branch_2/Conv2d_0a_1x1/BatchNorm/batchnorm/mul", "op": "Conv2D", "input": ["InceptionV3/InceptionV3/Mixed_7a/concat", "InceptionV3/InceptionV3/Mixed_7b/Branch_2/Conv2d_0a_1x1/convolution/merged_input"], "attr": {"padding": {"s": "U0FNRQ=="}, "dilations": {"list": {"i": ["1", "1", "1", "1"]}}, "T": {"type": "DT_FLOAT"}, "strides": {"list": {"i": ["1", "1", "1", "1"]}}, "data_format": {"s": "TkhXQw=="}, "explicit_paddings": {"list": {}}, "use_cudnn_on_gpu": {"b": true}}}, {"name": "InceptionV3/InceptionV3/Mixed_7b/Branch_1/Conv2d_0a_1x1/BatchNorm/batchnorm/mul", "op": "Conv2D", "input": ["InceptionV3/InceptionV3/Mixed_7a/concat", "InceptionV3/InceptionV3/Mixed_7b/Branch_1/Conv2d_0a_1x1/convolution/merged_input"], "attr": {"dilations": {"list": {"i": ["1", "1", "1", "1"]}}, "T": {"type": "DT_FLOAT"}, "strides": {"list": {"i": ["1", "1", "1", "1"]}}, "data_format": {"s": "TkhXQw=="}, "explicit_paddings": {"list": {}}, "use_cudnn_on_gpu": {"b": true}, "padding": {"s": "U0FNRQ=="}}}, {"name": "InceptionV3/InceptionV3/Mixed_7b/Branch_0/Conv2d_0a_1x1/BatchNorm/batchnorm/mul", "op": "Conv2D", "input": ["InceptionV3/InceptionV3/Mixed_7a/concat", "InceptionV3/InceptionV3/Mixed_7b/Branch_0/Conv2d_0a_1x1/convolution/merged_input"], "attr": {"T": {"type": "DT_FLOAT"}, "data_format": {"s": "TkhXQw=="}, "strides": {"list": {"i": ["1", "1", "1", "1"]}}, "use_cudnn_on_gpu": {"b": true}, "explicit_paddings": {"list": {}}, "padding": {"s": "U0FNRQ=="}, "dilations": {"list": {"i": ["1", "1", "1", "1"]}}}}, {"name": "InceptionV3/InceptionV3/Mixed_7b/Branch_3/Conv2d_0b_1x1/BatchNorm/batchnorm/mul", "op": "Conv2D", "input": ["InceptionV3/InceptionV3/Mixed_7b/Branch_3/AvgPool_0a_3x3/AvgPool", "InceptionV3/InceptionV3/Mixed_7b/Branch_3/Conv2d_0b_1x1/convolution/merged_input"], "attr": {"T": {"type": "DT_FLOAT"}, "strides": {"list": {"i": ["1", "1", "1", "1"]}}, "data_format": {"s": "TkhXQw=="}, "use_cudnn_on_gpu": {"b": true}, "explicit_paddings": {"list": {}}, "padding": {"s": "U0FNRQ=="}, "dilations": {"list": {"i": ["1", "1", "1", "1"]}}}}, {"name": "InceptionV3/InceptionV3/Mixed_7b/Branch_2/Conv2d_0a_1x1/BatchNorm/batchnorm/add_1", "op": "Add", "input": ["InceptionV3/InceptionV3/Mixed_7b/Branch_2/Conv2d_0a_1x1/BatchNorm/batchnorm/mul", "InceptionV3/InceptionV3/Mixed_7b/Branch_2/Conv2d_0a_1x1/BatchNorm/batchnorm/sub"], "attr": {"T": {"type": "DT_FLOAT"}}}, {"name": "InceptionV3/InceptionV3/Mixed_7b/Branch_1/Conv2d_0a_1x1/BatchNorm/batchnorm/add_1", "op": "Add", "input": ["InceptionV3/InceptionV3/Mixed_7b/Branch_1/Conv2d_0a_1x1/BatchNorm/batchnorm/mul", "InceptionV3/InceptionV3/Mixed_7b/Branch_1/Conv2d_0a_1x1/BatchNorm/batchnorm/sub"], "attr": {"T": {"type": "DT_FLOAT"}}}, {"name": "InceptionV3/InceptionV3/Mixed_7b/Branch_0/Conv2d_0a_1x1/BatchNorm/batchnorm/add_1", "op": "Add", "input": ["InceptionV3/InceptionV3/Mixed_7b/Branch_0/Conv2d_0a_1x1/BatchNorm/batchnorm/mul", "InceptionV3/InceptionV3/Mixed_7b/Branch_0/Conv2d_0a_1x1/BatchNorm/batchnorm/sub"], "attr": {"T": {"type": "DT_FLOAT"}}}, {"name": "InceptionV3/InceptionV3/Mixed_7b/Branch_3/Conv2d_0b_1x1/BatchNorm/batchnorm/add_1", "op": "Add", "input": ["InceptionV3/InceptionV3/Mixed_7b/Branch_3/Conv2d_0b_1x1/BatchNorm/batchnorm/mul", "InceptionV3/InceptionV3/Mixed_7b/Branch_3/Conv2d_0b_1x1/BatchNorm/batchnorm/sub"], "attr": {"T": {"type": "DT_FLOAT"}}}, {"name": "InceptionV3/InceptionV3/Mixed_7b/Branch_2/Conv2d_0a_1x1/Relu", "op": "Relu", "input": ["InceptionV3/InceptionV3/Mixed_7b/Branch_2/Conv2d_0a_1x1/BatchNorm/batchnorm/add_1"], "attr": {"T": {"type": "DT_FLOAT"}}}, {"name": "InceptionV3/InceptionV3/Mixed_7b/Branch_1/Conv2d_0a_1x1/Relu", "op": "Relu", "input": ["InceptionV3/InceptionV3/Mixed_7b/Branch_1/Conv2d_0a_1x1/BatchNorm/batchnorm/add_1"], "attr": {"T": {"type": "DT_FLOAT"}}}, {"name": "InceptionV3/InceptionV3/Mixed_7b/Branch_2/Conv2d_0b_3x3/BatchNorm/batchnorm/mul", "op": "Conv2D", "input": ["InceptionV3/InceptionV3/Mixed_7b/Branch_2/Conv2d_0a_1x1/Relu", "InceptionV3/InceptionV3/Mixed_7b/Branch_2/Conv2d_0b_3x3/convolution/merged_input"], "attr": {"dilations": {"list": {"i": ["1", "1", "1", "1"]}}, "T": {"type": "DT_FLOAT"}, "strides": {"list": {"i": ["1", "1", "1", "1"]}}, "data_format": {"s": "TkhXQw=="}, "use_cudnn_on_gpu": {"b": true}, "explicit_paddings": {"list": {}}, "padding": {"s": "U0FNRQ=="}}}, {"name": "InceptionV3/InceptionV3/Mixed_7b/Branch_1/Conv2d_0b_3x1/BatchNorm/batchnorm/mul", "op": "Conv2D", "input": ["InceptionV3/InceptionV3/Mixed_7b/Branch_1/Conv2d_0a_1x1/Relu", "InceptionV3/InceptionV3/Mixed_7b/Branch_1/Conv2d_0b_3x1/convolution/merged_input"], "attr": {"T": {"type": "DT_FLOAT"}, "data_format": {"s": "TkhXQw=="}, "strides": {"list": {"i": ["1", "1", "1", "1"]}}, "explicit_paddings": {"list": {}}, "use_cudnn_on_gpu": {"b": true}, "padding": {"s": "U0FNRQ=="}, "dilations": {"list": {"i": ["1", "1", "1", "1"]}}}}, {"name": "InceptionV3/InceptionV3/Mixed_7b/Branch_1/Conv2d_0b_1x3/BatchNorm/batchnorm/mul", "op": "Conv2D", "input": ["InceptionV3/InceptionV3/Mixed_7b/Branch_1/Conv2d_0a_1x1/Relu", "InceptionV3/InceptionV3/Mixed_7b/Branch_1/Conv2d_0b_1x3/convolution/merged_input"], "attr": {"dilations": {"list": {"i": ["1", "1", "1", "1"]}}, "T": {"type": "DT_FLOAT"}, "data_format": {"s": "TkhXQw=="}, "strides": {"list": {"i": ["1", "1", "1", "1"]}}, "use_cudnn_on_gpu": {"b": true}, "explicit_paddings": {"list": {}}, "padding": {"s": "U0FNRQ=="}}}, {"name": "InceptionV3/InceptionV3/Mixed_7b/Branch_2/Conv2d_0b_3x3/BatchNorm/batchnorm/add_1", "op": "Add", "input": ["InceptionV3/InceptionV3/Mixed_7b/Branch_2/Conv2d_0b_3x3/BatchNorm/batchnorm/mul", "InceptionV3/InceptionV3/Mixed_7b/Branch_2/Conv2d_0b_3x3/BatchNorm/batchnorm/sub"], "attr": {"T": {"type": "DT_FLOAT"}}}, {"name": "InceptionV3/InceptionV3/Mixed_7b/Branch_1/Conv2d_0b_3x1/BatchNorm/batchnorm/add_1", "op": "Add", "input": ["InceptionV3/InceptionV3/Mixed_7b/Branch_1/Conv2d_0b_3x1/BatchNorm/batchnorm/mul", "InceptionV3/InceptionV3/Mixed_7b/Branch_1/Conv2d_0b_3x1/BatchNorm/batchnorm/sub"], "attr": {"T": {"type": "DT_FLOAT"}}}, {"name": "InceptionV3/InceptionV3/Mixed_7b/Branch_1/Conv2d_0b_1x3/BatchNorm/batchnorm/add_1", "op": "Add", "input": ["InceptionV3/InceptionV3/Mixed_7b/Branch_1/Conv2d_0b_1x3/BatchNorm/batchnorm/mul", "InceptionV3/InceptionV3/Mixed_7b/Branch_1/Conv2d_0b_1x3/BatchNorm/batchnorm/sub"], "attr": {"T": {"type": "DT_FLOAT"}}}, {"name": "InceptionV3/InceptionV3/Mixed_7b/Branch_2/Conv2d_0b_3x3/Relu", "op": "Relu", "input": ["InceptionV3/InceptionV3/Mixed_7b/Branch_2/Conv2d_0b_3x3/BatchNorm/batchnorm/add_1"], "attr": {"T": {"type": "DT_FLOAT"}}}, {"name": "InceptionV3/InceptionV3/Mixed_7b/Branch_1/concat", "op": "Concat", "input": ["InceptionV3/InceptionV3/Mixed_7c/concat/concat_dim", "InceptionV3/InceptionV3/Mixed_7b/Branch_1/Conv2d_0b_1x3/BatchNorm/batchnorm/add_1", "InceptionV3/InceptionV3/Mixed_7b/Branch_1/Conv2d_0b_3x1/BatchNorm/batchnorm/add_1"], "attr": {"T": {"type": "DT_FLOAT"}, "N": {"i": "2"}}}, {"name": "InceptionV3/InceptionV3/Mixed_7b/Branch_2/Conv2d_0d_3x1/BatchNorm/batchnorm/mul", "op": "Conv2D", "input": ["InceptionV3/InceptionV3/Mixed_7b/Branch_2/Conv2d_0b_3x3/Relu", "InceptionV3/InceptionV3/Mixed_7b/Branch_2/Conv2d_0d_3x1/convolution/merged_input"], "attr": {"dilations": {"list": {"i": ["1", "1", "1", "1"]}}, "T": {"type": "DT_FLOAT"}, "data_format": {"s": "TkhXQw=="}, "strides": {"list": {"i": ["1", "1", "1", "1"]}}, "use_cudnn_on_gpu": {"b": true}, "explicit_paddings": {"list": {}}, "padding": {"s": "U0FNRQ=="}}}, {"name": "InceptionV3/InceptionV3/Mixed_7b/Branch_2/Conv2d_0c_1x3/BatchNorm/batchnorm/mul", "op": "Conv2D", "input": ["InceptionV3/InceptionV3/Mixed_7b/Branch_2/Conv2d_0b_3x3/Relu", "InceptionV3/InceptionV3/Mixed_7b/Branch_2/Conv2d_0c_1x3/convolution/merged_input"], "attr": {"T": {"type": "DT_FLOAT"}, "strides": {"list": {"i": ["1", "1", "1", "1"]}}, "data_format": {"s": "TkhXQw=="}, "explicit_paddings": {"list": {}}, "use_cudnn_on_gpu": {"b": true}, "padding": {"s": "U0FNRQ=="}, "dilations": {"list": {"i": ["1", "1", "1", "1"]}}}}, {"name": "InceptionV3/InceptionV3/Mixed_7b/Branch_2/Conv2d_0d_3x1/BatchNorm/batchnorm/add_1", "op": "Add", "input": ["InceptionV3/InceptionV3/Mixed_7b/Branch_2/Conv2d_0d_3x1/BatchNorm/batchnorm/mul", "InceptionV3/InceptionV3/Mixed_7b/Branch_2/Conv2d_0d_3x1/BatchNorm/batchnorm/sub"], "attr": {"T": {"type": "DT_FLOAT"}}}, {"name": "InceptionV3/InceptionV3/Mixed_7b/Branch_2/Conv2d_0c_1x3/BatchNorm/batchnorm/add_1", "op": "Add", "input": ["InceptionV3/InceptionV3/Mixed_7b/Branch_2/Conv2d_0c_1x3/BatchNorm/batchnorm/mul", "InceptionV3/InceptionV3/Mixed_7b/Branch_2/Conv2d_0c_1x3/BatchNorm/batchnorm/sub"], "attr": {"T": {"type": "DT_FLOAT"}}}, {"name": "InceptionV3/InceptionV3/Mixed_7b/Branch_2/concat", "op": "Concat", "input": ["InceptionV3/InceptionV3/Mixed_7c/concat/concat_dim", "InceptionV3/InceptionV3/Mixed_7b/Branch_2/Conv2d_0c_1x3/BatchNorm/batchnorm/add_1", "InceptionV3/InceptionV3/Mixed_7b/Branch_2/Conv2d_0d_3x1/BatchNorm/batchnorm/add_1"], "attr": {"T": {"type": "DT_FLOAT"}, "N": {"i": "2"}}}, {"name": "InceptionV3/InceptionV3/Mixed_7b/concat", "op": "Concat", "input": ["InceptionV3/InceptionV3/Mixed_7c/concat/concat_dim", "InceptionV3/InceptionV3/Mixed_7b/Branch_0/Conv2d_0a_1x1/BatchNorm/batchnorm/add_1", "InceptionV3/InceptionV3/Mixed_7b/Branch_1/concat", "InceptionV3/InceptionV3/Mixed_7b/Branch_2/concat", "InceptionV3/InceptionV3/Mixed_7b/Branch_3/Conv2d_0b_1x1/BatchNorm/batchnorm/add_1"], "attr": {"T": {"type": "DT_FLOAT"}, "N": {"i": "4"}}}, {"name": "InceptionV3/InceptionV3/Mixed_7b/Branch_0/Conv2d_0a_1x1/Relu", "op": "Relu", "input": ["InceptionV3/InceptionV3/Mixed_7b/concat"], "attr": {"T": {"type": "DT_FLOAT"}}}, {"name": "InceptionV3/InceptionV3/Mixed_7c/Branch_3/AvgPool_0a_3x3/AvgPool", "op": "AvgPool", "input": ["InceptionV3/InceptionV3/Mixed_7b/Branch_0/Conv2d_0a_1x1/Relu"], "attr": {"T": {"type": "DT_FLOAT"}, "strides": {"list": {"i": ["1", "1", "1", "1"]}}, "data_format": {"s": "TkhXQw=="}, "ksize": {"list": {"i": ["1", "3", "3", "1"]}}, "padding": {"s": "U0FNRQ=="}}}, {"name": "InceptionV3/InceptionV3/Mixed_7c/Branch_2/Conv2d_0a_1x1/BatchNorm/batchnorm/mul", "op": "Conv2D", "input": ["InceptionV3/InceptionV3/Mixed_7b/Branch_0/Conv2d_0a_1x1/Relu", "InceptionV3/InceptionV3/Mixed_7c/Branch_2/Conv2d_0a_1x1/convolution/merged_input"], "attr": {"T": {"type": "DT_FLOAT"}, "data_format": {"s": "TkhXQw=="}, "strides": {"list": {"i": ["1", "1", "1", "1"]}}, "explicit_paddings": {"list": {}}, "use_cudnn_on_gpu": {"b": true}, "padding": {"s": "U0FNRQ=="}, "dilations": {"list": {"i": ["1", "1", "1", "1"]}}}}, {"name": "InceptionV3/InceptionV3/Mixed_7c/Branch_1/Conv2d_0a_1x1/BatchNorm/batchnorm/mul", "op": "Conv2D", "input": ["InceptionV3/InceptionV3/Mixed_7b/Branch_0/Conv2d_0a_1x1/Relu", "InceptionV3/InceptionV3/Mixed_7c/Branch_1/Conv2d_0a_1x1/convolution/merged_input"], "attr": {"padding": {"s": "U0FNRQ=="}, "dilations": {"list": {"i": ["1", "1", "1", "1"]}}, "T": {"type": "DT_FLOAT"}, "strides": {"list": {"i": ["1", "1", "1", "1"]}}, "data_format": {"s": "TkhXQw=="}, "explicit_paddings": {"list": {}}, "use_cudnn_on_gpu": {"b": true}}}, {"name": "InceptionV3/InceptionV3/Mixed_7c/Branch_0/Conv2d_0a_1x1/BatchNorm/batchnorm/mul", "op": "Conv2D", "input": ["InceptionV3/InceptionV3/Mixed_7b/Branch_0/Conv2d_0a_1x1/Relu", "InceptionV3/InceptionV3/Mixed_7c/Branch_0/Conv2d_0a_1x1/convolution/merged_input"], "attr": {"dilations": {"list": {"i": ["1", "1", "1", "1"]}}, "T": {"type": "DT_FLOAT"}, "data_format": {"s": "TkhXQw=="}, "strides": {"list": {"i": ["1", "1", "1", "1"]}}, "use_cudnn_on_gpu": {"b": true}, "explicit_paddings": {"list": {}}, "padding": {"s": "U0FNRQ=="}}}, {"name": "InceptionV3/InceptionV3/Mixed_7c/Branch_3/Conv2d_0b_1x1/BatchNorm/batchnorm/mul", "op": "Conv2D", "input": ["InceptionV3/InceptionV3/Mixed_7c/Branch_3/AvgPool_0a_3x3/AvgPool", "InceptionV3/InceptionV3/Mixed_7c/Branch_3/Conv2d_0b_1x1/convolution/merged_input"], "attr": {"dilations": {"list": {"i": ["1", "1", "1", "1"]}}, "T": {"type": "DT_FLOAT"}, "data_format": {"s": "TkhXQw=="}, "strides": {"list": {"i": ["1", "1", "1", "1"]}}, "use_cudnn_on_gpu": {"b": true}, "explicit_paddings": {"list": {}}, "padding": {"s": "U0FNRQ=="}}}, {"name": "InceptionV3/InceptionV3/Mixed_7c/Branch_2/Conv2d_0a_1x1/BatchNorm/batchnorm/add_1", "op": "Add", "input": ["InceptionV3/InceptionV3/Mixed_7c/Branch_2/Conv2d_0a_1x1/BatchNorm/batchnorm/mul", "InceptionV3/InceptionV3/Mixed_7c/Branch_2/Conv2d_0a_1x1/BatchNorm/batchnorm/sub"], "attr": {"T": {"type": "DT_FLOAT"}}}, {"name": "InceptionV3/InceptionV3/Mixed_7c/Branch_1/Conv2d_0a_1x1/BatchNorm/batchnorm/add_1", "op": "Add", "input": ["InceptionV3/InceptionV3/Mixed_7c/Branch_1/Conv2d_0a_1x1/BatchNorm/batchnorm/mul", "InceptionV3/InceptionV3/Mixed_7c/Branch_1/Conv2d_0a_1x1/BatchNorm/batchnorm/sub"], "attr": {"T": {"type": "DT_FLOAT"}}}, {"name": "InceptionV3/InceptionV3/Mixed_7c/Branch_0/Conv2d_0a_1x1/BatchNorm/batchnorm/add_1", "op": "Add", "input": ["InceptionV3/InceptionV3/Mixed_7c/Branch_0/Conv2d_0a_1x1/BatchNorm/batchnorm/mul", "InceptionV3/InceptionV3/Mixed_7c/Branch_0/Conv2d_0a_1x1/BatchNorm/batchnorm/sub"], "attr": {"T": {"type": "DT_FLOAT"}}}, {"name": "InceptionV3/InceptionV3/Mixed_7c/Branch_3/Conv2d_0b_1x1/BatchNorm/batchnorm/add_1", "op": "Add", "input": ["InceptionV3/InceptionV3/Mixed_7c/Branch_3/Conv2d_0b_1x1/BatchNorm/batchnorm/mul", "InceptionV3/InceptionV3/Mixed_7c/Branch_3/Conv2d_0b_1x1/BatchNorm/batchnorm/sub"], "attr": {"T": {"type": "DT_FLOAT"}}}, {"name": "InceptionV3/InceptionV3/Mixed_7c/Branch_2/Conv2d_0a_1x1/Relu", "op": "Relu", "input": ["InceptionV3/InceptionV3/Mixed_7c/Branch_2/Conv2d_0a_1x1/BatchNorm/batchnorm/add_1"], "attr": {"T": {"type": "DT_FLOAT"}}}, {"name": "InceptionV3/InceptionV3/Mixed_7c/Branch_1/Conv2d_0a_1x1/Relu", "op": "Relu", "input": ["InceptionV3/InceptionV3/Mixed_7c/Branch_1/Conv2d_0a_1x1/BatchNorm/batchnorm/add_1"], "attr": {"T": {"type": "DT_FLOAT"}}}, {"name": "InceptionV3/InceptionV3/Mixed_7c/Branch_2/Conv2d_0b_3x3/BatchNorm/batchnorm/mul", "op": "Conv2D", "input": ["InceptionV3/InceptionV3/Mixed_7c/Branch_2/Conv2d_0a_1x1/Relu", "InceptionV3/InceptionV3/Mixed_7c/Branch_2/Conv2d_0b_3x3/convolution/merged_input"], "attr": {"padding": {"s": "U0FNRQ=="}, "dilations": {"list": {"i": ["1", "1", "1", "1"]}}, "T": {"type": "DT_FLOAT"}, "data_format": {"s": "TkhXQw=="}, "strides": {"list": {"i": ["1", "1", "1", "1"]}}, "use_cudnn_on_gpu": {"b": true}, "explicit_paddings": {"list": {}}}}, {"name": "InceptionV3/InceptionV3/Mixed_7c/Branch_1/Conv2d_0c_3x1/BatchNorm/batchnorm/mul", "op": "Conv2D", "input": ["InceptionV3/InceptionV3/Mixed_7c/Branch_1/Conv2d_0a_1x1/Relu", "InceptionV3/InceptionV3/Mixed_7c/Branch_1/Conv2d_0c_3x1/convolution/merged_input"], "attr": {"T": {"type": "DT_FLOAT"}, "strides": {"list": {"i": ["1", "1", "1", "1"]}}, "data_format": {"s": "TkhXQw=="}, "explicit_paddings": {"list": {}}, "use_cudnn_on_gpu": {"b": true}, "padding": {"s": "U0FNRQ=="}, "dilations": {"list": {"i": ["1", "1", "1", "1"]}}}}, {"name": "InceptionV3/InceptionV3/Mixed_7c/Branch_1/Conv2d_0b_1x3/BatchNorm/batchnorm/mul", "op": "Conv2D", "input": ["InceptionV3/InceptionV3/Mixed_7c/Branch_1/Conv2d_0a_1x1/Relu", "InceptionV3/InceptionV3/Mixed_7c/Branch_1/Conv2d_0b_1x3/convolution/merged_input"], "attr": {"dilations": {"list": {"i": ["1", "1", "1", "1"]}}, "T": {"type": "DT_FLOAT"}, "strides": {"list": {"i": ["1", "1", "1", "1"]}}, "data_format": {"s": "TkhXQw=="}, "use_cudnn_on_gpu": {"b": true}, "explicit_paddings": {"list": {}}, "padding": {"s": "U0FNRQ=="}}}, {"name": "InceptionV3/InceptionV3/Mixed_7c/Branch_2/Conv2d_0b_3x3/BatchNorm/batchnorm/add_1", "op": "Add", "input": ["InceptionV3/InceptionV3/Mixed_7c/Branch_2/Conv2d_0b_3x3/BatchNorm/batchnorm/mul", "InceptionV3/InceptionV3/Mixed_7c/Branch_2/Conv2d_0b_3x3/BatchNorm/batchnorm/sub"], "attr": {"T": {"type": "DT_FLOAT"}}}, {"name": "InceptionV3/InceptionV3/Mixed_7c/Branch_1/Conv2d_0c_3x1/BatchNorm/batchnorm/add_1", "op": "Add", "input": ["InceptionV3/InceptionV3/Mixed_7c/Branch_1/Conv2d_0c_3x1/BatchNorm/batchnorm/mul", "InceptionV3/InceptionV3/Mixed_7c/Branch_1/Conv2d_0c_3x1/BatchNorm/batchnorm/sub"], "attr": {"T": {"type": "DT_FLOAT"}}}, {"name": "InceptionV3/InceptionV3/Mixed_7c/Branch_1/Conv2d_0b_1x3/BatchNorm/batchnorm/add_1", "op": "Add", "input": ["InceptionV3/InceptionV3/Mixed_7c/Branch_1/Conv2d_0b_1x3/BatchNorm/batchnorm/mul", "InceptionV3/InceptionV3/Mixed_7c/Branch_1/Conv2d_0b_1x3/BatchNorm/batchnorm/sub"], "attr": {"T": {"type": "DT_FLOAT"}}}, {"name": "InceptionV3/InceptionV3/Mixed_7c/Branch_2/Conv2d_0b_3x3/Relu", "op": "Relu", "input": ["InceptionV3/InceptionV3/Mixed_7c/Branch_2/Conv2d_0b_3x3/BatchNorm/batchnorm/add_1"], "attr": {"T": {"type": "DT_FLOAT"}}}, {"name": "InceptionV3/InceptionV3/Mixed_7c/Branch_1/concat", "op": "Concat", "input": ["InceptionV3/InceptionV3/Mixed_7c/concat/concat_dim", "InceptionV3/InceptionV3/Mixed_7c/Branch_1/Conv2d_0b_1x3/BatchNorm/batchnorm/add_1", "InceptionV3/InceptionV3/Mixed_7c/Branch_1/Conv2d_0c_3x1/BatchNorm/batchnorm/add_1"], "attr": {"T": {"type": "DT_FLOAT"}, "N": {"i": "2"}}}, {"name": "InceptionV3/InceptionV3/Mixed_7c/Branch_2/Conv2d_0d_3x1/BatchNorm/batchnorm/mul", "op": "Conv2D", "input": ["InceptionV3/InceptionV3/Mixed_7c/Branch_2/Conv2d_0b_3x3/Relu", "InceptionV3/InceptionV3/Mixed_7c/Branch_2/Conv2d_0d_3x1/convolution/merged_input"], "attr": {"padding": {"s": "U0FNRQ=="}, "dilations": {"list": {"i": ["1", "1", "1", "1"]}}, "T": {"type": "DT_FLOAT"}, "strides": {"list": {"i": ["1", "1", "1", "1"]}}, "data_format": {"s": "TkhXQw=="}, "explicit_paddings": {"list": {}}, "use_cudnn_on_gpu": {"b": true}}}, {"name": "InceptionV3/InceptionV3/Mixed_7c/Branch_2/Conv2d_0c_1x3/BatchNorm/batchnorm/mul", "op": "Conv2D", "input": ["InceptionV3/InceptionV3/Mixed_7c/Branch_2/Conv2d_0b_3x3/Relu", "InceptionV3/InceptionV3/Mixed_7c/Branch_2/Conv2d_0c_1x3/convolution/merged_input"], "attr": {"dilations": {"list": {"i": ["1", "1", "1", "1"]}}, "T": {"type": "DT_FLOAT"}, "strides": {"list": {"i": ["1", "1", "1", "1"]}}, "data_format": {"s": "TkhXQw=="}, "use_cudnn_on_gpu": {"b": true}, "explicit_paddings": {"list": {}}, "padding": {"s": "U0FNRQ=="}}}, {"name": "InceptionV3/InceptionV3/Mixed_7c/Branch_2/Conv2d_0d_3x1/BatchNorm/batchnorm/add_1", "op": "Add", "input": ["InceptionV3/InceptionV3/Mixed_7c/Branch_2/Conv2d_0d_3x1/BatchNorm/batchnorm/mul", "InceptionV3/InceptionV3/Mixed_7c/Branch_2/Conv2d_0d_3x1/BatchNorm/batchnorm/sub"], "attr": {"T": {"type": "DT_FLOAT"}}}, {"name": "InceptionV3/InceptionV3/Mixed_7c/Branch_2/Conv2d_0c_1x3/BatchNorm/batchnorm/add_1", "op": "Add", "input": ["InceptionV3/InceptionV3/Mixed_7c/Branch_2/Conv2d_0c_1x3/BatchNorm/batchnorm/mul", "InceptionV3/InceptionV3/Mixed_7c/Branch_2/Conv2d_0c_1x3/BatchNorm/batchnorm/sub"], "attr": {"T": {"type": "DT_FLOAT"}}}, {"name": "InceptionV3/InceptionV3/Mixed_7c/Branch_2/concat", "op": "Concat", "input": ["InceptionV3/InceptionV3/Mixed_7c/concat/concat_dim", "InceptionV3/InceptionV3/Mixed_7c/Branch_2/Conv2d_0c_1x3/BatchNorm/batchnorm/add_1", "InceptionV3/InceptionV3/Mixed_7c/Branch_2/Conv2d_0d_3x1/BatchNorm/batchnorm/add_1"], "attr": {"T": {"type": "DT_FLOAT"}, "N": {"i": "2"}}}, {"name": "InceptionV3/InceptionV3/Mixed_7c/concat", "op": "Concat", "input": ["InceptionV3/InceptionV3/Mixed_7c/concat/concat_dim", "InceptionV3/InceptionV3/Mixed_7c/Branch_0/Conv2d_0a_1x1/BatchNorm/batchnorm/add_1", "InceptionV3/InceptionV3/Mixed_7c/Branch_1/concat", "InceptionV3/InceptionV3/Mixed_7c/Branch_2/concat", "InceptionV3/InceptionV3/Mixed_7c/Branch_3/Conv2d_0b_1x1/BatchNorm/batchnorm/add_1"], "attr": {"T": {"type": "DT_FLOAT"}, "N": {"i": "4"}}}, {"name": "InceptionV3/InceptionV3/Mixed_7c/Branch_0/Conv2d_0a_1x1/Relu", "op": "Relu", "input": ["InceptionV3/InceptionV3/Mixed_7c/concat"], "attr": {"T": {"type": "DT_FLOAT"}}}, {"name": "InceptionV3/logits/pool/AvgPool", "op": "AvgPool", "input": ["InceptionV3/InceptionV3/Mixed_7c/Branch_0/Conv2d_0a_1x1/Relu"], "attr": {"T": {"type": "DT_FLOAT"}, "data_format": {"s": "TkhXQw=="}, "strides": {"list": {"i": ["1", "2", "2", "1"]}}, "ksize": {"list": {"i": ["1", "8", "8", "1"]}}, "padding": {"s": "VkFMSUQ="}}}, {"name": "InceptionV3/logits/flatten/Reshape", "op": "Reshape", "input": ["InceptionV3/logits/pool/AvgPool", "InceptionV3/logits/flatten/Reshape/shape"], "attr": {"T": {"type": "DT_FLOAT"}, "Tshape": {"type": "DT_INT32"}}}, {"name": "image_embedding/image_embedding/MatMul", "op": "MatMul", "input": ["InceptionV3/logits/flatten/Reshape", "image_embedding/weights"], "attr": {"T": {"type": "DT_FLOAT"}, "transpose_a": {"b": false}, "transpose_b": {"b": false}}}, {"name": "lstm/BasicLSTMCell/Linear/concat", "op": "Concat", "input": ["lstm/initial_state/concat_dim", "image_embedding/image_embedding/MatMul", "lstm/zeros"], "attr": {"T": {"type": "DT_FLOAT"}, "N": {"i": "2"}}}, {"name": "lstm/BasicLSTMCell/Linear/MatMul", "op": "MatMul", "input": ["lstm/BasicLSTMCell/Linear/concat", "lstm/BasicLSTMCell/Linear/Matrix"], "attr": {"transpose_b": {"b": false}, "T": {"type": "DT_FLOAT"}, "transpose_a": {"b": false}}}, {"name": "lstm/BasicLSTMCell/add", "op": "Add", "input": ["lstm/BasicLSTMCell/Linear/Bias", "lstm/BasicLSTMCell/Linear/MatMul"], "attr": {"T": {"type": "DT_FLOAT"}}}, {"name": "lstm/BasicLSTMCell/split", "op": "Split", "input": ["lstm/initial_state/concat_dim", "lstm/BasicLSTMCell/add"], "attr": {"T": {"type": "DT_FLOAT"}, "num_split": {"i": "4"}}}, {"name": "lstm/BasicLSTMCell/Tanh", "op": "Tanh", "input": ["lstm/BasicLSTMCell/split:1"], "attr": {"T": {"type": "DT_FLOAT"}}}, {"name": "lstm/BasicLSTMCell/Sigmoid_1", "op": "Sigmoid", "input": ["lstm/BasicLSTMCell/split"], "attr": {"T": {"type": "DT_FLOAT"}}}, {"name": "lstm/BasicLSTMCell/Sigmoid_2", "op": "Sigmoid", "input": ["lstm/BasicLSTMCell/split:3"], "attr": {"T": {"type": "DT_FLOAT"}}}, {"name": "lstm/BasicLSTMCell/mul_1", "op": "Mul", "input": ["lstm/BasicLSTMCell/Sigmoid_1", "lstm/BasicLSTMCell/Tanh"], "attr": {"T": {"type": "DT_FLOAT"}}}, {"name": "lstm/BasicLSTMCell/Tanh_1", "op": "Tanh", "input": ["lstm/BasicLSTMCell/mul_1"], "attr": {"T": {"type": "DT_FLOAT"}}}, {"name": "lstm/BasicLSTMCell/mul_2", "op": "Mul", "input": ["lstm/BasicLSTMCell/Sigmoid_2", "lstm/BasicLSTMCell/Tanh_1"], "attr": {"T": {"type": "DT_FLOAT"}}}, {"name": "lstm/initial_state", "op": "Concat", "input": ["lstm/initial_state/concat_dim", "lstm/BasicLSTMCell/mul_1", "lstm/BasicLSTMCell/mul_2"], "attr": {"T": {"type": "DT_FLOAT"}, "N": {"i": "2"}}}], "library": {}, "versions": {"producer": 38}}, "weightsManifest": [{"paths": ["group1-shard1of36.bin", "group1-shard2of36.bin", "group1-shard3of36.bin", "group1-shard4of36.bin", "group1-shard5of36.bin", "group1-shard6of36.bin", "group1-shard7of36.bin", "group1-shard8of36.bin", "group1-shard9of36.bin", "group1-shard10of36.bin", "group1-shard11of36.bin", "group1-shard12of36.bin", "group1-shard13of36.bin", "group1-shard14of36.bin", "group1-shard15of36.bin", "group1-shard16of36.bin", "group1-shard17of36.bin", "group1-shard18of36.bin", "group1-shard19of36.bin", "group1-shard20of36.bin", "group1-shard21of36.bin", "group1-shard22of36.bin", "group1-shard23of36.bin", "group1-shard24of36.bin", "group1-shard25of36.bin", "group1-shard26of36.bin", "group1-shard27of36.bin", "group1-shard28of36.bin", "group1-shard29of36.bin", "group1-shard30of36.bin", "group1-shard31of36.bin", "group1-shard32of36.bin", "group1-shard33of36.bin", "group1-shard34of36.bin", "group1-shard35of36.bin", "group1-shard36of36.bin"], "weights": [{"name": "logits/biases", "shape": [12000], "dtype": "float32"}, {"name": "logits/weights", "shape": [512, 12000], "dtype": "float32"}, {"name": "Reshape_1/shape", "shape": [2], "dtype": "int32"}, {"name": "lstm/BasicLSTMCell/Linear/Matrix", "shape": [1024, 2048], "dtype": "float32"}, {"name": "lstm/initial_state/concat_dim", "shape": [], "dtype": "int32"}, {"name": "seq_embedding/map", "shape": [12000, 512], "dtype": "float32"}, {"name": "lstm/BasicLSTMCell/Linear/Bias", "shape": [2048], "dtype": "float32"}, {"name": "lstm/BasicLSTMCell/add_1/y", "shape": [], "dtype": "float32"}, {"name": "lstm/zeros", "shape": [1, 512], "dtype": "float32"}, {"name": "image_embedding/weights", "shape": [2048, 512], "dtype": "float32"}, {"name": "InceptionV3/logits/flatten/Reshape/shape", "shape": [2], "dtype": "int32"}, {"name": "InceptionV3/InceptionV3/Mixed_7c/Branch_3/Conv2d_0b_1x1/BatchNorm/batchnorm/sub", "shape": [192], "dtype": "float32"}, {"name": "InceptionV3/InceptionV3/Mixed_7c/Branch_3/Conv2d_0b_1x1/convolution/merged_input", "shape": [1, 1, 2048, 192], "dtype": "float32"}, {"name": "InceptionV3/InceptionV3/Mixed_7b/Branch_3/Conv2d_0b_1x1/BatchNorm/batchnorm/sub", "shape": [192], "dtype": "float32"}, {"name": "InceptionV3/InceptionV3/Mixed_7b/Branch_3/Conv2d_0b_1x1/convolution/merged_input", "shape": [1, 1, 1280, 192], "dtype": "float32"}, {"name": "InceptionV3/InceptionV3/Mixed_6e/Branch_3/Conv2d_0b_1x1/BatchNorm/batchnorm/sub", "shape": [192], "dtype": "float32"}, {"name": "InceptionV3/InceptionV3/Mixed_6e/Branch_3/Conv2d_0b_1x1/convolution/merged_input", "shape": [1, 1, 768, 192], "dtype": "float32"}, {"name": "InceptionV3/InceptionV3/Mixed_6d/Branch_3/Conv2d_0b_1x1/BatchNorm/batchnorm/sub", "shape": [192], "dtype": "float32"}, {"name": "InceptionV3/InceptionV3/Mixed_6d/Branch_3/Conv2d_0b_1x1/convolution/merged_input", "shape": [1, 1, 768, 192], "dtype": "float32"}, {"name": "InceptionV3/InceptionV3/Mixed_6c/Branch_3/Conv2d_0b_1x1/BatchNorm/batchnorm/sub", "shape": [192], "dtype": "float32"}, {"name": "InceptionV3/InceptionV3/Mixed_6c/Branch_3/Conv2d_0b_1x1/convolution/merged_input", "shape": [1, 1, 768, 192], "dtype": "float32"}, {"name": "InceptionV3/InceptionV3/Mixed_6b/Branch_3/Conv2d_0b_1x1/BatchNorm/batchnorm/sub", "shape": [192], "dtype": "float32"}, {"name": "InceptionV3/InceptionV3/Mixed_6b/Branch_3/Conv2d_0b_1x1/convolution/merged_input", "shape": [1, 1, 768, 192], "dtype": "float32"}, {"name": "InceptionV3/InceptionV3/Mixed_5d/Branch_3/Conv2d_0b_1x1/BatchNorm/batchnorm/sub", "shape": [64], "dtype": "float32"}, {"name": "InceptionV3/InceptionV3/Mixed_5d/Branch_3/Conv2d_0b_1x1/convolution/merged_input", "shape": [1, 1, 288, 64], "dtype": "float32"}, {"name": "InceptionV3/InceptionV3/Mixed_5c/Branch_3/Conv2d_0b_1x1/BatchNorm/batchnorm/sub", "shape": [64], "dtype": "float32"}, {"name": "InceptionV3/InceptionV3/Mixed_5c/Branch_3/Conv2d_0b_1x1/convolution/merged_input", "shape": [1, 1, 256, 64], "dtype": "float32"}, {"name": "InceptionV3/InceptionV3/Mixed_5b/Branch_3/Conv2d_0b_1x1/BatchNorm/batchnorm/sub", "shape": [32], "dtype": "float32"}, {"name": "InceptionV3/InceptionV3/Mixed_5b/Branch_3/Conv2d_0b_1x1/convolution/merged_input", "shape": [1, 1, 192, 32], "dtype": "float32"}, {"name": "InceptionV3/InceptionV3/Conv2d_4a_3x3/BatchNorm/batchnorm/sub", "shape": [192], "dtype": "float32"}, {"name": "InceptionV3/InceptionV3/Conv2d_4a_3x3/convolution/merged_input", "shape": [3, 3, 80, 192], "dtype": "float32"}, {"name": "InceptionV3/InceptionV3/Conv2d_3b_1x1/BatchNorm/batchnorm/sub", "shape": [80], "dtype": "float32"}, {"name": "InceptionV3/InceptionV3/Conv2d_3b_1x1/convolution/merged_input", "shape": [1, 1, 64, 80], "dtype": "float32"}, {"name": "InceptionV3/InceptionV3/Conv2d_2b_3x3/BatchNorm/batchnorm/sub", "shape": [64], "dtype": "float32"}, {"name": "InceptionV3/InceptionV3/Conv2d_2b_3x3/convolution/merged_input", "shape": [3, 3, 32, 64], "dtype": "float32"}, {"name": "InceptionV3/InceptionV3/Conv2d_2a_3x3/BatchNorm/batchnorm/sub", "shape": [32], "dtype": "float32"}, {"name": "InceptionV3/InceptionV3/Conv2d_2a_3x3/convolution/merged_input", "shape": [3, 3, 32, 32], "dtype": "float32"}, {"name": "InceptionV3/InceptionV3/Conv2d_1a_3x3/BatchNorm/batchnorm/sub", "shape": [32], "dtype": "float32"}, {"name": "InceptionV3/InceptionV3/Conv2d_1a_3x3/convolution/merged_input", "shape": [3, 3, 3, 32], "dtype": "float32"}, {"name": "InceptionV3/InceptionV3/Mixed_5b/Branch_2/Conv2d_0c_3x3/BatchNorm/batchnorm/sub", "shape": [96], "dtype": "float32"}, {"name": "InceptionV3/InceptionV3/Mixed_5b/Branch_2/Conv2d_0c_3x3/convolution/merged_input", "shape": [3, 3, 96, 96], "dtype": "float32"}, {"name": "InceptionV3/InceptionV3/Mixed_5b/Branch_2/Conv2d_0b_3x3/BatchNorm/batchnorm/sub", "shape": [96], "dtype": "float32"}, {"name": "InceptionV3/InceptionV3/Mixed_5b/Branch_2/Conv2d_0b_3x3/convolution/merged_input", "shape": [3, 3, 64, 96], "dtype": "float32"}, {"name": "InceptionV3/InceptionV3/Mixed_5b/Branch_2/Conv2d_0a_1x1/BatchNorm/batchnorm/sub", "shape": [64], "dtype": "float32"}, {"name": "InceptionV3/InceptionV3/Mixed_5b/Branch_2/Conv2d_0a_1x1/convolution/merged_input", "shape": [1, 1, 192, 64], "dtype": "float32"}, {"name": "InceptionV3/InceptionV3/Mixed_5b/Branch_1/Conv2d_0b_5x5/BatchNorm/batchnorm/sub", "shape": [64], "dtype": "float32"}, {"name": "InceptionV3/InceptionV3/Mixed_5b/Branch_1/Conv2d_0b_5x5/convolution/merged_input", "shape": [5, 5, 48, 64], "dtype": "float32"}, {"name": "InceptionV3/InceptionV3/Mixed_5b/Branch_1/Conv2d_0a_1x1/BatchNorm/batchnorm/sub", "shape": [48], "dtype": "float32"}, {"name": "InceptionV3/InceptionV3/Mixed_5b/Branch_1/Conv2d_0a_1x1/convolution/merged_input", "shape": [1, 1, 192, 48], "dtype": "float32"}, {"name": "InceptionV3/InceptionV3/Mixed_5b/Branch_0/Conv2d_0a_1x1/BatchNorm/batchnorm/sub", "shape": [64], "dtype": "float32"}, {"name": "InceptionV3/InceptionV3/Mixed_5b/Branch_0/Conv2d_0a_1x1/convolution/merged_input", "shape": [1, 1, 192, 64], "dtype": "float32"}, {"name": "InceptionV3/InceptionV3/Mixed_7c/concat/concat_dim", "shape": [], "dtype": "int32"}, {"name": "InceptionV3/InceptionV3/Mixed_5c/Branch_2/Conv2d_0c_3x3/BatchNorm/batchnorm/sub", "shape": [96], "dtype": "float32"}, {"name": "InceptionV3/InceptionV3/Mixed_5c/Branch_2/Conv2d_0c_3x3/convolution/merged_input", "shape": [3, 3, 96, 96], "dtype": "float32"}, {"name": "InceptionV3/InceptionV3/Mixed_5c/Branch_2/Conv2d_0b_3x3/BatchNorm/batchnorm/sub", "shape": [96], "dtype": "float32"}, {"name": "InceptionV3/InceptionV3/Mixed_5c/Branch_2/Conv2d_0b_3x3/convolution/merged_input", "shape": [3, 3, 64, 96], "dtype": "float32"}, {"name": "InceptionV3/InceptionV3/Mixed_5c/Branch_2/Conv2d_0a_1x1/BatchNorm/batchnorm/sub", "shape": [64], "dtype": "float32"}, {"name": "InceptionV3/InceptionV3/Mixed_5c/Branch_2/Conv2d_0a_1x1/convolution/merged_input", "shape": [1, 1, 256, 64], "dtype": "float32"}, {"name": "InceptionV3/InceptionV3/Mixed_5c/Branch_1/Conv_1_0c_5x5/BatchNorm/batchnorm/sub", "shape": [64], "dtype": "float32"}, {"name": "InceptionV3/InceptionV3/Mixed_5c/Branch_1/Conv_1_0c_5x5/convolution/merged_input", "shape": [5, 5, 48, 64], "dtype": "float32"}, {"name": "InceptionV3/InceptionV3/Mixed_5c/Branch_1/Conv2d_0b_1x1/BatchNorm/batchnorm/sub", "shape": [48], "dtype": "float32"}, {"name": "InceptionV3/InceptionV3/Mixed_5c/Branch_1/Conv2d_0b_1x1/convolution/merged_input", "shape": [1, 1, 256, 48], "dtype": "float32"}, {"name": "InceptionV3/InceptionV3/Mixed_5c/Branch_0/Conv2d_0a_1x1/BatchNorm/batchnorm/sub", "shape": [64], "dtype": "float32"}, {"name": "InceptionV3/InceptionV3/Mixed_5c/Branch_0/Conv2d_0a_1x1/convolution/merged_input", "shape": [1, 1, 256, 64], "dtype": "float32"}, {"name": "InceptionV3/InceptionV3/Mixed_5d/Branch_2/Conv2d_0c_3x3/BatchNorm/batchnorm/sub", "shape": [96], "dtype": "float32"}, {"name": "InceptionV3/InceptionV3/Mixed_5d/Branch_2/Conv2d_0c_3x3/convolution/merged_input", "shape": [3, 3, 96, 96], "dtype": "float32"}, {"name": "InceptionV3/InceptionV3/Mixed_5d/Branch_2/Conv2d_0b_3x3/BatchNorm/batchnorm/sub", "shape": [96], "dtype": "float32"}, {"name": "InceptionV3/InceptionV3/Mixed_5d/Branch_2/Conv2d_0b_3x3/convolution/merged_input", "shape": [3, 3, 64, 96], "dtype": "float32"}, {"name": "InceptionV3/InceptionV3/Mixed_5d/Branch_2/Conv2d_0a_1x1/BatchNorm/batchnorm/sub", "shape": [64], "dtype": "float32"}, {"name": "InceptionV3/InceptionV3/Mixed_5d/Branch_2/Conv2d_0a_1x1/convolution/merged_input", "shape": [1, 1, 288, 64], "dtype": "float32"}, {"name": "InceptionV3/InceptionV3/Mixed_5d/Branch_1/Conv2d_0b_5x5/BatchNorm/batchnorm/sub", "shape": [64], "dtype": "float32"}, {"name": "InceptionV3/InceptionV3/Mixed_5d/Branch_1/Conv2d_0b_5x5/convolution/merged_input", "shape": [5, 5, 48, 64], "dtype": "float32"}, {"name": "InceptionV3/InceptionV3/Mixed_5d/Branch_1/Conv2d_0a_1x1/BatchNorm/batchnorm/sub", "shape": [48], "dtype": "float32"}, {"name": "InceptionV3/InceptionV3/Mixed_5d/Branch_1/Conv2d_0a_1x1/convolution/merged_input", "shape": [1, 1, 288, 48], "dtype": "float32"}, {"name": "InceptionV3/InceptionV3/Mixed_5d/Branch_0/Conv2d_0a_1x1/BatchNorm/batchnorm/sub", "shape": [64], "dtype": "float32"}, {"name": "InceptionV3/InceptionV3/Mixed_5d/Branch_0/Conv2d_0a_1x1/convolution/merged_input", "shape": [1, 1, 288, 64], "dtype": "float32"}, {"name": "InceptionV3/InceptionV3/Mixed_6a/Branch_1/Conv2d_1a_1x1/BatchNorm/batchnorm/sub", "shape": [96], "dtype": "float32"}, {"name": "InceptionV3/InceptionV3/Mixed_6a/Branch_1/Conv2d_1a_1x1/convolution/merged_input", "shape": [3, 3, 96, 96], "dtype": "float32"}, {"name": "InceptionV3/InceptionV3/Mixed_6a/Branch_1/Conv2d_0b_3x3/BatchNorm/batchnorm/sub", "shape": [96], "dtype": "float32"}, {"name": "InceptionV3/InceptionV3/Mixed_6a/Branch_1/Conv2d_0b_3x3/convolution/merged_input", "shape": [3, 3, 64, 96], "dtype": "float32"}, {"name": "InceptionV3/InceptionV3/Mixed_6a/Branch_1/Conv2d_0a_1x1/BatchNorm/batchnorm/sub", "shape": [64], "dtype": "float32"}, {"name": "InceptionV3/InceptionV3/Mixed_6a/Branch_1/Conv2d_0a_1x1/convolution/merged_input", "shape": [1, 1, 288, 64], "dtype": "float32"}, {"name": "InceptionV3/InceptionV3/Mixed_6a/Branch_0/Conv2d_1a_1x1/BatchNorm/batchnorm/sub", "shape": [384], "dtype": "float32"}, {"name": "InceptionV3/InceptionV3/Mixed_6a/Branch_0/Conv2d_1a_1x1/convolution/merged_input", "shape": [3, 3, 288, 384], "dtype": "float32"}, {"name": "InceptionV3/InceptionV3/Mixed_6b/Branch_2/Conv2d_0e_1x7/BatchNorm/batchnorm/sub", "shape": [192], "dtype": "float32"}, {"name": "InceptionV3/InceptionV3/Mixed_6b/Branch_2/Conv2d_0e_1x7/convolution/merged_input", "shape": [1, 7, 128, 192], "dtype": "float32"}, {"name": "InceptionV3/InceptionV3/Mixed_6b/Branch_2/Conv2d_0d_7x1/BatchNorm/batchnorm/sub", "shape": [128], "dtype": "float32"}, {"name": "InceptionV3/InceptionV3/Mixed_6b/Branch_2/Conv2d_0d_7x1/convolution/merged_input", "shape": [7, 1, 128, 128], "dtype": "float32"}, {"name": "InceptionV3/InceptionV3/Mixed_6b/Branch_2/Conv2d_0c_1x7/BatchNorm/batchnorm/sub", "shape": [128], "dtype": "float32"}, {"name": "InceptionV3/InceptionV3/Mixed_6b/Branch_2/Conv2d_0c_1x7/convolution/merged_input", "shape": [1, 7, 128, 128], "dtype": "float32"}, {"name": "InceptionV3/InceptionV3/Mixed_6b/Branch_2/Conv2d_0b_7x1/BatchNorm/batchnorm/sub", "shape": [128], "dtype": "float32"}, {"name": "InceptionV3/InceptionV3/Mixed_6b/Branch_2/Conv2d_0b_7x1/convolution/merged_input", "shape": [7, 1, 128, 128], "dtype": "float32"}, {"name": "InceptionV3/InceptionV3/Mixed_6b/Branch_2/Conv2d_0a_1x1/BatchNorm/batchnorm/sub", "shape": [128], "dtype": "float32"}, {"name": "InceptionV3/InceptionV3/Mixed_6b/Branch_2/Conv2d_0a_1x1/convolution/merged_input", "shape": [1, 1, 768, 128], "dtype": "float32"}, {"name": "InceptionV3/InceptionV3/Mixed_6b/Branch_1/Conv2d_0c_7x1/BatchNorm/batchnorm/sub", "shape": [192], "dtype": "float32"}, {"name": "InceptionV3/InceptionV3/Mixed_6b/Branch_1/Conv2d_0c_7x1/convolution/merged_input", "shape": [7, 1, 128, 192], "dtype": "float32"}, {"name": "InceptionV3/InceptionV3/Mixed_6b/Branch_1/Conv2d_0b_1x7/BatchNorm/batchnorm/sub", "shape": [128], "dtype": "float32"}, {"name": "InceptionV3/InceptionV3/Mixed_6b/Branch_1/Conv2d_0b_1x7/convolution/merged_input", "shape": [1, 7, 128, 128], "dtype": "float32"}, {"name": "InceptionV3/InceptionV3/Mixed_6b/Branch_1/Conv2d_0a_1x1/BatchNorm/batchnorm/sub", "shape": [128], "dtype": "float32"}, {"name": "InceptionV3/InceptionV3/Mixed_6b/Branch_1/Conv2d_0a_1x1/convolution/merged_input", "shape": [1, 1, 768, 128], "dtype": "float32"}, {"name": "InceptionV3/InceptionV3/Mixed_6b/Branch_0/Conv2d_0a_1x1/BatchNorm/batchnorm/sub", "shape": [192], "dtype": "float32"}, {"name": "InceptionV3/InceptionV3/Mixed_6b/Branch_0/Conv2d_0a_1x1/convolution/merged_input", "shape": [1, 1, 768, 192], "dtype": "float32"}, {"name": "InceptionV3/InceptionV3/Mixed_6c/Branch_2/Conv2d_0e_1x7/BatchNorm/batchnorm/sub", "shape": [192], "dtype": "float32"}, {"name": "InceptionV3/InceptionV3/Mixed_6c/Branch_2/Conv2d_0e_1x7/convolution/merged_input", "shape": [1, 7, 160, 192], "dtype": "float32"}, {"name": "InceptionV3/InceptionV3/Mixed_6c/Branch_2/Conv2d_0d_7x1/BatchNorm/batchnorm/sub", "shape": [160], "dtype": "float32"}, {"name": "InceptionV3/InceptionV3/Mixed_6c/Branch_2/Conv2d_0d_7x1/convolution/merged_input", "shape": [7, 1, 160, 160], "dtype": "float32"}, {"name": "InceptionV3/InceptionV3/Mixed_6c/Branch_2/Conv2d_0c_1x7/BatchNorm/batchnorm/sub", "shape": [160], "dtype": "float32"}, {"name": "InceptionV3/InceptionV3/Mixed_6c/Branch_2/Conv2d_0c_1x7/convolution/merged_input", "shape": [1, 7, 160, 160], "dtype": "float32"}, {"name": "InceptionV3/InceptionV3/Mixed_6c/Branch_2/Conv2d_0b_7x1/BatchNorm/batchnorm/sub", "shape": [160], "dtype": "float32"}, {"name": "InceptionV3/InceptionV3/Mixed_6c/Branch_2/Conv2d_0b_7x1/convolution/merged_input", "shape": [7, 1, 160, 160], "dtype": "float32"}, {"name": "InceptionV3/InceptionV3/Mixed_6c/Branch_2/Conv2d_0a_1x1/BatchNorm/batchnorm/sub", "shape": [160], "dtype": "float32"}, {"name": "InceptionV3/InceptionV3/Mixed_6c/Branch_2/Conv2d_0a_1x1/convolution/merged_input", "shape": [1, 1, 768, 160], "dtype": "float32"}, {"name": "InceptionV3/InceptionV3/Mixed_6c/Branch_1/Conv2d_0c_7x1/BatchNorm/batchnorm/sub", "shape": [192], "dtype": "float32"}, {"name": "InceptionV3/InceptionV3/Mixed_6c/Branch_1/Conv2d_0c_7x1/convolution/merged_input", "shape": [7, 1, 160, 192], "dtype": "float32"}, {"name": "InceptionV3/InceptionV3/Mixed_6c/Branch_1/Conv2d_0b_1x7/BatchNorm/batchnorm/sub", "shape": [160], "dtype": "float32"}, {"name": "InceptionV3/InceptionV3/Mixed_6c/Branch_1/Conv2d_0b_1x7/convolution/merged_input", "shape": [1, 7, 160, 160], "dtype": "float32"}, {"name": "InceptionV3/InceptionV3/Mixed_6c/Branch_1/Conv2d_0a_1x1/BatchNorm/batchnorm/sub", "shape": [160], "dtype": "float32"}, {"name": "InceptionV3/InceptionV3/Mixed_6c/Branch_1/Conv2d_0a_1x1/convolution/merged_input", "shape": [1, 1, 768, 160], "dtype": "float32"}, {"name": "InceptionV3/InceptionV3/Mixed_6c/Branch_0/Conv2d_0a_1x1/BatchNorm/batchnorm/sub", "shape": [192], "dtype": "float32"}, {"name": "InceptionV3/InceptionV3/Mixed_6c/Branch_0/Conv2d_0a_1x1/convolution/merged_input", "shape": [1, 1, 768, 192], "dtype": "float32"}, {"name": "InceptionV3/InceptionV3/Mixed_6d/Branch_2/Conv2d_0e_1x7/BatchNorm/batchnorm/sub", "shape": [192], "dtype": "float32"}, {"name": "InceptionV3/InceptionV3/Mixed_6d/Branch_2/Conv2d_0e_1x7/convolution/merged_input", "shape": [1, 7, 160, 192], "dtype": "float32"}, {"name": "InceptionV3/InceptionV3/Mixed_6d/Branch_2/Conv2d_0d_7x1/BatchNorm/batchnorm/sub", "shape": [160], "dtype": "float32"}, {"name": "InceptionV3/InceptionV3/Mixed_6d/Branch_2/Conv2d_0d_7x1/convolution/merged_input", "shape": [7, 1, 160, 160], "dtype": "float32"}, {"name": "InceptionV3/InceptionV3/Mixed_6d/Branch_2/Conv2d_0c_1x7/BatchNorm/batchnorm/sub", "shape": [160], "dtype": "float32"}, {"name": "InceptionV3/InceptionV3/Mixed_6d/Branch_2/Conv2d_0c_1x7/convolution/merged_input", "shape": [1, 7, 160, 160], "dtype": "float32"}, {"name": "InceptionV3/InceptionV3/Mixed_6d/Branch_2/Conv2d_0b_7x1/BatchNorm/batchnorm/sub", "shape": [160], "dtype": "float32"}, {"name": "InceptionV3/InceptionV3/Mixed_6d/Branch_2/Conv2d_0b_7x1/convolution/merged_input", "shape": [7, 1, 160, 160], "dtype": "float32"}, {"name": "InceptionV3/InceptionV3/Mixed_6d/Branch_2/Conv2d_0a_1x1/BatchNorm/batchnorm/sub", "shape": [160], "dtype": "float32"}, {"name": "InceptionV3/InceptionV3/Mixed_6d/Branch_2/Conv2d_0a_1x1/convolution/merged_input", "shape": [1, 1, 768, 160], "dtype": "float32"}, {"name": "InceptionV3/InceptionV3/Mixed_6d/Branch_1/Conv2d_0c_7x1/BatchNorm/batchnorm/sub", "shape": [192], "dtype": "float32"}, {"name": "InceptionV3/InceptionV3/Mixed_6d/Branch_1/Conv2d_0c_7x1/convolution/merged_input", "shape": [7, 1, 160, 192], "dtype": "float32"}, {"name": "InceptionV3/InceptionV3/Mixed_6d/Branch_1/Conv2d_0b_1x7/BatchNorm/batchnorm/sub", "shape": [160], "dtype": "float32"}, {"name": "InceptionV3/InceptionV3/Mixed_6d/Branch_1/Conv2d_0b_1x7/convolution/merged_input", "shape": [1, 7, 160, 160], "dtype": "float32"}, {"name": "InceptionV3/InceptionV3/Mixed_6d/Branch_1/Conv2d_0a_1x1/BatchNorm/batchnorm/sub", "shape": [160], "dtype": "float32"}, {"name": "InceptionV3/InceptionV3/Mixed_6d/Branch_1/Conv2d_0a_1x1/convolution/merged_input", "shape": [1, 1, 768, 160], "dtype": "float32"}, {"name": "InceptionV3/InceptionV3/Mixed_6d/Branch_0/Conv2d_0a_1x1/BatchNorm/batchnorm/sub", "shape": [192], "dtype": "float32"}, {"name": "InceptionV3/InceptionV3/Mixed_6d/Branch_0/Conv2d_0a_1x1/convolution/merged_input", "shape": [1, 1, 768, 192], "dtype": "float32"}, {"name": "InceptionV3/InceptionV3/Mixed_6e/Branch_2/Conv2d_0e_1x7/BatchNorm/batchnorm/sub", "shape": [192], "dtype": "float32"}, {"name": "InceptionV3/InceptionV3/Mixed_6e/Branch_2/Conv2d_0e_1x7/convolution/merged_input", "shape": [1, 7, 192, 192], "dtype": "float32"}, {"name": "InceptionV3/InceptionV3/Mixed_6e/Branch_2/Conv2d_0d_7x1/BatchNorm/batchnorm/sub", "shape": [192], "dtype": "float32"}, {"name": "InceptionV3/InceptionV3/Mixed_6e/Branch_2/Conv2d_0d_7x1/convolution/merged_input", "shape": [7, 1, 192, 192], "dtype": "float32"}, {"name": "InceptionV3/InceptionV3/Mixed_6e/Branch_2/Conv2d_0c_1x7/BatchNorm/batchnorm/sub", "shape": [192], "dtype": "float32"}, {"name": "InceptionV3/InceptionV3/Mixed_6e/Branch_2/Conv2d_0c_1x7/convolution/merged_input", "shape": [1, 7, 192, 192], "dtype": "float32"}, {"name": "InceptionV3/InceptionV3/Mixed_6e/Branch_2/Conv2d_0b_7x1/BatchNorm/batchnorm/sub", "shape": [192], "dtype": "float32"}, {"name": "InceptionV3/InceptionV3/Mixed_6e/Branch_2/Conv2d_0b_7x1/convolution/merged_input", "shape": [7, 1, 192, 192], "dtype": "float32"}, {"name": "InceptionV3/InceptionV3/Mixed_6e/Branch_2/Conv2d_0a_1x1/BatchNorm/batchnorm/sub", "shape": [192], "dtype": "float32"}, {"name": "InceptionV3/InceptionV3/Mixed_6e/Branch_2/Conv2d_0a_1x1/convolution/merged_input", "shape": [1, 1, 768, 192], "dtype": "float32"}, {"name": "InceptionV3/InceptionV3/Mixed_6e/Branch_1/Conv2d_0c_7x1/BatchNorm/batchnorm/sub", "shape": [192], "dtype": "float32"}, {"name": "InceptionV3/InceptionV3/Mixed_6e/Branch_1/Conv2d_0c_7x1/convolution/merged_input", "shape": [7, 1, 192, 192], "dtype": "float32"}, {"name": "InceptionV3/InceptionV3/Mixed_6e/Branch_1/Conv2d_0b_1x7/BatchNorm/batchnorm/sub", "shape": [192], "dtype": "float32"}, {"name": "InceptionV3/InceptionV3/Mixed_6e/Branch_1/Conv2d_0b_1x7/convolution/merged_input", "shape": [1, 7, 192, 192], "dtype": "float32"}, {"name": "InceptionV3/InceptionV3/Mixed_6e/Branch_1/Conv2d_0a_1x1/BatchNorm/batchnorm/sub", "shape": [192], "dtype": "float32"}, {"name": "InceptionV3/InceptionV3/Mixed_6e/Branch_1/Conv2d_0a_1x1/convolution/merged_input", "shape": [1, 1, 768, 192], "dtype": "float32"}, {"name": "InceptionV3/InceptionV3/Mixed_6e/Branch_0/Conv2d_0a_1x1/BatchNorm/batchnorm/sub", "shape": [192], "dtype": "float32"}, {"name": "InceptionV3/InceptionV3/Mixed_6e/Branch_0/Conv2d_0a_1x1/convolution/merged_input", "shape": [1, 1, 768, 192], "dtype": "float32"}, {"name": "InceptionV3/InceptionV3/Mixed_7a/Branch_1/Conv2d_1a_3x3/BatchNorm/batchnorm/sub", "shape": [192], "dtype": "float32"}, {"name": "InceptionV3/InceptionV3/Mixed_7a/Branch_1/Conv2d_1a_3x3/convolution/merged_input", "shape": [3, 3, 192, 192], "dtype": "float32"}, {"name": "InceptionV3/InceptionV3/Mixed_7a/Branch_1/Conv2d_0c_7x1/BatchNorm/batchnorm/sub", "shape": [192], "dtype": "float32"}, {"name": "InceptionV3/InceptionV3/Mixed_7a/Branch_1/Conv2d_0c_7x1/convolution/merged_input", "shape": [7, 1, 192, 192], "dtype": "float32"}, {"name": "InceptionV3/InceptionV3/Mixed_7a/Branch_1/Conv2d_0b_1x7/BatchNorm/batchnorm/sub", "shape": [192], "dtype": "float32"}, {"name": "InceptionV3/InceptionV3/Mixed_7a/Branch_1/Conv2d_0b_1x7/convolution/merged_input", "shape": [1, 7, 192, 192], "dtype": "float32"}, {"name": "InceptionV3/InceptionV3/Mixed_7a/Branch_1/Conv2d_0a_1x1/BatchNorm/batchnorm/sub", "shape": [192], "dtype": "float32"}, {"name": "InceptionV3/InceptionV3/Mixed_7a/Branch_1/Conv2d_0a_1x1/convolution/merged_input", "shape": [1, 1, 768, 192], "dtype": "float32"}, {"name": "InceptionV3/InceptionV3/Mixed_7a/Branch_0/Conv2d_1a_3x3/BatchNorm/batchnorm/sub", "shape": [320], "dtype": "float32"}, {"name": "InceptionV3/InceptionV3/Mixed_7a/Branch_0/Conv2d_1a_3x3/convolution/merged_input", "shape": [3, 3, 192, 320], "dtype": "float32"}, {"name": "InceptionV3/InceptionV3/Mixed_7a/Branch_0/Conv2d_0a_1x1/BatchNorm/batchnorm/sub", "shape": [192], "dtype": "float32"}, {"name": "InceptionV3/InceptionV3/Mixed_7a/Branch_0/Conv2d_0a_1x1/convolution/merged_input", "shape": [1, 1, 768, 192], "dtype": "float32"}, {"name": "InceptionV3/InceptionV3/Mixed_7b/Branch_2/Conv2d_0d_3x1/BatchNorm/batchnorm/sub", "shape": [384], "dtype": "float32"}, {"name": "InceptionV3/InceptionV3/Mixed_7b/Branch_2/Conv2d_0d_3x1/convolution/merged_input", "shape": [3, 1, 384, 384], "dtype": "float32"}, {"name": "InceptionV3/InceptionV3/Mixed_7b/Branch_2/Conv2d_0b_3x3/BatchNorm/batchnorm/sub", "shape": [384], "dtype": "float32"}, {"name": "InceptionV3/InceptionV3/Mixed_7b/Branch_2/Conv2d_0b_3x3/convolution/merged_input", "shape": [3, 3, 448, 384], "dtype": "float32"}, {"name": "InceptionV3/InceptionV3/Mixed_7b/Branch_2/Conv2d_0a_1x1/BatchNorm/batchnorm/sub", "shape": [448], "dtype": "float32"}, {"name": "InceptionV3/InceptionV3/Mixed_7b/Branch_2/Conv2d_0a_1x1/convolution/merged_input", "shape": [1, 1, 1280, 448], "dtype": "float32"}, {"name": "InceptionV3/InceptionV3/Mixed_7b/Branch_2/Conv2d_0c_1x3/BatchNorm/batchnorm/sub", "shape": [384], "dtype": "float32"}, {"name": "InceptionV3/InceptionV3/Mixed_7b/Branch_2/Conv2d_0c_1x3/convolution/merged_input", "shape": [1, 3, 384, 384], "dtype": "float32"}, {"name": "InceptionV3/InceptionV3/Mixed_7b/Branch_1/Conv2d_0b_3x1/BatchNorm/batchnorm/sub", "shape": [384], "dtype": "float32"}, {"name": "InceptionV3/InceptionV3/Mixed_7b/Branch_1/Conv2d_0b_3x1/convolution/merged_input", "shape": [3, 1, 384, 384], "dtype": "float32"}, {"name": "InceptionV3/InceptionV3/Mixed_7b/Branch_1/Conv2d_0a_1x1/BatchNorm/batchnorm/sub", "shape": [384], "dtype": "float32"}, {"name": "InceptionV3/InceptionV3/Mixed_7b/Branch_1/Conv2d_0a_1x1/convolution/merged_input", "shape": [1, 1, 1280, 384], "dtype": "float32"}, {"name": "InceptionV3/InceptionV3/Mixed_7b/Branch_1/Conv2d_0b_1x3/BatchNorm/batchnorm/sub", "shape": [384], "dtype": "float32"}, {"name": "InceptionV3/InceptionV3/Mixed_7b/Branch_1/Conv2d_0b_1x3/convolution/merged_input", "shape": [1, 3, 384, 384], "dtype": "float32"}, {"name": "InceptionV3/InceptionV3/Mixed_7b/Branch_0/Conv2d_0a_1x1/BatchNorm/batchnorm/sub", "shape": [320], "dtype": "float32"}, {"name": "InceptionV3/InceptionV3/Mixed_7b/Branch_0/Conv2d_0a_1x1/convolution/merged_input", "shape": [1, 1, 1280, 320], "dtype": "float32"}, {"name": "InceptionV3/InceptionV3/Mixed_7c/Branch_2/Conv2d_0d_3x1/BatchNorm/batchnorm/sub", "shape": [384], "dtype": "float32"}, {"name": "InceptionV3/InceptionV3/Mixed_7c/Branch_2/Conv2d_0d_3x1/convolution/merged_input", "shape": [3, 1, 384, 384], "dtype": "float32"}, {"name": "InceptionV3/InceptionV3/Mixed_7c/Branch_2/Conv2d_0b_3x3/BatchNorm/batchnorm/sub", "shape": [384], "dtype": "float32"}, {"name": "InceptionV3/InceptionV3/Mixed_7c/Branch_2/Conv2d_0b_3x3/convolution/merged_input", "shape": [3, 3, 448, 384], "dtype": "float32"}, {"name": "InceptionV3/InceptionV3/Mixed_7c/Branch_2/Conv2d_0a_1x1/BatchNorm/batchnorm/sub", "shape": [448], "dtype": "float32"}, {"name": "InceptionV3/InceptionV3/Mixed_7c/Branch_2/Conv2d_0a_1x1/convolution/merged_input", "shape": [1, 1, 2048, 448], "dtype": "float32"}, {"name": "InceptionV3/InceptionV3/Mixed_7c/Branch_2/Conv2d_0c_1x3/BatchNorm/batchnorm/sub", "shape": [384], "dtype": "float32"}, {"name": "InceptionV3/InceptionV3/Mixed_7c/Branch_2/Conv2d_0c_1x3/convolution/merged_input", "shape": [1, 3, 384, 384], "dtype": "float32"}, {"name": "InceptionV3/InceptionV3/Mixed_7c/Branch_1/Conv2d_0c_3x1/BatchNorm/batchnorm/sub", "shape": [384], "dtype": "float32"}, {"name": "InceptionV3/InceptionV3/Mixed_7c/Branch_1/Conv2d_0c_3x1/convolution/merged_input", "shape": [3, 1, 384, 384], "dtype": "float32"}, {"name": "InceptionV3/InceptionV3/Mixed_7c/Branch_1/Conv2d_0a_1x1/BatchNorm/batchnorm/sub", "shape": [384], "dtype": "float32"}, {"name": "InceptionV3/InceptionV3/Mixed_7c/Branch_1/Conv2d_0a_1x1/convolution/merged_input", "shape": [1, 1, 2048, 384], "dtype": "float32"}, {"name": "InceptionV3/InceptionV3/Mixed_7c/Branch_1/Conv2d_0b_1x3/BatchNorm/batchnorm/sub", "shape": [384], "dtype": "float32"}, {"name": "InceptionV3/InceptionV3/Mixed_7c/Branch_1/Conv2d_0b_1x3/convolution/merged_input", "shape": [1, 3, 384, 384], "dtype": "float32"}, {"name": "InceptionV3/InceptionV3/Mixed_7c/Branch_0/Conv2d_0a_1x1/BatchNorm/batchnorm/sub", "shape": [320], "dtype": "float32"}, {"name": "InceptionV3/InceptionV3/Mixed_7c/Branch_0/Conv2d_0a_1x1/convolution/merged_input", "shape": [1, 1, 2048, 320], "dtype": "float32"}]}]}